checkpoint_actor_2.pth (torch_old, 163792 bytes, 10 tensors)

fc1.weight f4 [256, 24]
-0.05108172 0.05080238 -0.061641864 -0.0059051523 0.017276842 -0.07674092 0.018410064 -0.025741335
-0.0033816355 0.061974365 -0.047437645 -0.029365547 -0.09416531 -0.10206042 -0.06527639 -0.02278161
-0.054932687 0.025038445 0.019946245 -0.016219307 0.02662609 -0.030628817 -0.022938052 -0.006540407
-0.0603819 -0.14491074 -0.04314115 0.061103947 0.014693583 -0.052102167 0.042459477 0.026984392
0.026586458 -0.038569894 0.024677387 0.038337227 0.04004412 -0.15314622 -0.0026611446 0.073579356
-0.032090936 0.0025369776 0.067422844 0.09860597 -0.07133897 0.019254504 0.03465178 0.02654448
-0.01334577 0.057005793 0.038443346 -0.035396088 -0.022969557 0.12710373 -0.05867279 -0.020914031
0.0374493 0.02827482 -0.01668021 0.00068043283 0.045697596 0.10156169 -0.0012939906 -0.09464359
0.07212146 0.062046777 0.020772286 -0.026840258 0.11208122 -0.008228954 -0.01088551 -0.118081205
0.028776113 0.027186742 0.009818053 0.091240466 0.0051264637 -0.021509336 0.03254661 0.00049877743
0.060438786 0.04395418 0.02806235 -0.04351504 -0.018879354 -0.033087257 0.009767094 -0.081898354
0.052225325 -0.01678112 0.015714785 0.009270586 0.08000989 0.1535665 0.013605893 -0.005802146
-0.0052233343 -0.026383812 -0.010070826 0.0035345226 0.08181005 0.054323945 -0.0008250488 0.05389912
0.007781493 0.0035141024 -0.04171936 -0.05274119 -0.029811272 0.07012938 0.03234915 0.036890224
-0.006888007 -0.008663072 -0.023963954 0.023332877 -0.19811878 0.09080297 0.025968883 -0.028146358
-0.007811672 0.10686297 0.058940664 -0.022749936 0.07190927 -0.19444658 0.024536373 -0.036564097
-0.066655055 0.15546596 -0.03666857 0.003539837 0.03879285 -0.14903365 0.011833551 0.03011807
-0.06041599 0.061325643 0.022884477 -0.0114481775 -0.016633833 -0.048621997 -0.007345225 -0.036270197
-0.07320794 0.03197388 -0.050825488 0.023340981 -0.016310157 -0.026926825 0.047644295 0.009693571
-0.012776158 0.04876345 -0.024546504 0.07215386 0.10070784 -0.18096727 0.025878444 0.013669205
-0.08363117 -0.0159932 -0.03528068 0.011461815 0.026909066 -0.16288765 0.036164757 0.0048396215
0.048492324 -0.054027542 -0.054184657 0.030059867 -0.014739376 -0.06044481 0.048813853 0.03581873
-0.048454728 0.03898867 0.02118621 0.017132273 0.0017064025 0.008820316 0.061000314 0.004882476
0.029248925 -0.058361925 -0.0023920257 0.052564237 -0.05162977 -0.025536204 0.046313602 0.024567109
-0.043070488 0.077329464 0.023520466 -0.025920222 0.0042889 0.20446686 -0.017091023 0.017701076
-0.03289103 0.08474358 -0.026334973 -0.07817762 -0.014748829 0.103223324 0.046179213 -0.010083467
0.060958736 -0.021381686 -0.03143721 -0.091440015 -0.088451035 0.06788007 0.05434396 -0.027945787
0.05631449 -0.01458458 -0.019427832 0.022453636 0.0055387802 0.18254556 0.02503961 0.039630864
0.049451172 -0.014933232 -0.02583032 0.06703987 -0.017063504 0.18498725 0.038841788 -0.029786127
0.04563323 0.04807339 -0.016364878 0.011292708 -0.13782099 0.06667498 0.021670744 0.09897564
0.01636777 0.010598483 0.013400998 0.027336046 0.0054514483 0.16607024 -0.004762097 0.014138579
-0.002898382 -0.030976227 -0.01613086 0.013829331 -0.032699015 0.094916865 0.024931753 0.020338716
00000000: 113b 51bd 2816 503d 2e7c 7cbd 0280 c1bb
00000010: 2a88 8d3c 582a 9dbd b4d0 963c 7edf d2bc
00000020: 6e9e 5dbb d5d8 7d3d fa4d 42bd 0490 f0bc
00000030: bed9 c0bd 0e05 d1bd a1af 85bd 80a0 babc
00000040: 1901 61bd 6d1d cd3c 4f66 a33c 5ade 84bc
00000050: f51e da3c 49e9 fabc 95e8 bbbc e950 d6bb
00000060: 0353 77bd 7b63 14be c6b4 30bd 2248 7a3d
00000070: 5bbd 703c 1569 55bd fde9 2d3d 5f0e dd3c
00000080: d8cb d93c 77fb 1dbd 3b28 ca3c 7f07 1d3d
00000090: 4e05 243d 5dd2 1cbe 9966 2ebb c6b0 963d
000000a0: c971 03bd 6c43 263b fd14 8a3d edf1 c93d
000000b0: 2a1a 92bd 9fbb 9d3c 06ef 0d3d cf73 d93c
000000c0: 37a8 5abc e87e 693d c576 1d3d 7dfb 10bd
000000d0: a72a bcbc 7b27 023e e152 70bd e753 abbc
000000e0: 7064 193d 98a0 e73c f0a4 88bc 135f 323a
000000f0: 672d 3b3d 93ff cf3d 1f9b a9ba 80d4 c1bd
00000100: 6bb4 933d c324 7e3d a42a aa3c 1ae0 dbbc
00000110: d78a e53d bcd2 06bc 2359 32bc 8fd4 f1bd
00000120: e2bb eb3c bbb6 de3c e6db 203c 48dc ba3d
00000130: e5fb a73b 5934 b0bc 984f 053d 63c0 023a
00000140: a98e 773d 4c09 343d 03e3 e53c d43c 32bd
00000150: e0a8 9abc 8186 07bd 2906 203c 53ba a7bd
00000160: 39ea 553d 8f78 89bc 4bbc 803c a8e3 173c
00000170: 3adc a33d 8940 1d3e 40eb 5e3c ee1f bebb
00000180: 8128 abbb dd22 d8bc 1b00 25bc 73a3 673b
00000190: 078c a73d c982 5e3d 1648 58ba 53c5 5c3d
000001a0: e5fb fe3b db4c 663b ebe1 2abd 2507 58bd
000001b0: c536 f4bc fe9f 8f3d 8b80 043d 341a 173d
000001c0: cab4 e1bb 8fef 0dbc 0e50 c4bc 9724 bf3c
000001d0: a6df 4abe e8f6 b93d b2bc d43c 3193 e6bc
000001e0: 0ef9 ffbb f9da da3d c46b 713d 135e babc
000001f0: 2b45 933d 011d 47be 8100 c93c 3cc4 15bd
00000200: 7282 88bd 7832 1f3e c831 16bd 9cfc 673b
00000210: 40e5 1e3d 479c 18be 83e1 413c 2cba f63c
00000220: c276 77bd 9930 7b3d 3a78 bb3c 2391 3bbc
00000230: ad43 88bc dc27 47bd 37b0 f0bb 0f90 14bd
00000240: 0bee 95bd 0bf7 023d 632e 50bd 9635 bf3c
00000250: e19c 85bc a595 dcbc aa26 433d c9d1 1e3c
00000260: 1753 51bc 2fbc 473d c015 c9bc 67c5 933d
00000270: e93f ce3d 7c4f 39be 08ff d33c cdf4 5f3c
00000280: d246 abbd 2c04 83bc 7982 10bd 56ca 3b3c
00000290: 6770 dc3c 05cc 26be 7f21 143d b095 9e3b
000002a0: e39f 463d fc4b 5dbd bbf0 5dbd 1c40 f63c
000002b0: 6c7d 71bc fa94 77bd 09f1 473d a9b6 123d
000002c0: 7778 46bd 95b2 1f3d b48e ad3c fb58 8c3c
000002d0: 5ea9 df3a 1683 103c 77db 793d 2dfd 9f3b
000002e0: 719b ef3c ea0c 6fbd 88c3 1cbb 994d 573d
000002f0: bd79 53bd 4d31 d1bc 55b3 3d3d f640 c93c
00000300: ae6a 30bd e95e 9e3d fead c03c a556 d4bc
00000310: e789 8c3b c35f 513e 7902 8cbc d901 913c
00000320: bfb8 06bd 0b8e ad3d 71bc d7bc 971b a0bd
00000330: 13a5 71bc c066 d33d 6a26 3d3d 2035 25bc
00000340: deaf 793d a528 afbc 4ec4 00bd e744 bbbd
00000350: d125 b5bd b504 8b3d c697 5e3d 90ee e4bc
00000360: 06aa 663d 2af4 6ebc 1e27 9fbc b0f0 b73c
00000370: a87e b53b 39ed 3a3e de1f cd3c f953 223d
00000380: 508d 4a3d 84aa 74bc 1b9a d3bc 334c 893d
00000390: c3c8 8bbc 4c6d 3d3e 9118 1f3d 0902 f4bc
000003a0: e9e9 3a3d 9ae8 443d a30f 86bc 0d05 393c
000003b0: f220 0dbe e48c 883d d886 b13c beb3 ca3d
000003c0: b415 863c 42a5 2d3c dc8f 5b3c d8ef df3c
000003d0: 10a2 b23b 510e 2a3e 5d0b 9cbb 80a5 673c
000003e0: c8f2 3dbb dbc1 fdbc de24 84bc 6b94 623c
000003f0: 67ef 05bd c663 c23d ad3d cc3c 619d a63c

fc1.bias f4 [256]
-0.16153128 0.038211238 -0.04056423 0.15441962 -0.20285833 0.0068309875 0.09002644 0.026498273
-0.055594135 0.19141427 -0.15845741 0.19011976 0.05555863 0.09717407 0.14390196 0.020323787
0.021645134 -0.041462936 -0.18517955 0.085956514 0.15264761 0.085348465 -0.031853095 -0.18274625
-0.0033723307 0.053075317 -0.15981083 0.17356212 -0.0054132496 0.055742286 0.18007255 0.08861032
-0.110611215 0.075274125 0.12001548 0.101844594 -0.095886864 0.020778812 -0.14666219 -0.022939716
-0.1416251 0.11668989 0.19972071 -0.19770686 -0.09536929 -0.086342975 -0.14291763 0.18573928
-0.15765381 -0.1067331 -0.1695714 -0.00066322245 -0.1510921 -0.13767344 0.20298237 0.091228165
0.08664162 0.1447665 0.03534785 0.0331257 -0.15331012 0.05734202 -0.15948148 -0.00083380396
-0.11017965 -0.1157315 -0.11950116 -0.0988136 -0.12151617 -0.11162939 -0.07435359 -0.186495
0.16338582 0.06856709 -0.20303373 -0.20399328 -0.102799624 0.07876266 0.18687864 -0.03175754
0.12144948 -0.11010161 -0.042369932 -0.03169606 -0.19873297 0.0010597684 0.054045368 0.124418154
-0.1578534 -0.061462943 0.0077058203 0.021627614 0.03441708 -0.15164012 0.15842436 -0.18448147
-0.07086417 0.10172123 -0.05092414 -0.098401375 -0.20133677 0.14059027 -0.004582671 0.098601826
0.032592684 -0.15180215 -0.07212892 0.14554997 -0.09996146 -0.09405357 0.11194814 -0.08846872
0.03330641 -0.09931845 0.06283252 0.020763742 -0.16202514 -0.15482864 0.07505904 -0.06685866
0.11180698 0.010624663 -0.069815636 -0.035519883 -0.09297653 0.10072539 0.1618505 -0.006359433
-0.13159153 0.14673704 0.16609776 0.13914761 -0.003697427 0.050295427 0.010382121 -0.077507794
-0.20211788 -0.024971265 0.08829749 0.119070485 0.048552435 0.09308198 0.12764017 -0.0394478
0.1332797 -0.0042961095 -0.07228859 -0.07926611 -0.11897258 -0.15721366 0.04677689 0.18861806
0.02899963 0.027588248 -0.07660226 -0.08044753 -0.06398668 0.07065497 0.035175156 -0.07499964
0.040013418 -0.035660855 -0.013898988 0.14464848 -0.08501562 0.19046062 -0.11165198 0.18908727
0.07667579 0.08195238 -0.046689723 -0.05563171 -0.14931266 -0.19574213 0.14291757 0.19803397
0.058534563 -0.07983202 0.04482566 -0.00764787 -0.17644571 -0.1634868 0.07087768 -0.05960419
-0.048580945 -0.123072475 0.089954466 -0.103056535 -0.06524331 0.10921996 0.19629543 0.18196931
0.080359936 0.0072528133 0.15342031 0.1804852 0.09164469 0.060083415 0.049222227 0.020733494
0.13474467 0.057736516 -0.17206566 -0.12057687 -0.18532576 -0.061353754 0.010437594 -0.086512096
-0.18777484 -0.13275258 0.0868718 -0.014378459 -0.03424826 0.033047423 -0.04311704 -0.1112426
-0.09365215 -0.0831881 -0.19110341 -0.18824597 -0.077356055 0.07660338 0.1996253 -0.0055463035
0.13937388 0.0674984 -0.16256492 -0.10214453 -0.055999234 -0.16823734 0.028585564 0.048328876
-0.15912186 -0.042961624 -0.18003899 0.20328252 0.12074165 -0.07699956 0.17548275 -0.12777054
0.17171219 -0.07854996 0.059638537 0.14184585 0.09503478 0.049460832 -0.023532676 0.0014807736
0.17422664 -0.066708006 -0.06621234 0.026073854 -0.09904177 -0.07717552 0.015948495 0.15349425
00000000: 7568 25be 6383 1c3d ae26 26bd 2d20 1e3e
00000010: 18ba 4fbe 7ad6 df3b c85f b83d e812 d93c
00000020: adb6 63bd 1a02 443e a942 22be c1ae 423e
00000030: 7291 633d 3303 c73d 095b 133e 127e a63c
00000040: 2351 b13c 0ad5 29bd b59f 3dbe f809 b03d
00000050: a84f 1c3e 2dcb ae3d 6478 02bd d521 3bbe
00000060: 5202 5dbb 8165 593d 73a5 23be 45ba 313e
00000070: a161 b1bb 0652 643d f064 383e 5479 b53d
00000080: 2288 e2bd 5229 9a3d adca f53d e693 d03d
00000090: 5560 c4bd 5438 aa3c 9d2e 16be 12ec bbbc
000000a0: 2c06 11be 1cfb ee3d 9683 4c3e ab73 4abe
000000b0: f950 c3bd 96d4 b0bd 0059 12be 7032 3e3e
000000c0: 0070 21be e296 dabd 20a4 2dbe 1bdc 2dba
000000d0: e3b7 1abe 44fa 0cbe 9cda 4f3e d5d5 ba3d
000000e0: 2971 b13d ab3d 143e e8c8 103d d0ae 073d
000000f0: 54fd 1cbe 77df 6a3d 1d4f 23be a393 5aba
00000100: dea5 e1bd a304 edbd 06bd f4bd c95e cabd
00000110: 78dd f8bd f39d e4bd b246 98bd 8cf8 3ebe
00000120: 9d4e 273e e76c 8c3d 13e8 4fbe 9de3 50be
00000130: 9c88 d2bd 514e a13d 1d5d 3f3e 3214 02bd
00000140: 81ba f83d f47c e1bd 188c 2dbd bad3 01bd
00000150: a880 4bbe ede7 8a3a ad5e 5d3d f2ce fe3d
00000160: 52a4 21be 91c0 7bbd 1b81 fc3b 652c b13c
00000170: edf8 0c3d 8c47 1bbe ff39 223e b6e8 3cbe
00000180: 3c21 91bd 3853 d03d d595 50bd a986 c9bd
00000190: 3a2b 4ebe e5f6 0f3e 3b2a 96bb c1ef c93d
000001a0: e87f 053d 0672 1bbe 54b8 93bd 0d0b 153e
000001b0: 98b8 ccbd 289f c0bd 1145 e53d 172f b5bd
000001c0: 4d6c 083d 7967 cbbd 56ae 803d b918 aa3c
000001d0: ebe9 25be 668b 1ebe 8eb8 993d 31ed 88bd
000001e0: 0ffb e43d 1113 2e3c 80fb 8ebd 4c7d 11bd
000001f0: 7b6a bebd 1d49 ce3d 23bc 253e ca62 d0bb
00000200: eebf 06be 3c42 163e 8815 2a3e b67c 0e3e
00000210: 8850 72bb 9402 4e3d c619 2a3c 68bc 9ebd
00000220: fdf7 4ebe 8a90 ccbc 50d5 b43d 3adb f33d
00000230: ebde 463d c4a1 be3d 1bb4 023e 0494 21bd
00000240: 797a 083e 61c6 8cbb 0a0c 94bd 4556 a2bd
00000250: e5a7 f3bd 9efc 20be 2099 3f3d 1825 413e
00000260: a290 ed3c c000 e23c a5e1 9cbd adc1 a4bd
00000270: 730b 83bd 8eb3 903d d313 103d 6999 99bd
00000280: 1ce5 233d 1e11 12bd 95b8 63bc bb1e 143e
00000290: ab1c aebd 1c08 433e cba9 e4bd 18a0 413e
000002a0: 3208 9d3d a6d6 a73d b93d 3fbd 13de 63bd
000002b0: 6be5 18be a070 48be fc58 123e 6bc9 4a3e
000002c0: f0c1 6f3d f87e a3bd 1c9b 373d fc9a fabb
000002d0: 2fae 34be 1569 27be 5128 913d 8623 74bd
000002e0: d0fc 46bd 6c0d fcbd 0c3a b83d 4e0f d3bd
000002f0: 499e 85bd b7ae df3d ab01 493e 2a56 3a3e
00000300: c093 a43d 02a9 ed3b 371a 1d3e 1dd1 383e
00000310: 36b0 bb3d 071a 763d 3f9d 493d 4ad9 a93c
00000320: 82fa 093e 207d 6c3d fb31 30be 02f1 f6bd
00000330: 09c6 3dbe 134e 7bbd 7102 2b3c 412d b1bd
00000340: 0c48 40be 4bf0 07be d8e9 b13d a193 6bbc
00000350: e747 0cbd bc5c 073d 7e9b 30bd 29d3 e3bd
00000360: b3cc bfbd 865e aabd 9db0 43be 8dc3 40be
00000370: da6c 9ebd 3ce2 9c3d 936a 4c3e c4bd b5bb
00000380: 07b8 0e3e 9a3c 8a3d 6b77 26be 2731 d1bd
00000390: 745f 65bd 6946 2cbe 462c ea3c 80f4 453d
000003a0: d7f0 22be 87f8 2fbd 245c 38be 4b29 503e
000003b0: 6647 f73d f2b1 9dbd c0b1 333e 48d6 02be
000003c0: 52d5 2f3e cdde a0bd 8a47 743d 0a40 113e
000003d0: 98a1 c23d 7197 4a3d 99c7 c0bc 8416 c23a
000003e0: 7868 323e 359e 88bd 569a 87bd d698 d53c
000003f0: 69d6 cabd 330e 9ebd 6ba6 823c 992d 1d3e

fc2.weight f4 [128, 256]
-0.03776628 -0.060724124 0.07479598 -0.13046037 0.057562348 -0.08176378 -0.0807537 -0.07973202
0.23359893 0.19048743 0.09922122 -0.08497269 -0.0067846687 0.146577 0.019492636 -0.10811681
0.038180575 0.19939305 -0.08357086 0.051531244 0.0027492868 0.09544592 -0.079489514 -0.066611096
0.20202127 -0.14465798 -0.13036665 -0.00094311446 -0.025683826 -0.02084985 0.17014697 -0.14539154
-0.036777757 0.008558386 0.17189188 0.10042308 0.12819673 0.22924152 0.047812913 -0.1337955
-0.09374186 0.096762285 0.07616268 0.053347107 -0.03280313 -0.03922032 0.1953026 0.077036366
-0.084633514 0.02151902 -0.10390656 -0.04216569 -0.054080635 0.12059071 0.010848391 0.1746798
0.18039319 0.07920205 0.14015114 -0.1127576 0.13004838 0.03541466 0.008812257 0.16569139
-0.21466303 -0.045048956 -0.1080656 0.03804012 0.24072506 -0.058041327 0.091887616 0.21932486
0.11688182 -0.030609122 0.1009446 -0.1041862 -0.038024615 0.07747869 -0.05734318 0.06897366
-0.10258764 0.060511082 -0.020347826 -0.21747227 0.049869467 -0.07969114 0.18878351 -0.091774546
-0.24763936 0.05070166 0.24357682 -0.035402168 0.03500531 0.07664203 -0.09510608 0.012697968
-0.087448746 0.17883876 0.049549956 -0.07534558 -0.03754434 -0.087552816 0.00014225346 0.08529781
-0.031757385 0.014559361 0.0139212 -0.1293247 0.052040096 0.09269142 0.1616967 0.00076692057
-0.028970286 0.29544276 -0.048390638 0.034416117 -0.0732893 0.11308716 0.0320629 -0.04021441
0.008555112 0.025100268 0.0387629 0.11504046 0.037900146 0.0037190008 0.011807376 -0.19936004
0.12688033 0.035165858 0.056448806 0.14223087 0.109910496 0.267542 -0.0037804507 -0.039976437
-0.0013758591 -0.20438433 0.0041000857 0.10340974 0.025559055 -0.10551484 0.19190338 0.026097117
0.10108174 0.093664184 0.07966748 -0.035233065 0.10561343 -0.00883197 0.07974296 0.06517763
0.038615543 0.050403677 -0.020987792 0.026525166 0.24714814 0.009818818 0.008195356 -0.0008264197
-0.124019586 0.24248733 -0.17231014 0.06599489 0.16979037 0.12961343 0.10466483 -0.017475184
0.022898022 -0.085335396 0.17335227 -0.09042419 -0.012930894 0.13399577 0.022522166 -0.12625368
-0.060840584 0.05892775 -0.049505785 -0.026171423 0.08081725 -0.033457514 -0.024742253 0.13434581
0.16687483 0.04169538 -0.18755767 -0.027499996 0.08264644 -0.04831548 0.0027096479 -0.21101776
0.08542275 -0.13885465 0.1733407 0.046463758 0.13719288 0.08182871 -0.032438423 0.055378545
0.23675933 0.0033373388 -0.030086616 -0.03272971 0.09982748 -0.0034493974 0.004125864 0.008431903
-0.18634306 -0.04225258 0.1446321 -0.031780154 0.09372491 -0.060093764 0.060102563 0.06413233
0.05364381 -0.06932338 0.20890029 0.06308221 0.110022575 -0.09630878 0.034813043 -0.14385156
0.12048609 0.040401068 -0.055218942 -0.02721793 0.005420707 -0.03901925 0.07677972 0.17515302
0.04453047 0.11752494 0.14775127 -0.007415161 -0.015735246 0.063294634 0.25184765 0.054732118
-0.08205772 0.06679169 -0.019375565 0.04144335 0.04556295 -0.09825116 -0.08542249 -0.095480554
-0.11171874 -0.066664 -0.08802175 -0.04248509 -0.03082718 0.05885589 -0.06484293 0.05473509
00000000: d1b0 1abd dcb9 78bd a22e 993d 6797 05be
00000010: 7fc6 6b3d c573 a7bd 3262 a5bd 8b4a a3bd
00000020: 8f34 6f3e 230f 433e 7f34 cb3d 2906 aebd
00000030: ed51 debb 4818 163e 05af 9f3c 596c ddbd
00000040: 3c63 1c3d b12d 4c3e 3327 abbd 6d12 533d
00000050: 612d 343b 2779 c33d 66cb a2bd 666b 88bd
00000060: aade 4e3e 3921 14be d67e 05be 573b 77ba
00000070: e366 d2bc 4ecd aabc 023b 2e3e 85e1 14be
00000080: 46a4 16bd 7938 0c3c 6d04 303e 9eaa cd3d
00000090: 0146 033e 4abe 6a3e 79d7 433d b001 09be
000000a0: bbfb bfbd 4e2b c63d 2efb 9b3d 7f82 5a3d
000000b0: 935c 06bd 7ca5 20bd 68fd 473e 3ec5 9d3d
000000c0: 5654 adbd a848 b03c f6cc d4bd eeb5 2cbd
000000d0: a883 5dbd 43f8 f63d 73bd 313c 43df 323e
000000e0: feb8 383e af34 a23d c883 0f3e 75ed e6bd
000000f0: 672b 053e f60e 113d 4961 103c 01ab 293e
00000100: a0d0 5bbe 4185 38bd 7f51 ddbd f5cf 1b3d
00000110: a180 763e bebc 6dbd 932f bc3d b296 603e
00000120: bc5f ef3d fbbf fabc 0bbc ce3d 935f d5bd
00000130: b3bf 1bbd 26ad 9e3d afe0 6abd 1042 8d3d
00000140: 7819 d2bd 78da 773d 7cb0 a6bc 0db1 5ebe
00000150: ed43 4c3d 1c35 a3bd 7750 413e 4bf4 bbbd
00000160: 2c95 7dbe 8bac 4f3d 346c 793e dd01 11bd
00000170: ba61 0f3d 7ff6 9c3d fac6 c2bd 230b 503c
00000180: 5418 b3bd 8221 373e e5f4 4a3d c94e 9abd
00000190: 18c8 19bd e44e b3bd df29 1539 9eb0 ae3d
000001a0: 0814 02bd 638a 6e3c bf15 643c b26d 04be
000001b0: ff27 553d 00d5 bd3d d293 253e 2b0b 493a
000001c0: 1853 edbc 4644 973e 4335 46bd eaf7 0c3d
000001d0: b318 96bd 3e9a e73d 6354 033d ddb7 24bd
000001e0: be2a 0c3c 149f cd3c d9c5 1e3d 559a eb3d
000001f0: 2f3d 1b3d 7bba 733b b973 413c 0a25 4cbe
00000200: ebec 013e 130a 103d dd36 673d f8a4 113e
00000210: c118 e13d 44fb 883e 70c1 77bb 55be 23bd
00000220: 2c56 b4ba 204a 51be 035a 863b 7cc8 d33d
00000230: 3961 d13c 2a18 d8bd 5282 443e 9fc9 d53c
00000240: f103 cf3d 02d3 bf3d b428 a33d 8c50 10bd
00000250: db4b d83d f8b3 10bc 4750 a33d d97b 853d
00000260: 552b 1e3d 1674 4e3d 97ee abbc 4e4b d93c
00000270: 6714 7d3e 1cdf 203c d045 063c 16a4 58ba
00000280: fbfd fdbd 994e 783e 1272 30be 5428 873d
00000290: 87dd 2d3e 62b9 043e 845a d63d 1e28 8fbc
000002a0: a294 bb3c 53c4 aebd 4283 313e 5130 b9bd
000002b0: 1adc 53bc 3036 093e 6880 b83c a548 01be
000002c0: fa33 79bd 395e 713d 94c6 4abd 7465 d6bc
000002d0: 8483 a53d bf0a 09bd 44b0 cabc f391 093e
000002e0: 3ce1 2a3e c6c8 2a3d 1e0f 40be ac47 e1bc
000002f0: 8942 a93d 74e6 45bd 5994 313b 0a15 58be
00000300: 1ff2 ae3d ea2f 0ebe 3980 313e c850 3e3d
00000310: 4a7c 0c3e d095 a73d 27de 04bd 9dd4 623d
00000320: 0a71 723e 41b7 5a3b 3578 f6bc 970f 06bd
00000330: 5a72 cc3d 490f 62bb 4132 873b f725 0a3c
00000340: b7d0 3ebe 0b11 2dbd 701a 143e e82b 02bd
00000350: d8f2 bf3d e124 76bd 1b2e 763d d057 833d
00000360: 9db9 5b3d 6bf9 8dbd f5e9 553e 3f31 813d
00000370: 8453 e13d 8a3d c5bd 1f98 0e3d d34d 13be
00000380: 69c1 f63d 977b 253d 422d 62bd 23f8 debc
00000390: 30a0 b13b a6d2 1fbd b03e 9d3d 505b 333e
000003a0: 9565 363d eab0 f03d 1c4c 173e e1fa f2bb
000003b0: 34e7 80bc 9ea0 813d 2df2 803e c92e 603d
000003c0: e10d a8bd 15ca 883d 81b9 9ebc 81c0 293d
000003d0: 37a0 3a3d e737 c9bd fdf1 aebd 4f8b c3bd
000003e0: cbcc e4bd 2387 88bd bf44 b4bd d904 2ebd
000003f0: 4889 fcbc e012 713d 5fcc 84bd e731 603d

fc2.bias f4 [128]
-0.019455621 0.018104276 -0.048268568 -0.0706704 0.046879023 -0.0005023599 0.052921515 0.09885294
0.006332367 0.05860287 0.06746935 -0.067466296 0.066947944 0.026588278 0.10036944 0.017356558
-0.037479702 0.098627575 0.06047605 0.043663513 0.116328955 -0.003237549 -0.010511689 0.018072776
-0.04472135 0.109189734 0.006018185 0.11485933 0.1591073 0.029569086 0.17356655 0.02031812
0.047959927 0.067997344 0.068636656 0.043070078 0.0841313 0.11037877 -0.078175895 0.019050952
0.051504724 -0.07732539 0.017004991 0.040630072 -0.05392963 -0.03375535 0.012605738 0.10288836
0.0013261801 0.022913173 -0.032273572 0.006233076 0.048087224 0.02392125 0.032502867 0.017752292
0.031308837 -0.011680928 0.072837494 -0.011166743 0.1343396 -0.022823364 0.12480318 -0.05381122
-0.015109668 -0.034047402 0.021240592 0.0044133626 -0.072081864 0.04090167 0.013716525 0.07440788
-0.02260882 0.05073417 -0.017853195 0.13282955 0.04863978 0.15102653 -0.030195242 -0.0029723796
0.07960386 -0.0067247227 0.0004956841 0.011211367 -0.031696014 -0.08547796 0.07749536 0.034817904
0.01517541 0.07166086 -0.054126482 0.106153846 0.035794385 0.04718389 0.021944236 0.09542123
-0.004840597 0.038813338 0.10421202 0.15244274 -0.039183736 0.17712928 0.08259966 0.01033769
-0.026601184 0.024089098 0.05261725 0.00089551834 0.016450396 0.02823808 -0.057555784 0.023413057
0.02412316 0.011249889 0.10161668 0.031776287 0.027607756 0.049094904 0.0437857 0.08061676
-0.037989996 0.048068337 0.07184579 0.0059013045 0.020482302 -0.019866873 0.07823305 0.030053725
00000000: 6561 9fbc 6b4f 943c 43b5 45bd a5bb 90bd
00000010: 3804 403d cdb0 03ba 3bc4 583d 6973 ca3d
00000020: bf7f cf3b 9009 703d 5f2d 8a3d c52b 8abd
00000030: 011c 893d a9cf d93c 7e8e cd3d 572f 8e3c
00000040: 5184 19bd 41fd c93d bcb5 773d 83d8 323d
00000050: e03d ee3d 0f2d 54bb 3839 2cbc 5c0d 943c
00000060: bc2d 37bd de9e df3d 3234 c53b 5e3b eb3d
00000070: 06ed 223e de3a f23c 6ebb 313e 3072 a63c
00000080: a171 443d 3142 8b3d 6091 8c3d 406a 303d
00000090: 084d ac3d 440e e23d af1a a0bd be10 9c3c
000000a0: 9ef6 523d c65c 9ebd 0d4e 8b3c b86b 263d
000000b0: 51e5 5cbd 0d43 0abd 4c88 4e3c 22b7 d23d
000000c0: 38d3 ad3a 68b4 bb3c 4b31 04bd d53e cc3b
000000d0: 1cf7 443d 7ff6 c33c ba21 053d 416d 913c
000000e0: b23d 003d 5d61 3fbc d32b 953d b7f4 36bc
000000f0: 5290 093e 10f8 babc cf98 ff3d 2769 5cbd
00000100: 8a8e 77bc 4a75 0bbd c000 ae3c f89d 903b
00000110: a89f 93bd 8288 273d 47bb 603c 2963 983d
00000120: 2236 b9bc a2ce 4f3d dd40 92bc 7804 083e
00000130: 823a 473d b3a6 1a3e 035c f7bc 41cc 42bb
00000140: 5907 a33d 105b dcbb ccf0 013a e2af 373c
00000150: aed3 01bd 120f afbd e3b5 9e3d 389d 0e3d
00000160: 48a2 783c eec2 923d bbb3 5dbd 3067 d93d
00000170: 229d 123d e543 413d 66c4 b33c 356c c33d
00000180: df9d 9ebb bcfa 1e3d 1d6d d53d f319 1c3e
00000190: 207f 20bd 6161 353e 032a a93d 6a5f 293c
000001a0: baea d9bc 8056 c53c 2f85 573d 38c1 6a3a
000001b0: fbc2 863c 8c53 e73c 9dbf 6bbd bdcc bf3c
000001c0: ef9d c53c 7451 383c 681c d03d da27 023d
000001d0: a929 e23c bd17 493d a258 333d 661a a53d
000001e0: 669b 1bbd 4ee3 443d e323 933d bb5f c13b
000001f0: 80ca a73c dabf a2bc a638 a03d 3b33 f63c

fc3.weight f4 [2, 128]
-0.5694834 0.056810558 -0.11818673 -0.26942524 -0.653667 -0.25836074 -0.51425415 0.018990595
-0.3809566 0.1685832 -0.42595273 -0.20056103 -0.15682796 -0.6056493 -0.097090885 -0.4366357
-0.5896365 -0.030115899 0.09582509 -0.57324564 -0.0034609658 -0.0038327451 -0.5618527 -0.27208534
-0.3188187 0.18662082 -0.45961118 0.036053553 0.18528731 -0.42464527 0.2181634 -0.31772763
0.024729412 0.051497962 -0.38540396 -0.6640318 -0.021561429 0.15061577 -0.056498706 -0.5522006
-0.63471496 -0.21613438 0.0079624 0.033598427 -0.095000416 -0.2054861 0.0050563356 -0.52621126
-0.51658016 -0.5564887 -0.39651445 -0.42622524 -0.04891017 -0.03841879 0.00700437 -0.10017602
-0.1842994 -0.44339737 -0.5136159 -0.3064106 -0.019845381 -0.4711952 0.1579275 -0.019579627
0.10031066 -0.5116341 0.013502993 -0.57240516 -0.41253436 -0.04158846 -0.48956662 -0.007252237
0.005389128 -0.095839 -0.39715654 -0.015507423 -0.54395235 0.18433371 -0.41040558 -0.5156269
-0.022532644 0.063508086 -0.074298255 0.093769684 -0.48032528 -0.20405479 0.14247008 -0.26494277
-0.43476844 -0.5302654 -0.37823418 0.15619852 0.031386472 -0.43970916 -0.42395273 0.045752723
0.20051372 -0.3250797 0.11308282 0.16744468 -0.38442272 0.20361882 -0.0121979 -0.4479305
-0.36926606 -0.52486527 -0.4954223 -0.7152174 -0.11820237 -0.34832105 -0.0040465742 0.16845103
-0.42251617 0.14084274 0.19210567 -0.59670085 -0.2144562 -0.6052808 -0.5074085 0.18002976
-0.043319177 -0.37066063 0.13500153 -0.3545328 -0.2759731 -0.43800092 -0.06477876 -0.46862593
0.0030056338 0.38900295 -0.26571903 -0.13116291 0.034517244 0.44911167 0.16520293 0.38655663
0.039448086 -0.020648591 -0.073302604 -0.26692584 0.33800876 0.091753714 0.25615954 -0.15543412
-0.07155841 0.32332626 0.46164513 -0.012150461 0.33721983 -0.42327428 -0.049568333 -0.1307108
-0.1791068 -0.07140197 -0.0053712917 0.3904734 0.0065358975 -0.07842442 0.100132145 -0.12568432
0.3622814 0.3522299 -0.12833935 0.008324179 0.28067452 -0.12347105 -0.46706045 -0.047075406
0.07639667 -0.23877074 -0.48059696 0.3499275 -0.3572688 -0.24002582 -0.40268293 0.0013466799
-0.013605181 -0.10060427 -0.056749936 -0.07522296 0.24043414 -0.41755018 0.38673806 -0.28976434
0.45987538 -0.039719883 -0.034447193 -0.16374084 0.35903025 -0.041452784 0.5433056 -0.4565877
-0.23003596 -0.046610292 -0.37817648 -0.028400427 -0.13517551 0.35537395 0.010726712 0.3171028
-0.38627586 -0.3132631 -0.12317857 0.35157144 -0.017955344 0.03567374 -0.14196204 0.032777417
0.29730248 -0.27071905 0.23292385 -0.1975244 -0.15017322 -0.21247147 -0.11114495 -0.17335197
-0.114309624 0.056169715 -0.12874009 -0.041118596 0.3632064 -0.04206235 -0.15930597 0.47545207
0.3346826 -0.13154326 -0.18043949 0.031021092 -0.091065064 0.56183916 0.29293993 -0.10052166
-0.11302983 -0.010750015 -0.07213433 0.0893753 -0.2874583 -0.09834508 -0.42467982 -0.097062536
0.078194074 -0.14706129 -0.04044615 0.04537357 -0.20207463 0.051404018 -0.0010864863 0.025676666
-0.33382732 0.09367096 -0.17125405 -0.17137763 -0.13431948 -0.050112657 0.31417328 -0.023280768
00000000: aac9 11bf 30b2 683d e20b f2bd 1bf2 89be
00000010: b856 27bf dc47 84be 29a6 03bf 2a92 9b3c
00000020: be0c c3be 13a1 2c3e 7a16 dabe df5f 4dbe
00000030: 8297 20be d50b 1bbf 96d7 c6bd b78e dfbe
00000040: 6bf2 16bf 9eb5 f6bc f23f c43d 3ac0 12bf
00000050: 5fd1 62bb cb2e 7bbb 94d5 0fbf c54e 8bbe
00000060: 343c a3be 8719 3f3e 2852 ebbe e4ac 133d
00000070: f5bb 3d3e 1b6b d9be 3a66 5f3e 32ad a2be
00000080: 5695 ca3c 87ef 523d ab53 c5be fdfd 29bf
00000090: 98a1 b0bc 053b 1a3e 306b 67bd 055d 0dbf
000000a0: ae7c 22bf 5552 5dbe ba74 023c 819e 093d
000000b0: 948f c2bd f36a 52be 9eaf a53b c8b5 06bf
000000c0: 993e 04bf 0b76 0ebf f103 cbbe 323a dabe
000000d0: 0856 48bd 055d 1dbd ea84 e53b 1629 cdbd
000000e0: fbb8 3cbe fb04 e3be 557c 03bf dae1 9cbe
000000f0: c892 a2bc 7f40 f1be bfb7 213e 7465 a0bc
00000100: ad6f cd3d 74fa 02bf a83b 5d3c 2589 12bf
00000110: b437 d3be a958 2abd 7aa8 fabe 2ca4 edbb
00000120: 4897 b03b 3d47 c4bd 1a58 cbbe d912 7ebc
00000130: 7640 0bbf fac1 3c3e ae20 d2be 2000 04bf
00000140: 6196 b8bc 8710 823d af29 98bd 520a c03d
00000150: 32ed f5be bdf3 50be ade3 113e 94a6 87be
00000160: f899 debe 79bf 07bf e9a7 c1be 81f2 1f3e
00000170: 1a8f 003d 8f21 e1be 5510 d9be 3567 3b3d
00000180: 7853 4d3e d970 a6be f797 e73d 9e76 2b3e
00000190: 0ed3 c4be 7481 503e b3d9 47bc 2657 e5be
000001a0: 7110 bdbe 925d 06bf fea7 fdbe 7d18 37bf
000001b0: 1614 f2bd 2357 b2be 2099 84bb 6d7e 2c3e
000001c0: 0a54 d8be 1439 103e 59b7 443e 63c1 18bf
000001d0: 689a 5bbe aff3 1abf 86e5 01bf b959 383e
000001e0: 736f 31bd 3bc7 bdbe d73d 0a3e 5385 b5be
000001f0: 594c 8dbe a841 e0be baaa 84bd bdef efbe
00000200: 2bfa 443b 652b c73e 530c 88be 924f 06be
00000210: f461 0d3d f7f1 e53e f52a 293e c0ea c53e
00000220: 5194 213d 3c27 a9bc ad1f 96bd 81aa 88be
00000230: 7c0f ad3e 5fe9 bb3d 5827 833e 1f2a 1fbe
00000240: 378d 92bd 058b a53e c05c ec3e ba12 47bc
00000250: 14a8 ac3e 68b7 d8be 2a08 4bbd 0dd9 05be
00000260: c667 37be 323b 92bd a901 b0bb 21ec c73e
00000270: 152b d63b fb9c a0bd 1512 cd3d 64b3 00be
00000280: f37c b93e 7a57 b43e 646b 03be 2362 083c
00000290: 92b4 8f3e 64de fcbd 8c22 efbe 24d2 40bd
000002a0: db75 9c3d 5180 74be ce10 f6be b329 b33e
000002b0: f0eb b6be 54c9 75be 752c cebe 1483 b03a
000002c0: 44e8 5ebc 9d09 cebd 9f72 68bd 7f0e 9abd
000002d0: 5e34 763e 23c9 d5be 8802 c63e fe5b 94be
000002e0: c974 eb3e 51b1 22bd 8018 0dbd aeab 27be
000002f0: d0d2 b73e 65ca 29bd 1316 0b3f ddc5 e9be
00000300: 8c8e 6bbe 6fea 3ebd 59a0 c1be 03a8 e8bc
00000310: 736b 0abe 93f3 b53e 17bf 2f3c 4c5b a23e
00000320: f3c5 c5be 0564 a0be 0c45 fcbd 2c01 b43e
00000330: 1617 93bc a11e 123d 7f5e 11be 9d41 063d
00000340: 0838 983e b09b 8abe 9783 6e3e d643 4abe
00000350: 02c7 19be 1f92 59be f79f e3bd 2e83 31be
00000360: 2a1b eabd 3712 663d 71d4 03be f96b 28bd
00000370: 30f6 b93e 9249 2cbd 1b21 23be 746e f33e
00000380: 855b ab3e 47b3 06be 21c5 38be f21f fe3c
00000390: 5280 babd b1d4 0f3f 39fc 953e 4dde cdbd
000003a0: 2f7c e7bd d520 30bc 2abb 93bd 660a b73d
000003b0: bc2d 93be 2569 c9bd a26f d9be b9c8 c6bd
000003c0: 3724 a03d 3c97 16be ddaa 25bd a3d9 393d
000003d0: a7ec 4ebe 058d 523d 6e68 8eba df57 d23c
000003e0: 6aeb aabe 8fd6 bf3d 395d 2fbe 9e7d 2fbe
000003f0: 0c8b 09be ee42 4dbd 52db a03e 4fb7 bebc

fc3.bias f4 [2]
0.081794515 0.09609263
00000000: e283 a73d 36cc c43d

bn_layer.weight f4 [256]
0.9321085 0.65090376 0.39335924 0.9188441 0.5597719 0.720566 1.0470598 0.0057363827
0.30858266 0.65392876 0.59466696 0.8514887 0.5813154 0.61140317 0.6728039 1.0813887
0.29376632 1.026374 0.37662777 0.83369255 0.7498787 0.18168834 0.82734174 0.49983543
0.7776163 0.73394835 0.9147902 1.041347 0.975882 1.1813293 0.5036841 0.61598665
0.5936516 0.73093885 0.53650767 0.99839205 1.1239814 1.0944135 0.94875115 0.68750095
1.0773855 0.64888483 0.8385077 0.34766397 0.75370556 0.27254546 0.45652702 0.59171563
0.605 0.44132462 0.62467766 1.0358329 0.9409247 1.1151013 0.6471018 0.56551045
0.8001251 0.845057 0.81262296 0.52092546 0.9073785 0.39426926 0.9241595 0.83995867
1.1375161 0.37520948 0.38077846 0.020375995 1.1282845 0.36493286 0.95047796 1.1375139
1.1042075 1.0209394 0.5956954 0.50948954 0.2674269 0.4275735 0.7448674 0.8534753
0.3591991 0.35896105 1.0234188 0.8437846 0.40198678 1.0932959 0.88306135 0.389071
0.94088393 0.23696202 0.3947415 1.2461263 0.81201464 0.31365308 0.77951735 0.5902203
0.40065598 0.23808172 1.0627077 0.96097165 0.44298977 0.29963446 0.7545693 0.28775713
1.0985073 0.22062932 0.69739753 0.78311175 0.5027769 0.6941378 0.35006362 0.19268389
0.8532075 0.6771953 0.7618342 0.57339096 0.27001545 0.66051966 0.95572513 0.61891085
0.37089998 0.33855346 1.0560024 0.29788193 0.88068086 0.3102538 0.73606986 0.7023427
0.8240024 0.41884804 0.48961243 0.20185512 1.118132 0.95222396 0.6070898 0.8558296
0.4447709 1.1364303 0.54048526 0.8171267 0.34297022 1.0248631 0.7321667 0.60500973
0.551222 0.63640267 0.590605 0.41134852 0.7839749 1.1275133 0.66796917 0.8077016
0.8290996 0.25260237 1.2561063 0.80382913 0.98013866 0.43287328 0.27173623 0.34199876
0.80910987 0.401171 0.73214966 0.5983375 0.6062154 0.27420056 0.89336395 0.82321346
1.0896595 1.113386 0.70352775 0.4237657 0.76300085 0.8260008 0.16906844 0.8213184
0.00033023543 1.2445174 0.64143085 0.5794412 0.86211807 0.91980296 0.56687444 0.45420194
1.090383 0.42659378 0.97531074 0.74170697 0.2337906 0.39008933 0.31693697 0.41094124
0.2818985 1.265518 0.8643892 0.40331203 0.4261827 0.8849974 0.60588276 1.1541475
0.9959316 0.55018675 0.54329455 0.34849474 0.31082186 1.0038681 0.5907952 0.5789062
1.10314 0.49715796 0.2095387 0.555387 0.5686998 0.91353786 0.631299 0.44876403
0.7727478 0.62950486 0.7684963 1.0989788 0.57624865 0.29655036 0.5846212 1.0044225
1.062338 0.2642229 0.9436654 0.36843544 1.0536281 0.31321192 0.76852524 1.278797
0.30240637 0.45703918 0.7498869 0.90027815 0.77475095 0.7959076 0.5792708 1.0752977
1.1001304 1.027173 0.95681506 0.7182515 0.0028062179 0.3315523 0.74534535 0.7038045
0.7080907 0.38226888 0.5456009 0.43327338 0.9394157 0.85135394 0.5912823 0.7119565
00000000: aa9e 6e3f a1a1 263f 6266 c93e 5e39 6b3f
00000010: 364d 0f3f 0377 383f 0e06 863f 44f8 bb3b
00000020: 8cfe 9d3e e067 273f 183c 183f 2afb 593f
00000030: 16d1 143f eb84 1c3f e03c 2c3f f26a 8a3f
00000040: 8a68 963e 3960 833f 5bd5 c03e e06c 553f
00000050: 0df8 3f3f 820c 3a3e abcc 533f 6eea ff3e
00000060: dd11 473f 0ae4 3b3f b12f 6a3f dc4a 853f
00000070: 67d3 793f cc35 973f 71f1 003f 4db1 1d3f
00000080: 8df9 173f cf1e 3b3f 9158 093f 9f96 7f3f
00000090: 9fde 8f3f be15 8c3f 5be1 723f 1000 303f
000000a0: c5e7 893f 511d 263f 71a8 563f 0301 b23e
000000b0: d9f2 403f 148b 8b3e e9bd e93e ad7a 173f
000000c0: 48e1 1a3f 4df5 e13e e0ea 1f3f 2c96 843f
000000d0: 71e0 703f a4bb 8e3f 77a8 253f 4bc5 103f
000000e0: 00d5 4c3f a855 583f 0f08 503f 5f5b 053f
000000f0: f549 683f a9dd c93e b895 6c3f 8807 573f
00000100: 219a 913f 751b c03e 65f5 c23e 8feb a63c
00000110: a06b 903f 7bd8 ba3e 8652 733f 0e9a 913f
00000120: ac56 8d3f 24ae 823f 7e7f 183f e86d 023f
00000130: 2eec 883e eaea da3e a1af 3e3f 5b7d 5a3f
00000140: f2e8 b73e bec9 b73e 63ff 823f 4402 583f
00000150: 36d1 cd3e 1ff1 8b3f 4f10 623f 5034 c73e
00000160: c5dd 703f 2ca6 723e 8f1b ca3e 1181 9f3f
00000170: 31e0 4f3f 2397 a03e 738e 473f ad18 173f
00000180: c822 cd3e b2cb 733e ce06 883f 3d02 763f
00000190: 8ecf e23e b069 993e 742b 413f e754 933e
000001a0: e39b 8c3f a7ec 613e a588 323f 037a 483f
000001b0: fdb5 003f 04b3 313f 8a3b b33e ed4e 453e
000001c0: cf6b 5a3f ac5c 2d3f 9107 433f c0c9 123f
000001d0: 773f 8a3e d117 293f 67aa 743f f170 1e3f
000001e0: 9ae6 bd3e e156 ad3e 162b 873f fb83 983e
000001f0: 4d74 613f 96d9 9e3e 136f 3c3f bbcc 333f
00000200: d2f1 523f 4073 d63e 7bae fa3e 1cb3 4e3e
00000210: f31e 8f3f f3c4 733f 3d6a 1b3f a617 5b3f
00000220: 03b9 e33e 8c76 913f 3e5d 0a3f 372f 513f
00000230: cb99 af3e b72e 833f 476f 3b3f ebe1 1a3f
00000240: e31c 0d3f 49eb 223f e431 173f 469c d23e
00000250: 94b2 483f 5b52 903f 0700 2b3f 88c5 4e3f
00000260: df3f 543f 1955 813e 17c8 a03f bfc7 4d3f
00000270: 5eea 7a3f 91a1 dd3e 0321 8b3e 761a af3e
00000280: d321 4f3f 4966 cd3e 296e 3b3f a52c 193f
00000290: ef30 1b3f 0464 8c3e 80b3 643f 1ebe 523f
000002a0: f679 8b3f 6f83 8e3f 651a 343f d1f7 d83e
000002b0: 0654 433f ca74 533f 4720 2d3e ec41 523f
000002c0: 7323 ad39 594c 9f3f d034 243f 4256 143f
000002d0: c5b3 5c3f 3578 6b3f af1e 113f 288d e83e
000002e0: ac91 8b3f 806a da3e f7ad 793f 82e0 3d3f
000002f0: ce66 6f3e cab9 c73e 9045 a23e e466 d23e
00000300: 0055 903e 7efc a13f 9c48 5d3f ea7e ce3e
00000310: 9e34 da3e 318f 623f 221b 1b3f 1bbb 933f
00000320: 60f5 7e3f 0ad9 0c3f 5a15 0b3f e76d b23e
00000330: 0b24 9f3e c07e 803f 5b3e 173f 3233 143f
00000340: b133 8d3f 7d8b fe3e 5091 563e d82d 0e3f
00000350: 4f96 113f 9edd 693f d09c 213f 66c4 e53e
00000360: cdd2 453f 3b27 213f 2cbc 443f 56ab 8c3f
00000370: 0885 133f 73d5 973e bca9 153f eb90 803f
00000380: b1fa 873f 3948 873e 0e94 713f 92a3 bc3e
00000390: 49dd 863f 505d a03e 12be 443f 9faf a33f
000003a0: 02d5 9a3e 0a01 ea3e 96f8 3f3f a178 663f
000003b0: 1456 463f 9ac0 4b3f 174b 143f 5ba3 893f
000003c0: 13d1 8c3f 687a 833f d5f1 743f 55df 373f
000003d0: 86e8 373b 39c1 a93e f4ce 3e3f 882c 343f
000003e0: 6f45 353f bfb8 c33e 80ac 0b3f 02d6 dd3e
000003f0: 8c7d 703f 55f2 593f 475e 173f c842 363f

bn_layer.bias f4 [256]
0.06448932 -0.0048305728 -0.00011482545 -0.07101426 0.027246114 0.024592703 0.1500428 -0.018033473
-0.01798377 -0.03976591 -0.024353342 -0.07491018 -0.023077816 -0.035687115 0.017178463 -0.016479338
-0.09439923 0.042986855 0.089764155 -0.046100866 -0.007128154 0.113544084 0.029009447 0.13614805
-0.06563706 0.0044434536 0.11322246 -0.046668377 0.0815375 0.07067392 0.0036816883 0.09800347
-0.06810694 -0.02508921 0.03853023 -0.09328713 -0.06849347 0.042296816 -0.033390895 -0.066870555
-0.027131964 -0.061866324 -0.05000374 -0.09963855 -0.015839461 0.08920426 -0.007847155 0.17771916
0.06907941 -0.10010409 0.024879195 0.064400606 -0.005235217 0.041794408 -0.055618107 -0.019708395
0.08195172 0.0060009644 -0.07140438 -0.037010178 0.050395805 0.09453567 0.042471204 0.07561172
0.0017051642 0.062129065 0.0064239046 0.1175848 -0.00014709277 0.058718026 0.08721228 -0.06357582
0.04565689 -0.030222503 -0.009344845 0.12642273 0.044757005 0.03521509 0.04834211 0.008142234
0.12226015 0.1064609 0.0588427 0.046904307 0.0017107888 0.0038773515 0.019409195 -0.040118925
0.0059307553 0.086520515 -0.06728983 0.030483454 -0.007752459 -0.02471164 0.107309505 0.03988131
0.020459753 -0.055846512 -0.013050732 -0.1066344 0.07935078 -0.027697587 -0.0039623845 0.023087224
0.04430629 -0.07108846 -0.036418796 -0.0027901425 -0.049398955 -0.041446503 -0.09885178 -0.061331976
-0.028518027 -0.01425129 -0.03265938 0.018421432 -0.0084729055 0.09232948 0.02345606 0.1455274
-0.011665134 0.03703369 -0.006992758 0.0968418 -0.1228395 -0.023731718 -0.022683607 0.036792025
0.11096413 0.12111462 0.07805719 0.12810987 -0.07936961 0.0037065872 0.01809559 0.10630153
0.07256048 -0.01646069 0.084900066 -0.11018915 -0.003429847 0.045245476 -0.073505305 0.09727254
0.17121848 0.019553732 0.023125645 0.027790677 0.14047438 -0.0030126318 -0.012066071 0.07977352
0.09463624 0.06349209 0.058584165 -0.10080876 0.06132706 -0.05602827 -0.04161454 0.07008359
0.05746728 -0.06436268 0.09206618 -0.051570766 0.044388402 -0.01565088 -0.034265514 -0.094661646
-0.0805328 0.14707808 0.056097277 0.07406561 -0.050532945 -0.022472555 0.0825797 -0.103002265
-0.0027037407 0.099902555 -0.031900227 0.022629568 0.050935972 -0.011987891 -0.026159512 0.063427866
-0.083967626 0.080648094 0.06884158 0.03706005 -0.018974781 0.040646434 -0.10912509 0.116950236
0.109086275 0.047146857 0.02612367 0.11774271 0.010714724 0.09519752 -0.012446979 0.10313085
-0.07736229 0.101803266 -0.009059516 0.034051035 0.020002125 0.011199253 0.14807288 0.08493693
0.097609594 0.05396181 -0.019361045 -0.019106247 0.0488226 0.04573624 -0.042801853 -0.078364275
-0.011303397 0.12261186 0.05467586 -0.048574254 0.0765899 -0.004234705 -0.07357029 0.011595425
0.030117791 0.017776309 0.008545118 -0.008779059 0.09769063 -0.02898385 -0.025021786 -0.026621113
-0.03776571 -0.003135718 0.08076189 -0.022248019 -0.03286765 -0.0048212395 -0.026260294 0.10613955
0.094279304 0.06586622 -0.059995323 0.015493872 -0.01446255 -0.0165673 -0.0018365165 0.07018528
0.124595195 0.04624912 -0.022017607 -0.01261899 -0.004267297 -0.010618026 0.00092482736 0.02983109
00000000: fa12 843d c849 9ebb 72ce f0b8 ed6f 91bd
00000010: 3e33 df3c a376 c93c d2a4 193e efba 93bc
00000020: b352 93bc 94e1 22bd a980 c7bc 826a 99bd
00000030: b00d bdbc a72c 12bd d9b9 8c3c adff 86bc
00000040: 6254 c1bd fc12 303d 45d6 b73d 43d4 3cbd
00000050: 4a93 e9bb cd89 e83d 38a5 ed3c 656a 0b3e
00000060: b96c 86bd 649a 913b 2de1 e73d 5727 3fbd
00000070: 22fd a63d 7dbd 903d 7b48 713b 0bb6 c83d
00000080: a77b 8bbd e387 cdbc e0d1 1d3d 530d bfbd
00000090: 4e46 8cbd 6d3f 2d3d e4c4 08bd 6ef3 88bd
000000a0: da43 debc 8b67 7dbd b9d0 4cbd 4c0f ccbd
000000b0: c2c1 81bc b9b0 b63d 5b91 00bc 03fc 353e
000000c0: 8179 8d3d 6003 cdbd 74cf cb3c 77e4 833d
000000d0: 2f8c abbb 9d30 2b3d d0cf 63bd 8073 a1bc
000000e0: 4ed6 a73d bda3 c43b 763c 92bd fc97 17bd
000000f0: d56b 4e3d eb9b c13d 49f6 2d3d 51da 9a3d
00000100: d17f df3a 0c7b 7e3d 9e7f d23b 4dd0 f03d
00000110: ea3c 1ab9 5082 703d 5a9c b23d 0a34 82bd
00000120: b802 3b3d 2f95 f7bc 1f1b 19bc f674 013e
00000130: 1f53 373d b33d 103d 6002 463d 0167 053c
00000140: 8863 fa3d 2c08 da3d 0b05 713d bb1e 403d
00000150: 8c3c e03a 2a1b 7e3b 0800 9f3c be53 24bd
00000160: c856 c23b ab31 b13d 40cf 89bd 70b8 f93c
00000170: 5708 febb 1170 cabc 16c5 db3d 965a 233d
00000180: 369b a73c 50bf 64bd bdd2 55bc 2363 dabd
00000190: a982 a23d 0de6 e2bc e4d6 81bb 6b21 bd3c
000001a0: 837a 353d d496 91bd e02b 15bd d3da 36bb
000001b0: 8f56 4abd cfc3 29bd cd72 cabd 3d37 7bbd
000001c0: a39e e9bc 3e7e 69bc d8c5 05bd 8be8 963c
000001d0: f1d1 0abc 3d17 bd3d ec26 c03c 2205 153e
000001e0: 1e1f 3fbc a3b0 173d 8123 e5bb fe54 c63d
000001f0: 4793 fbbd 0569 c2bc f9d2 b9bc 3cb3 163d
00000200: 2941 e33d f10a f83d 73dc 9f3d 3c2f 033e
00000210: 898c a2bd 37ea 723b 343d 943c 9eb4 d93d
00000220: 979a 943d 92d8 86bc 16e0 ad3d d9aa e1bd
00000230: 49c7 60bb 5253 393d f389 96bd d336 c73d
00000240: e653 2f3e 262f a03c fe71 bd3c 46a9 e33c
00000250: 84d8 0f3e 936f 45bb c5b0 45bc 4d60 a33d
00000260: a5d0 c13d 2408 823d f3f5 6f3d d374 cebd
00000270: 1532 7b3d e67d 65bd 0274 2abd fc87 8f3d
00000280: d062 6b3d 95d0 83bd 328d bc3d de3b 53bd
00000290: 9dd0 353d 4636 80bc ff59 0cbd f7dd c1bd
000002a0: 61ee a4bd a39b 163e 42c6 653d b6af 973d
000002b0: a2fb 4ebd 5d18 b8bc 8c1f a93d daf2 d2bd
000002c0: 3e31 31bb b699 cc3d d0a9 02bd a561 b93c
000002d0: 3da2 503d dc68 44bc 794c d6bc 78e6 813d
000002e0: 38f7 abbd d42a a53d d0fc 8c3d 47cc 173d
000002f0: 0071 9bbc e07c 263d fa7c dfbd 9b83 ef3d
00000300: a068 df3d 101d 413d 4f01 d63c 1723 f13d
00000310: cf8c 2f3c ebf6 c23d 6aee 4bbc 4436 d33d
00000320: 1f70 9ebd 3b7e d03d 5d6e 14bc 1979 0b3d
00000330: 7fdb a33c 127d 373c 6ba0 173e 6af3 ad3d
00000340: 8ae7 c73d 0f07 5d3d 0e9b 9ebc b484 9cbc
00000350: 35fa 473d ec55 3b3d ff50 2fbd 737d a0bd
00000360: e231 39bc ed1b fb3d cbf3 5f3d ccf5 46bd
00000370: 2adb 9c3d 48c3 8abb 05ac 96bd bdfa 3d3c
00000380: 96b9 f63c 9f9f 913c d300 0c3c 0bd6 0fbc
00000390: 0612 c83d 8a6f edbc 7dfa ccbc 8514 dabc
000003a0: 38b0 1abd 9e80 4dbb 7d66 a53d 7a41 b6bc
000003b0: 3ba0 06bd 7dfb 9dbb d41f d7bc b15f d93d
000003c0: 8215 c13d dee4 863d a8bd 75bd 02da 7d3c
000003d0: 55f4 6cbc 25b8 87bc 45b7 f0ba 4dbd 8f3d
000003e0: c42b ff3d b86f 3d3d 455e b4bc e1bf 4ebc
000003f0: afd4 8bbb 3bf7 2dbc 1d70 723a 5460 f43c

bn_layer.running_mean f4 [256]
-0.7079909 0.20456044 -0.038816195 -0.2128685 0.655699 -0.45247635 -0.15032402 -0.121831216
1.6336033 0.95841205 0.60532916 -0.23952764 2.109664 1.2527767 -1.7502189 0.16237135
-2.3103607 1.118418 0.43840045 2.7565227 1.6162821 0.6173734 -0.22169203 -1.4063773
0.20445122 1.1168338 -0.18475807 -2.8250263 0.35470983 -0.059097685 -1.4932266 -0.5253044
1.6901386 0.68465394 2.5147097 -0.46197772 -1.6018966 -2.5184112 -0.29897854 -1.1429697
1.2600257 -0.2724134 1.166827 -2.2448568 0.262467 -1.181531 1.5640912 0.17733067
-2.6826384 -2.8659334 -0.11781304 -1.8630437 0.06989014 1.3777775 -2.6120849 -0.32126996
2.4606335 -0.22680913 -2.5324345 -0.48765048 0.10988916 0.031562854 0.49116567 0.8730803
1.6014396 2.2148767 -0.652312 0.21221064 0.5733482 0.7268824 2.300151 1.2205151
-0.033873428 0.70749557 0.2798258 0.41106492 -2.061484 1.3901876 -0.5169817 2.3050303
0.62870014 0.29699758 -0.9696515 1.2042347 -1.1295809 0.9339104 0.68019307 -1.0729381
1.0938123 0.7983666 -0.61873853 -0.19342308 0.5509881 0.7764887 0.053254392 1.2540686
-0.6652198 0.43944034 -1.6140851 -1.6966054 -1.3547653 -0.4684676 -0.60694426 -0.005362931
1.0892665 -0.51859576 1.643722 -1.0280899 -2.0635283 -1.3147124 -1.7138319 -2.0603566
2.6247165 2.486758 -1.0719033 0.06134843 -0.7150031 -0.8982648 -2.5674276 -0.98791957
1.1915224 1.062961 -0.6609611 -0.37576285 -0.62004954 1.1099416 2.8877685 0.54895127
0.6416849 1.2470591 1.1948438 -0.011450111 -0.8779266 1.2571235 1.1481817 1.4965191
0.7410692 -1.4387499 -0.62816256 0.36325595 0.013521618 2.6471505 0.9824447 -0.99309313
-0.33469194 1.4348996 0.86626214 0.21103539 2.1697488 -1.5392666 0.055087265 0.014179431
3.3508835 0.19087793 -0.40360537 -3.2109118 -0.6735439 0.14745028 -1.6875681 -0.030760594
0.93003637 1.5042225 -0.5038937 -1.7297257 1.0514351 0.8733563 1.8853729 -1.6554328
-2.0162284 -0.74786407 0.73057956 -2.4257915 -2.3145344 0.9988322 0.8887452 0.8237732
0.654631 0.70234144 0.90408 0.68241256 -0.5211272 0.06279674 -0.53698283 -0.6561931
-0.33866772 1.518933 0.9120535 -2.762805 1.215568 1.7442832 1.1937706 -0.34982213
0.62566054 -0.4362764 1.9426975 -1.4247308 -0.9904724 2.1022205 -0.5677724 0.3065824
-1.9420961 2.0838003 1.3342208 -1.3290504 0.76718605 1.2252643 1.408044 -0.57591623
-1.7813609 1.2672609 0.4984013 -0.4770705 0.94229335 1.358455 0.8833765 -1.2514149
-1.3719963 -0.7039 1.5035591 -0.7242638 0.96924996 1.8960638 0.8033761 -0.38572574
0.79972994 -0.77407914 -1.8563261 1.5855863 -0.032675862 -0.60790247 0.8733556 1.7930305
-2.7454476 0.6914605 0.9863533 0.7943405 0.60929 -0.83485276 0.15433842 0.24753772
1.3303183 -0.9367627 -1.8137585 -0.81540835 0.15641618 -0.6956146 -0.22113766 -0.5964752
1.6149284 0.24787058 -0.26011163 -1.0301976 0.71981937 0.14472644 -0.035237648 1.9685435
00000000: e43e 35bf 4b78 513e bbfd 1ebd 33fa 59be
00000010: e4db 273f fbaa e7be 8aee 19be a582 f9bd
00000020: ea19 d13f 7e5a 753f daf6 1a3f bc46 75be
00000030: bc04 0740 fd5a a03f 2c07 e0bf ad44 263e
00000040: f3dc 13c0 5228 8f3f 0676 e03e de6a 3040
00000050: 55e2 ce3f 2f0c 1e3f 3c03 63be 2c04 b4bf
00000060: a95b 513e 69f4 8e3f 3831 3dbe 3bcd 34c0
00000070: 879c b53e 6a10 72bd 0d22 bfbf 597a 06bf
00000080: 7656 d83f 7b45 2f3f 01f1 2040 5888 ecbe
00000090: f30a cdbf a62d 21c0 b713 99be d54c 92bf
000000a0: 8648 a13f c579 8bbe 965a 953f bcab 0fc0
000000b0: 1362 863e 683c 97bf 2434 c83f 2c96 353e
000000c0: 59b0 2bc0 746b 37c0 f747 f1bd 3778 eebf
000000d0: 9022 8f3d 035b b03f 662c 27c0 7f7d a4be
000000e0: 057b 1d40 a740 68be 6813 22c0 53ad f9be
000000f0: 910d e13d 0d48 013d 117a fb3e 3182 5f3f
00000100: f9fb cc3f 8ac0 0d40 ebfd 26bf bf4d 593e
00000110: f3c6 123f f714 3a3f ad35 1340 d739 9c3f
00000120: ddbe 0abd 6e1e 353f 5445 8f3e 1a77 d23e
00000130: 5bef 03c0 abf1 b13f ea58 04bf 9e85 1340
00000140: 7ef2 203f 1110 983e 153b 78bf 5d24 9a3f
00000150: 1b96 90bf c114 6f3f 2221 2e3f 0956 89bf
00000160: 0b02 8c3f c161 4c3f a665 1ebf b310 46be
00000170: 8e0d 0d3f f7c7 463f 4721 5a3d 5285 a03f
00000180: d84b 2abf 53fe e03e 579a cebf 5e2a d9bf
00000190: f368 adbf fcda efbe b360 1bbf 87bb afbb
000001a0: 166d 8b3f b1c2 04bf 7c65 d23f 7398 83bf
000001b0: d910 04c0 7f48 a8bf d85e dbbf e2dc 03c0
000001c0: 5bfb 2740 0b27 1f40 2134 89bf 7e48 7b3d
000001d0: 710a 37bf aff4 65bf bc50 24c0 4ce8 7cbf
000001e0: ce83 983f 1b0f 883f bf34 29bf fd63 c0be
000001f0: 91bb 1ebf 9112 8e3f 33d1 3840 1288 0c3f
00000200: 7645 243f a29f 9f3f a4f0 983f 3f99 3bbc
00000210: ccbf 60bf 6ce9 a03f 9ef7 923f f08d bf3f
00000220: b6b6 3d3f f528 b8bf 43cf 20bf affc b93e
00000230: c789 5d3c ea6a 2940 7f81 7b3f 5a3b 7ebf
00000240: be5c abbe caaa b73f 5bc3 5d3f a919 583e
00000250: 2add 0a40 b006 c5bf 2fa3 613d d850 683c
00000260: e074 5640 8175 433e 5da5 cebe 947f 4dc0
00000270: 5f6d 2cbf 35fd 163e 3b02 d8bf a4fd fbbc
00000280: dd16 6e3f 5d8a c03f 2dff 00bf a767 ddbf
00000290: 6d95 863f 4794 5f3f e653 f13f 39e5 d3bf
000002a0: e309 01c0 0574 3fbf 4307 3b3f 2b40 1bc0
000002b0: 5521 14c0 78b3 7f3f ce84 633f cde2 523f
000002c0: e695 273f a6cc 333f c971 673f 97b2 2e3f
000002d0: 9868 05bf 949b 803d b577 09bf 45fc 27bf
000002e0: db65 adbe 666c c23f 577c 693f ccd1 30c0
000002f0: bb97 9b3f ac44 df3f 7acd 983f e31b b3be
00000300: 4a2b 203f 9f5f dfbe 50aa f83f 945d b6bf
00000310: 998f 7dbf c88a 0640 8859 11bf 5ef8 9c3e
00000320: 9b96 f8bf fc5c 0540 bfc7 aa3f 531e aabf
00000330: 4e66 443f 76d5 9c3f c93a b43f 3f6f 13bf
00000340: a203 e4bf 9b35 a23f 752e ff3e 9642 f4be
00000350: 233a 713f dae1 ad3f f624 623f 5d2e a0bf
00000360: 939d afbf ca32 34bf a074 c03f 5a69 39bf
00000370: c420 783f 38b2 f23f 0eaa 4d3f d87d c5be
00000380: 1abb 4c3f 0d2a 46bf 189c edbf 7ef4 ca3f
00000390: 20d7 05bd 7f9f 1bbf 3c94 5f3f 0682 e53f
000003a0: 6ab5 2fc0 8e03 313f a681 7c3f e659 4b3f
000003b0: 6efa 1b3f e9b8 55bf e40a 1e3e 877a 7d3e
000003c0: df47 aa3f aecf 6fbf 3d29 e8bf 9abe 50bf
000003d0: 902b 203e cc13 32bf e971 62be 99b2 18bf
000003e0: f9b5 ce3f c9d1 7d3e 5a2d 85be 84dd 83bf
000003f0: 1546 383f 2b33 143e 5a55 10bd 3cf9 fb3f
