checkpoint_critic_1.pth (torch_old, 298455 bytes, 10 tensors)

fc1.weight f4 [256, 24]
0	0x3b91fc25	0.004455107
1	0x3bad02c1	0.0052798693
2	0x3c18d9d9	0.009329283
3	0xbca2addf	-0.019858299
4	0xbbae4bac	-0.0053190794
5	0x3c7cf487	0.015439159
6	0xbd13b47e	-0.036060803
7	0xbca0a46c	-0.019609652
8	0xbcd6ce41	-0.026221396
9	0x3a3c3544	0.0007179568
10	0x3c2072b5	0.009792973
11	0x3c6465ec	0.013940316
12	0xbb1aa258	-0.00235953
13	0x3c8e9e82	0.017409567
14	0xbc18bf35	-0.009322931
15	0x3c644072	0.013931381
16	0xbcde55f0	-0.027140588
17	0xbb8e5e11	-0.0043447097
18	0x3ca02aa6	0.019551586
19	0x3d229225	0.039690156
20	0x3c7afc6a	0.015318969
21	0x3ccd24fc	0.02504205
22	0x3c690085	0.014221315
23	0x3d21eeb7	0.039534297
24	0x002dc944	4.204798e-39
25	0x001a55c1	2.418486e-39
26	0x004219c8	6.070391e-39
27	0x0044b7f8	6.310809e-39
28	0x00295245	3.794768e-39
29	0x003c63ae	5.545888e-39
30	0x001349d3	1.771358e-39
31	0x003f3084	5.80304e-39
32	0x8011e3be	-1.642902e-39
33	0x00396abe	5.272915e-39
34	0x8005313a	-4.76837e-40
35	0x801585c8	-1.976537e-39
36	0x00201e79	2.949667e-39
37	0x804578eb	-6.380026e-39
38	0x803250a6	-4.620706e-39
39	0x801387c7	-1.793582e-39
40	0x8010bd99	-1.537383e-39
41	0x000efa52	1.375495e-39
42	0x000f6394	1.413254e-39
43	0x801bf653	-2.567923e-39
44	0x000dea71	1.277963e-39
45	0x00435a2f	6.18533e-39
46	0x000f3fb5	1.400386e-39
47	0x801930b6	-2.313362e-39
48	0xbd53e324	-0.05173029
49	0x3cfd0c4c	0.030889653
50	0xbb198bab	-0.0023429196
51	0x3a7df284	0.0009687322
52	0x3a1b74c8	0.00059301825
53	0xbd284d3b	-0.041089278
54	0x3a86999d	0.0010269169
55	0x3a8ac2ac	0.0010586581
56	0xbc550059	-0.013000571
57	0x3cf00117	0.029297395
58	0xbc98e3ed	-0.018663371
59	0xbb82d9a5	-0.0039932304
60	0x3c69f7d9	0.014280283
61	0xbcfb05a4	-0.030642338
62	0x3c123e61	0.008926005
63	0xbb80397c	-0.0039131027
64	0x3c3d380e	0.011549009
65	0x3cd3edbf	0.025870202
66	0x3c586ac0	0.013209045
67	0x3c4224f4	0.011849631
68	0x3d199b8a	0.03750185
69	0xbdf5e528	-0.12006599
70	0x3c01a914	0.0079138465
71	0x3c4bccd4	0.012438972
72	0x80350712	-4.869818e-39
73	0x003b489e	5.444344e-39
74	0x800f0622	-1.379732e-39
75	0x8044ec05	-6.329482e-39
76	0x800f998c	-1.432615e-39
77	0x803c1658	-5.518145e-39
78	0x8039eb18	-5.318959e-39
79	0x80449096	-6.296681e-39
80	0x800edf67	-1.365839e-39
81	0x00035987	3.07623e-40
82	0x003c818c	5.556602e-39
83	0x000a8e4d	9.69403e-40
84	0x004522d4	6.349143e-39
85	0x00184122	2.227417e-39
86	0x00300a8e	4.41189e-39
87	0x000d4b99	1.220981e-39
88	0x80049653	-4.21268e-40
89	0x001c32f0	2.589667e-39
90	0x801e9175	-2.807245e-39
91	0x802a33e2	-3.875703e-39
92	0x80414f73	-5.997808e-39
93	0x80405904	-5.909405e-39
94	0x801f372a	-2.86669e-39
95	0x80298483	-3.812792e-39
96	0x8033f058	-4.76983e-39
97	0x802c11de	-4.047171e-39
98	0x80354788	-4.892942e-39
99	0x802bb19c	-4.01264e-39
100	0x801b56cd	-2.510697e-39
101	0x00014ce3	1.19417e-40
102	0x001b54b3	2.509943e-39
103	0x8027e022	-3.661988e-39
104	0x8028f356	-3.760712e-39
105	0x00333551	4.702737e-39
106	0x80112af3	-1.576611e-39
107	0x0010373d	1.489184e-39
108	0x800d5d84	-1.227409e-39
109	0x80229699	-3.176431e-39
110	0x00293367	3.783695e-39
111	0x00075546	6.73439e-40
112	0x80435e6c	-6.18685e-39
113	0x80179098	-2.164087e-39
114	0x003e14c3	5.701249e-39
115	0x803ce090	-5.590688e-39
116	0x00441c48	6.254959e-39
117	0x803ad8c2	-5.404217e-39
118	0x80351192	-4.873584e-39
119	0x803e4fb9	-5.7224e-39
120	0x3d113597	0.035451498
121	0x3cb5288b	0.022114059
122	0xbc8dd86c	-0.017315112
123	0xbc082cb7	-0.008311442
124	0xb935e15e	-0.00017345461
125	0x3cde58e0	0.027141988
126	0x3c2c923f	0.010532915
127	0x3b938859	0.004502338
128	0x3d3c75b0	0.046010673
129	0x3cf62c8a	0.030050535
130	0xbc6a8dae	-0.014316006
131	0xbbaced42	-0.005277307
132	0xbba8344e	-0.0051331883
133	0x3dd1b423	0.102394365
134	0x3c291210	0.010319248
135	0xbc8cb409	-0.017175691
136	0x3c2d5aa4	0.010580692
137	0x3cb1fecb	0.02172794
138	0x3c447963	0.0119918315
139	0x3c3d17ca	0.011541316
140	0x3e0c2033	0.13684158
141	0x3c34e202	0.011040213
142	0xbcbcbacd	-0.023038292
143	0x3be3ae8c	0.006948298
144	0xbd15053f	-0.036381956
145	0x3cdd24d2	0.026995096
146	0x3d13b4fb	0.03606127
147	0xbcf0cecf	-0.029395489
148	0xbb99eb63	-0.0046972497
149	0x3cd02fd6	0.025413435
150	0x3c6b6eb4	0.014369655
151	0xbce1b69d	-0.027552897
152	0xbd04e709	-0.032446895
153	0x3ce3c45c	0.027803592
154	0xbbea8e44	-0.0071580727
155	0xbc3131c8	-0.010815091
156	0x3c4b05f6	0.012391558
157	0x3c264479	0.010148161
158	0xbafbb0df	-0.0019202492
159	0xbc36dc70	-0.011160955
160	0xbd41f452	-0.047352143
161	0x3ce761a7	0.028244806
162	0xbd4e4dd3	-0.050367188
163	0x3b9589f9	0.0045635668
164	0x3c5d8faf	0.013523026
165	0x3cf14ccd	0.029455567
166	0xbbca81fb	-0.0061800457
167	0x3bbbf0e8	0.0057355054
168	0x80387038	-5.183044e-39
169	0x00041c4b	3.77492e-40
170	0x0000ad0f	6.2082e-41
171	0x802e61c9	-4.259512e-39
172	0x001855dd	2.234854e-39
173	0x8035450e	-4.892053e-39
174	0x80290718	-3.7678e-39
175	0x802e61c9	-4.259512e-39
176	0x801f2a50	-2.862079e-39
177	0x8039e634	-5.317205e-39
178	0x8037a015	-5.108379e-39
179	0x802ae552	-3.939355e-39
180	0x0009319a	8.44313e-40
181	0x003bd42a	5.494404e-39
182	0x002eda03	4.30264e-39
183	0x802ae552	-3.939355e-39
184	0x002651eb	3.519135e-39
185	0x80166ef4	-2.060183e-39
186	0x0013daab	1.823318e-39
187	0x800db71d	-1.25955e-39
188	0x801e0f16	-2.760477e-39
189	0x802840ac	-3.69662e-39
190	0x0002af6d	2.46602e-40
191	0x8003324d	-2.93551e-40
192	0x80265099	-3.518662e-39
193	0x0015e0b7	2.009158e-39
194	0x002bbdf4	4.017069e-39
195	0x00448ad7	6.29462e-39
196	0x002afaf8	3.947121e-39
197	0x80235e12	-3.247988e-39
198	0x0026109f	3.495711e-39
199	0x003fbbb2	5.852969e-39
200	0x803c787d	-5.553353e-39
201	0x002a2383	3.86983e-39
202	0x0011054b	1.563102e-39
203	0x002670f4	3.530269e-39
204	0x001a10b9	2.393722e-39
205	0x001d1c41	2.673365e-39
206	0x00294adb	3.792108e-39
207	0x00267256	3.530765e-39
208	0x00154c84	1.955994e-39
209	0x001c07d9	2.574209e-39
210	0x0005c6de	5.30518e-40
211	0x000062a7	3.539e-41
212	0x0013bc61	1.812452e-39
213	0x802a38bd	-3.877445e-39
214	0x00326c8f	4.630718e-39
215	0x8004ec8d	-4.522e-40
216	0x00074a4d	6.69503e-40
217	0x000d9a5d	1.249237e-39
218	0x00241db9	3.31674e-39
219	0x000b7fb5	1.056003e-39
220	0x002e9799	4.278816e-39
221	0x0003c2b1	3.45349e-40
222	0x8025feb1	-3.48928e-39
223	0x00067dff	5.96212e-40
224	0x00356ae1	4.905622e-39
225	0x002939bc	3.785967e-39
226	0x802aed80	-3.94229e-39
227	0x0025da22	3.476165e-39
228	0x8009d8bb	-9.04268e-40
229	0x800a5a7b	-9.50813e-40
230	0x003bbc0b	5.485751e-39
231	0x002a7e30	3.902358e-39
232	0x80399d99	-5.291159e-39
233	0x003a4b8f	5.353564e-39
234	0x803b3ebb	-5.440798e-39
235	0x8031020f	-4.500678e-39
236	0x8014bfdd	-1.905537e-39
237	0x0039f636	5.322947e-39
238	0x80372f2c	-5.067874e-39
239	0x80300a04	-4.411697e-39
240	0x000b9df5	1.066855e-39
241	0x00281052	3.679274e-39
242	0x801e02ad	-2.756025e-39
243	0x0006368d	5.70582e-40
244	0x800eb0f4	-1.349176e-39
245	0x80168336	-2.06745e-39
246	0x80148e6d	-1.887803e-39
247	0x000e7dd8	1.330841e-39
248	0x0030ab70	4.469604e-39
249	0x00068dd4	6.01891e-40
250	0x8010bc73	-1.536971e-39
251	0x001e28ba	2.769675e-39
252	0x002cfa2a	4.130504e-39
253	0x801e8427	-2.802472e-39
254	0x8006a6df	-6.10875e-40
255	0x001ba759	2.539591e-39

fc1.bias f4 [256]
0	0x327540f7	1.4275648e-08
1	0x803dcf8e	-5.676422e-39
2	0xb28e7d13	-1.6587853e-08
3	0x80403b80	-5.898816e-39
4	0x000a3196	9.36143e-40
5	0xb35be876	-5.1201333e-08
6	0xb29f1cfa	-1.8523213e-08
7	0x0037245b	5.063994e-39
8	0x800f5308	-1.407318e-39
9	0x80049874	-4.22032e-40
10	0x800ae0ba	-9.98972e-40
11	0x00265394	3.519731e-39
12	0x352ae082	6.3656637e-07
13	0x00076e42	6.82402e-40
14	0x33ecb1ec	1.102197e-07
15	0x0040c25a	5.947192e-39
16	0x80387d73	-5.18779e-39
17	0x800e70fb	-1.326227e-39
18	0x803ee9ae	-5.777629e-39
19	0xb4348fd3	-1.6816129e-07
20	0x8019872c	-2.344378e-39
21	0x330697f2	3.13375e-08
22	0x351efde1	5.922903e-07
23	0x80043f39	-3.90022e-40
24	0xb21623ea	-8.739315e-09
25	0x33359087	4.2273793e-08
26	0x80298a80	-3.81494e-39
27	0xb38efc22	-6.658253e-08
28	0x330c4ef3	3.2668094e-08
29	0x803d3440	-5.620709e-39
30	0x00453123	6.354276e-39
31	0x32e36e3a	2.6476403e-08
32	0x803e27d6	-5.708091e-39
33	0x00353f86	4.890069e-39
34	0x8026f7b9	-3.578615e-39
35	0xb3837580	-6.121536e-08
36	0x35958848	1.1141028e-06
37	0x8003c4ea	-3.46146e-40
38	0x8015042c	-1.930042e-39
39	0x0010251b	1.482679e-39
40	0x339abf39	7.205967e-08
41	0xb36555ab	-5.3396132e-08
42	0x801d23a0	-2.676009e-39
43	0x0042c0d5	6.130318e-39
44	0x0042db65	6.139847e-39
45	0x0011ec3b	1.645947e-39
46	0x34574595	2.0048749e-07
47	0x803f765a	-5.828093e-39
48	0x32608f3e	1.30710855e-08
49	0x000df89f	1.28305e-39
50	0x80351d47	-4.877784e-39
51	0x003068e0	4.445726e-39
52	0xb533b230	-6.6941993e-07
53	0x002edb40	4.303085e-39
54	0x800905a8	-8.28549e-40
55	0x801aef87	-2.473649e-39
56	0xad0f1ce8	-8.135027e-12
57	0x00254639	3.423105e-39
58	0x33042fb4	3.077703e-08
59	0x0018464a	2.229267e-39
60	0x33809ad2	5.988626e-08
61	0x00418635	6.017452e-39
62	0x80317dbb	-4.545043e-39
63	0x3286fab7	1.5713665e-08
64	0xb461ed4d	-2.1041087e-07
65	0xb2b3c2d5	-2.0926942e-08
66	0xb451b853	-1.9531699e-07
67	0x0035fe31	4.958468e-39
68	0x0042700f	6.101342e-39
69	0x33ee1d25	1.108804e-07
70	0xb3341b3d	-4.193429e-08
71	0x329a9d27	1.7999424e-08
72	0x8037eb22	-5.135302e-39
73	0x34ff6d87	4.7577143e-07
74	0xb3736e67	-5.6678257e-08
75	0xb534493d	-6.71618e-07
76	0xb268570c	-1.35239695e-08
77	0xb3c1a87c	-9.01791e-08
78	0xb34fd705	-4.8391502e-08
79	0x003ab0e0	5.38991e-39
80	0x002acddb	3.930938e-39
81	0x316ebb5a	3.4740055e-09
82	0xb2e7dbb7	-2.6991854e-08
83	0x003daa59	5.663074e-39
84	0xb6082762	-2.0288503e-06
85	0xb392526b	-6.8136465e-08
86	0x00114c24	1.588518e-39
87	0xb36aa56c	-5.463282e-08
88	0xb49511e8	-2.776644e-07
89	0xb3ecc68d	-1.10257226e-07
90	0xb4002597	-1.1934604e-07
91	0x003cb850	5.576249e-39
92	0x804322be	-6.165441e-39
93	0x34806a2a	2.3919102e-07
94	0xb5166ec6	-5.604055e-07
95	0xb49d8b4a	-2.9344875e-07
96	0x350948ee	5.1142604e-07
97	0x33a9cfa7	7.9074475e-08
98	0xb325925a	-3.8550162e-08
99	0x0042d293	6.136683e-39
100	0x00285e8a	3.707334e-39
101	0x32cbf3e3	2.3743217e-08
102	0xb50eb488	-5.316183e-07
103	0x000ae8de	1.001892e-39
104	0x802176af	-3.073147e-39
105	0xb24bf668	-1.18721815e-08
106	0x0021759f	3.072766e-39
107	0xb3eb6794	-1.0961881e-07
108	0x34034e2e	1.2228767e-07
109	0xb2cce2dd	-2.3851891e-08
110	0xb5bb43c2	-1.3952306e-06
111	0xb4fbebbc	-4.6923913e-07
112	0x000dbb78	1.261113e-39
113	0x80112399	-1.573973e-39
114	0xb35e11ed	-5.1704706e-08
115	0x800cfc74	-1.192589e-39
116	0x3419af2c	1.4312963e-07
117	0x3392e494	6.840233e-08
118	0x348539a6	2.4815125e-07
119	0x3260d7ce	1.3087584e-08
120	0xb2e5a94a	-2.6736092e-08
121	0xb4bbcd41	-3.4980806e-07
122	0xb4599b86	-2.0266279e-07
123	0xb44bb8ad	-1.8973033e-07
124	0x34408712	1.7930532e-07
125	0xb23ba100	-1.092144e-08
126	0xb306bfe8	-3.1373844e-08
127	0x80220cc5	-3.126988e-39
128	0x32670d99	1.3449061e-08
129	0x0008045d	7.36249e-40
130	0xb3f02cd3	-1.11840244e-07
131	0x349839bb	2.835421e-07
132	0x00144830	1.862606e-39
133	0xb4b844fe	-3.432287e-07
134	0x002fc6da	4.387603e-39
135	0x34d51f16	3.969696e-07
136	0x32c13a88	2.2494774e-08
137	0xb5ba92d3	-1.3900811e-06
138	0x00183359	2.222472e-39
139	0x35cca31b	1.5246654e-06
140	0xb4ccd44b	-3.8152425e-07
141	0xb53a1aa6	-6.932918e-07
142	0xb224c77e	-9.591416e-09
143	0x80406b99	-5.91607e-39
144	0x8032f8d4	-4.681038e-39
145	0x3303c7a6	3.0682394e-08
146	0x0011c770	1.632748e-39
147	0x80421c67	-6.071332e-39
148	0x00022821	1.98067e-40
149	0x8006b0c4	-6.14425e-40
150	0x803017e4	-4.416674e-39
151	0xb43e2e3b	-1.7711947e-07
152	0xb3d04858	-9.698914e-08
153	0x00290417	3.766723e-39
154	0x8044e7d6	-6.327981e-39
155	0x351f2fa7	5.930146e-07
156	0x31ed65d7	6.9091857e-09
157	0x801b0ea9	-2.484817e-39
158	0xb3672282	-5.3815263e-08
159	0x80399a6c	-5.29002e-39
160	0x001555b5	1.959291e-39
161	0x34adb5dd	3.2356084e-07
162	0x3627aa44	2.4984047e-06
163	0x000dc194	1.263304e-39
164	0xb4a5d126	-3.088582e-07
165	0x801f582e	-2.878533e-39
166	0xb4f692fc	-4.5928016e-07
167	0xb3d50caf	-9.9208926e-08
168	0x8035a1d0	-4.925329e-39
169	0xb545be36	-7.366501e-07
170	0x8029f473	-3.852947e-39
171	0x345afd68	2.0395021e-07
172	0x0034ae8a	4.838059e-39
173	0xb3beff78	-8.894034e-08
174	0xb2e886d8	-2.7069675e-08
175	0xb291e377	-1.698366e-08
176	0xb2b3019e	-2.0839078e-08
177	0xb23103fd	-1.0303663e-08
178	0x000e24b2	1.298861e-39
179	0x004416ac	6.252947e-39
180	0x8001c196	-1.61281e-40
181	0xb276eb7c	-1.43726275e-08
182	0x80387c97	-5.187482e-39
183	0x32bdb577	2.2085016e-08
184	0x33c2f206	9.077853e-08
185	0x003ae830	5.409752e-39
186	0x35b2ad31	1.3312439e-06
187	0x800ca250	-1.160253e-39
188	0xb5851688	-9.91583e-07
189	0x00152f5a	1.945532e-39
190	0x000e16b7	1.293845e-39
191	0x34bfbd6d	3.5714348e-07
192	0xb3e81284	-1.080671e-07
193	0xb2c00272	-2.2352854e-08
194	0x32f70370	2.8756148e-08
195	0x003c75eb	5.552431e-39
196	0x0045b9ed	6.403347e-39
197	0xb16fa3c9	-3.4872178e-09
198	0xb2d22dff	-2.4468134e-08
199	0x80434b24	-6.179934e-39
200	0xb3f61336	-1.1458762e-07
201	0x802c5549	-4.071356e-39
202	0x0031bb1e	4.567064e-39
203	0x803bd427	-5.4944e-39
204	0x00290913	3.76851e-39
205	0x35324240	6.6406574e-07
206	0x802dadb6	-4.194913e-39
207	0x0038b11e	5.206325e-39
208	0xb1be264b	-5.534081e-09
209	0xb45ba810	-2.0457105e-07
210	0xb346b512	-4.626515e-08
211	0x32ecede8	2.7582203e-08
212	0x32d77198	2.508095e-08
213	0x3372183a	5.636705e-08
214	0x8029d35b	-3.841075e-39
215	0xb489779f	-2.5605274e-07
216	0xb454a87f	-1.9805337e-07
217	0x800126f4	-1.05809e-40
218	0x347dbf60	2.3632083e-07
219	0xb431f753	-1.6574386e-07
220	0x8045cd26	-6.410243e-39
221	0x000a8ce6	9.689e-40
222	0x801cd735	-2.648596e-39
223	0x344685d4	1.8488873e-07
224	0x0023e861	3.297604e-39
225	0x33f2d855	1.1308354e-07
226	0x003a7a34	5.370297e-39
227	0x0030f45e	4.495766e-39
228	0x34c8cdb2	3.7402566e-07
229	0xb4769741	-2.2965561e-07
230	0x00099c03	8.82486e-40
231	0xb4811e49	-2.4050158e-07
232	0xb43de3bf	-1.768485e-07
233	0x34a75fb1	3.11758e-07
234	0x00143606	1.85609e-39
235	0xb411960c	-1.3558764e-07
236	0xb3cee68f	-9.634561e-08
237	0xb3ce36f7	-9.6026206e-08
238	0x80137216	-1.785801e-39
239	0x8032a021	-4.649218e-39
240	0x00256883	3.435405e-39
241	0x32a61f86	1.9339279e-08
242	0x000eff0f	1.377195e-39
243	0x331ae99d	3.606839e-08
244	0x8025836a	-3.445056e-39
245	0x0020cb29	3.011616e-39
246	0x00368e7b	5.010229e-39
247	0x3392013f	6.7988815e-08
248	0x00295dca	3.7989e-39
249	0xb47a27d0	-2.3297548e-07
250	0xb4592404	-2.0222802e-07
251	0x0012cfd3	1.727592e-39
252	0x00134ec0	1.773125e-39
253	0x002cabe1	4.10242e-39
254	0x802fede0	-4.401602e-39
255	0x8030901d	-4.459802e-39

bn_layer.weight f4 [256]
0	0x3d7cea12	0.061746664
1	0x801a18c9	-2.396614e-39
2	0x3dd6b4b0	0.10483682
3	0x802e38cb	-4.244806e-39
4	0x003a32ad	5.344638e-39
5	0x3e81f48c	0.25381887
6	0x3dff18ed	0.12455926
7	0x8005d4e5	-5.3555e-40
8	0x800ebd69	-1.353645e-39
9	0x8010323a	-1.487386e-39
10	0x80053b82	-4.80525e-40
11	0x0019f971	2.38537e-39
12	0x3ec8996a	0.39179546
13	0x8018f850	-2.29313e-39
14	0x3dbdee8d	0.092740156
15	0x803f8ced	-5.836191e-39
16	0x801e83d8	-2.802362e-39
17	0x00256f1f	3.437776e-39
18	0x0003317a	2.93255e-40
19	0x3e0d938b	0.13825814
20	0x002024a7	2.951884e-39
21	0x3dd9ae7d	0.10628984
22	0x3e4f7612	0.20259884
23	0x801768ac	-2.149766e-39
24	0x3e30d7ea	0.17269865
25	0x3e2f7c41	0.17137243
26	0x800875b1	-7.76904e-40
27	0x3e043f0a	0.12914672
28	0x3d761c49	0.06008557
29	0x000d6c7f	1.232783e-39
30	0x00284dda	3.701348e-39
31	0x3ea772da	0.32704812
32	0x80209131	-2.990821e-39
33	0x00397f46	5.28028e-39
34	0x004258d5	6.09301e-39
35	0x3e31ff00	0.17382431
36	0x3f187915	0.59559757
37	0x80067e9a	-5.96429e-40
38	0x800ff357	-1.464826e-39
39	0x001e2317	2.767653e-39
40	0x3e2dca41	0.16971685
41	0x3e4cf6be	0.20016
42	0x00373d29	5.072892e-39
43	0x8030a6f5	-4.467997e-39
44	0x002d06d2	4.135044e-39
45	0x001eb20b	2.818935e-39
46	0x3e8814bf	0.26578328
47	0x8015a317	-1.987051e-39
48	0x3d1d5618	0.038412184
49	0x802101ae	-3.031174e-39
50	0x00374a52	5.077613e-39
51	0x00150434	1.930053e-39
52	0x3ec2b75d	0.3803052
53	0x0005776b	5.02017e-40
54	0x80167ba2	-2.064732e-39
55	0x003e022c	5.69458e-39
56	0x3b8cb26f	0.004293732
57	0x0033e918	4.767229e-39
58	0x3e6054b2	0.21907309
59	0x000a409e	9.41535e-40
60	0x3eb35096	0.3502242
61	0x001be229	2.56069e-39
62	0x0039c87f	5.306548e-39
63	0x3d575a49	0.052576337
64	0x3e25a1e0	0.16175032
65	0x3e69dc51	0.2283795
66	0x3e3bb478	0.18330562
67	0x001f1554	2.854551e-39
68	0x803334e8	-4.70259e-39
69	0x3e6bb0ed	0.2301671
70	0x3dd0cf88	0.101958334
71	0x3da6149a	0.08109398
72	0x0021103c	3.036395e-39
73	0x3e89b582	0.26896292
74	0x3eea7b33	0.4579712
75	0x3eb6ff93	0.35741863
76	0x3cf64b06	0.03006507
77	0x3e093b3b	0.13401501
78	0x3daa16eb	0.083051525
79	0x80192f6d	-2.3129e-39
80	0x80156e4a	-1.96811e-39
81	0x3ea60ee2	0.3243323
82	0x3d8135b1	0.06309069
83	0x001b0294	2.480483e-39
84	0x3e617d92	0.22020558
85	0x3e2c3821	0.16818286
86	0x801cf5b3	-2.659534e-39
87	0x3dbdb8e9	0.092637844
88	0x3ea97003	0.3309327
89	0x3ef871d1	0.48524335
90	0x3df00824	0.11720303
91	0x8042c1b3	-6.130629e-39
92	0x800fb1fb	-1.44138e-39
93	0x3e8ffd4a	0.28122932
94	0x3e5499f8	0.2076186
95	0x3e6622a1	0.22474147
96	0x3ef2a240	0.47389412
97	0x3d95ac08	0.07308203
98	0x3d94eefd	0.07272146
99	0x002f50db	4.345274e-39
100	0x000e47a1	1.311393e-39
101	0x3e80830d	0.25099984
102	0x3e21a5e4	0.15785939
103	0x002b930f	4.001681e-39
104	0x80128a84	-1.702729e-39
105	0x3e2a52a5	0.16633089
106	0x8016f772	-2.109148e-39
107	0x3ea17286	0.31532687
108	0x3d9d6244	0.07684758
109	0x3e92a91c	0.28644645
110	0x3e819c73	0.25314674
111	0x3eaec0d6	0.34131497
112	0x0041a848	6.029675e-39
113	0x001bb8d4	2.545862e-39
114	0x3e0b9277	0.1363009
115	0x000cacc8	1.164008e-39
116	0x3e34696d	0.17618342
117	0x3e81b714	0.2533499
118	0x3e39d158	0.18146265
119	0x3db867aa	0.09004147
120	0x3debcb1c	0.115133494
121	0x3e51f573	0.20503788
122	0x3e840293	0.25783214
123	0x3e22f2dc	0.15912956
124	0x3db409f0	0.08790958
125	0x3ec00b40	0.37508583
126	0x3de3a726	0.111158654
127	0x802f4c9d	-4.343752e-39
128	0x3dcbddf1	0.09954441
129	0x8015bcd2	-1.996281e-39
130	0x3e1f2870	0.1554277
131	0x3e40d33d	0.18830581
132	0x800c0bc9	-1.106254e-39
133	0x3e8dec77	0.2771947
134	0x0042c8f9	6.133238e-39
135	0x3e9c7107	0.30554983
136	0x3e15d09b	0.14630358
137	0x3ea1ba61	0.31587508
138	0x00096254	8.61793e-40
139	0x3ebda3c6	0.37039012
140	0x3ecaa9d3	0.3958269
141	0x3e8c135f	0.2735853
142	0x3d555f54	0.052092865
143	0x802eb2a0	-4.288511e-39
144	0x00383bc8	5.164233e-39
145	0x3dd31ed7	0.103086166
146	0x803d629e	-5.637342e-39
147	0x80295882	-3.797006e-39
148	0x002faba1	4.377837e-39
149	0x80135d55	-1.778356e-39
150	0x0021a599	3.089977e-39
151	0x3ef7269b	0.4827164
152	0x3dceb8e4	0.10093859
153	0x0028a421	3.732298e-39
154	0x00312f50	4.516912e-39
155	0x3e201167	0.15631638
156	0x3ea392fa	0.31948072
157	0x0034955e	4.829029e-39
158	0x3d93078f	0.07179176
159	0x002f865d	4.364469e-39
160	0x8024d2bd	-3.381677e-39
161	0x3de4e2a6	0.11176042
162	0x3e55c30e	0.20875189
163	0x00079d54	6.99287e-40
164	0x3e8a7fc9	0.27050617
165	0x0043e0fa	6.233685e-39
166	0x3e4d1eae	0.20031235
167	0x3e481644	0.19539744
168	0x002de180	4.213491e-39
169	0x3e42eed2	0.19036415
170	0x0007bf10	7.11389e-40
171	0x3eedd140	0.46448708
172	0x80175203	-2.141637e-39
173	0x3e8fb956	0.28071088
174	0x3e4f646d	0.20253153
175	0x3ddee1fe	0.10882948
176	0x3e0ee8e2	0.13956025
177	0x3e1071d6	0.14105925
178	0x801b7481	-2.521352e-39
179	0x80135cdd	-1.778187e-39
180	0x80282bba	-3.689106e-39
181	0x3de6d127	0.112703614
182	0x801d5926	-2.69521e-39
183	0x3d3b1290	0.045672
184	0x3e22f8d6	0.15915236
185	0x00348d3a	4.826108e-39
186	0x3e68a51d	0.22719236
187	0x00209765	2.993046e-39
188	0x3e93a436	0.2883622
189	0x804534f5	-6.355647e-39
190	0x803addfb	-5.40609e-39
191	0x3edc4364	0.43020165
192	0x3f13ddfe	0.5776061
193	0x3df5f998	0.12010497
194	0x3e2d4f54	0.16924793
195	0x8021db7f	-3.109312e-39
196	0x8031ae55	-4.562478e-39
197	0x3dfea99c	0.12434694
198	0x3e11936a	0.1421639
199	0x80180562	-2.205983e-39
200	0x3e23a04c	0.15979117
201	0x002d654c	4.168936e-39
202	0x803fb441	-5.850299e-39
203	0x00341a5b	4.7849e-39
204	0x002670d7	3.530228e-39
205	0x3ed1b17c	0.40955722
206	0x000a574c	9.49671e-40
207	0x8023970c	-3.268428e-39
208	0x3dac51d0	0.08414042
209	0x3e37d3fd	0.17951961
210	0x3e03d4a1	0.1287408
211	0x3deaaff0	0.11459339
212	0x3e4990e0	0.19684172
213	0x3e081aaa	0.13291422
214	0x80340a15	-4.779063e-39
215	0x3ee5aac8	0.44856858
216	0x3e39a5d9	0.18129672
217	0x8033e7f5	-4.766821e-39
218	0x3e7f02e5	0.24903448
219	0x3eb37fc6	0.3505842
220	0x00060c9e	5.55539e-40
221	0x804098f1	-5.932337e-39
222	0x0013c74e	1.816371e-39
223	0x3e365a14	0.178078
224	0x80396e6e	-5.274238e-39
225	0x3dc33250	0.09531081
226	0x802927b2	-3.779495e-39
227	0x00266e32	3.52928e-39
228	0x3de6f863	0.11277845
229	0x3e4f9319	0.20270957
230	0x00404693	5.902789e-39
231	0x3e3ab9d6	0.18234953
232	0x3e5a44a4	0.21315247
233	0x3e37cbbe	0.17948815
234	0x00152cf9	1.944679e-39
235	0x3e43f388	0.19135869
236	0x3e6d9737	0.23202215
237	0x3d82d80d	0.06388865
238	0x00394a5a	5.261296e-39
239	0x0009a3ad	8.85235e-40
240	0x000639ae	5.71705e-40
241	0x3e36b8b2	0.17843893
242	0x0036222e	4.971378e-39
243	0x3da07d52	0.07836403
244	0x001509d2	1.932068e-39
245	0x800375b5	-3.17732e-40
246	0x001eab58	2.816531e-39
247	0x3e468c7e	0.19389531
248	0x000d5914	1.225817e-39
249	0x3e86645c	0.26248443
250	0x3e838bd8	0.2569263
251	0x000070bd	4.0443e-41
252	0x80247ad8	-3.350146e-39
253	0x803202e4	-4.592812e-39
254	0x002e6466	4.260449e-39
255	0x8012661c	-1.689669e-39

bn_layer.bias f4 [256]
0	0xbd485f26	-0.048918866
1	0x80037050	-3.15797e-40
2	0xbd3c669a	-0.045996286
3	0x808dc070	-1.3017839e-38
4	0x839e9312	-9.320171e-37
5	0xbd2c7309	-0.042101894
6	0xbc804f7c	-0.015662901
7	0x836de99d	-6.9916215e-37
8	0x83aebf84	-1.0270771e-36
9	0x803eb480	-5.758552e-39
10	0x800d4d30	-1.221551e-39
11	0x8b114a89	-2.7982058e-32
12	0xbc12b7b3	-0.00895493
13	0x80032ee0	-2.92322e-40
14	0xbd021fad	-0.03176849
15	0x8120ab58	-2.9510292e-38
16	0x89d2c7e5	-5.074364e-33
17	0x81795a18	-4.5798716e-38
18	0x80f85b00	-2.2807848e-38
19	0x3d2639c5	0.040582437
20	0x8081aa60	-1.1907898e-38
21	0xbd3c4d1e	-0.045971982
22	0x3cd0738b	0.02544572
23	0x80667570	-9.409349e-39
24	0xbd49202b	-0.049102943
25	0x3b9afecb	0.0047300807
26	0x807e0120	-1.1571676e-38
27	0xbc0db772	-0.008649694
28	0xbd0e5ae7	-0.03475466
29	0x80a3cc60	-1.5042502e-38
30	0x877ee40e	-1.9175855e-34
31	0xbaab014f	-0.0013046655
32	0x834944b0	-5.914744e-37
33	0x0041c140	6.038632e-39
34	0x80281280	-3.680056e-39
35	0xbb2f8b1f	-0.0026785803
36	0x3e11b87a	0.14230528
37	0x81f08ff8	-8.836866e-38
38	0x811d7a88	-2.8924258e-38
39	0x801de090	-2.743787e-39
40	0x3b345d5f	0.0027521474
41	0xbd7daa4a	-0.06192998
42	0x8727afd2	-1.2615353e-34
43	0x82d92d9d	-3.1911465e-37
44	0x823cb152	-1.3862947e-37
45	0x80025120	-2.12773e-40
46	0x3ca73569	0.02041121
47	0x837bcd12	-7.399768e-37
48	0xbd257a34	-0.040399745
49	0x82d054a3	-3.0611432e-37
50	0x819838a8	-5.591728e-38
51	0x80a3b990	-1.5035753e-38
52	0x3c8c4990	0.017124921
53	0x85f95042	-2.344533e-35
54	0x82130620	-1.0801612e-37
55	0x855ca730	-1.0375058e-35
56	0xbc162eb2	-0.0091664065
57	0x824a905a	-1.4882043e-37
58	0xbd26bb57	-0.040706005
59	0x812cf1a0	-3.1764768e-38
60	0xbce4d265	-0.027932355
61	0x802d0510	-4.134413e-39
62	0x84fec86b	-5.9899168e-36
63	0xbcf31d43	-0.029677039
64	0xbdbac92b	-0.09120401
65	0x3b54b5e5	0.003245705
66	0x3d2a5619	0.041586015
67	0x82afe27e	-2.584394e-37
68	0x846dfb7e	-2.7974696e-36
69	0x3cee10f8	0.029060826
70	0xbc322091	-0.010872022
71	0xbbd4b12a	-0.006490846
72	0x8345c554	-5.811962e-37
73	0xbc695711	-0.01424195
74	0xbd1ca228	-0.03824058
75	0x3cd73e14	0.026274718
76	0xbd047593	-0.03233869
77	0x3d3b1380	0.045672894
78	0xbc570693	-0.013124126
79	0x14b2c8c8	1.8052601e-26
80	0x8289c6aa	-2.0244368e-37
81	0xbd83b204	-0.06430438
82	0xbd3584e3	-0.044316184
83	0x86a40169	-6.1692016e-35
84	0xbc57dec1	-0.013175667
85	0xbd61b4bf	-0.055104014
86	0x8004e130	-4.48124e-40
87	0xbca4b5bd	-0.02010619
88	0x3b937c91	0.0045009335
89	0x3cfa7e75	0.030577878
90	0xbd9fa849	-0.0779577
91	0x8358a60a	-6.36673e-37
92	0x8d97e444	-9.361046e-31
93	0x3ce4ba35	0.027920822
94	0xbd7e16af	-0.06203335
95	0x3d7f3e26	0.06231513
96	0xbc4df9d5	-0.012571772
97	0xbd3d5930	-0.046227634
98	0xbd859adf	-0.0652368
99	0x80053750	-4.7902e-40
100	0x812bfeb8	-3.1590491e-38
101	0xbc9ea291	-0.019364627
102	0xbdaf564b	-0.08561381
103	0x8292646e	-2.1510416e-37
104	0x8cbb3182	-2.8841708e-31
105	0xbd45f921	-0.04833329
106	0x80233e70	-3.236641e-39
107	0x3c0848d1	0.008318142
108	0x3b4fee70	0.0031727813
109	0x3c41d2c9	0.01183004
110	0x3d6c6323	0.05771173
111	0xbc101f8d	-0.008796585
112	0x81d651c4	-7.872851e-38
113	0x8238ba9c	-1.3571739e-37
114	0xbcb2952e	-0.02179965
115	0x826812b8	-1.705004e-37
116	0xbd30b6b5	-0.043142993
117	0xbce67be6	-0.028135251
118	0x3d0074e5	0.03136148
119	0xbd807d74	-0.06273928
120	0xbca1bd09	-0.01974346
121	0xbd06263d	-0.03275131
122	0xbd11aa28	-0.035562664
123	0xbd41d005	-0.047317524
124	0xbcac70b8	-0.021049842
125	0xbcbbeba3	-0.022939509
126	0xbce75671	-0.02823946
127	0x81eb6cf4	-8.6481706e-38
128	0xbd3928d8	-0.045204967
129	0x811231f8	-2.6851816e-38
130	0xbce5c597	-0.02804832
131	0x3d0cd6f5	0.034384686
132	0x81118df8	-2.6734151e-38
133	0x3d712323	0.0588714
134	0x860e6447	-2.6780904e-35
135	0x3d0ff122	0.03514207
136	0xbd651721	-0.05593026
137	0x3b96f9f5	0.004607434
138	0x81b0c9c0	-6.4941686e-38
139	0xbb09ce49	-0.0021027497
140	0x3b5cd545	0.0033696454
141	0xbdae4f2a	-0.08511193
142	0xbd138f3b	-0.036025267
143	0x8124e490	-3.0286028e-38
144	0x876686b8	-1.7342867e-34
145	0x3bb23249	0.0054381234
146	0x8bfc36bf	-9.714924e-32
147	0x80514f50	-7.467127e-39
148	0x815c3a58	-4.0449478e-38
149	0x80a1b070	-1.4848809e-38
150	0x80116680	-1.597974e-39
151	0xbcbf3dd5	-0.023344913
152	0xbd93b43d	-0.07212112
153	0x8025cc70	-3.471252e-39
154	0x802d59d0	-4.164816e-39
155	0x3d7dda6c	0.06197588
156	0x3d1e5cfe	0.038662903
157	0x92bf81de	-1.2085809e-27
158	0x3c1ac32b	0.009445946
159	0x820ddbf0	-1.0422163e-37
160	0x8181ff60	-4.775356e-38
161	0xbd5cf5d4	-0.053945377
162	0xbd00bc44	-0.031429544
163	0x813ae1b8	-3.432475e-38
164	0xbd826193	-0.06366267
165	0x92a18471	-1.0193178e-27
166	0xbd3738bd	-0.044731844
167	0xbcc87929	-0.024471836
168	0x992442e1	-8.492107e-24
169	0x3d80640a	0.06269081
170	0x861ded31	-2.970268e-35
171	0xbb5773a4	-0.0032875324
172	0x80613010	-8.925285e-39
173	0x3d88616d	0.066592075
174	0xbd045af2	-0.032313295
175	0x3ad0f013	0.0015940688
176	0x3d0a09f5	0.033700902
177	0xbd47fa1b	-0.048822504
178	0x85f6207d	-2.3145663e-35
179	0x895e300b	-2.6744868e-33
180	0x8284a8b4	-1.9492488e-37
181	0x3cbf5196	0.023354333
182	0x84f1f256	-5.6881378e-36
183	0xbd3ea6dc	-0.04654585
184	0xbcc881f1	-0.024476023
185	0x856580f6	-1.07912146e-35
186	0x3d0dfdbe	0.034665816
187	0x84f74d73	-5.8140547e-36
188	0x3d274b79	0.04084346
189	0x8365230d	-6.733729e-37
190	0x80c154d0	-1.7754676e-38
191	0x3d47e42a	0.04880158
192	0xbc0aca7d	-0.0084711285
193	0x3cf55cca	0.029951472
194	0xbd4c13ae	-0.049823456
195	0x801d87b0	-2.711905e-39
196	0x898152ba	-3.1133416e-33
197	0xbcbc63b7	-0.022996766
198	0xbd3c5f4e	-0.045989327
199	0x814b3608	-3.7323977e-38
200	0x3d22fbe7	0.039791014
201	0x80bcd090	-1.7339891e-38
202	0x8386608e	-7.89798e-37
203	0x8032c7b0	-4.663409e-39
204	0x812fc230	-3.2281746e-38
205	0x3dcf3f81	0.10119534
206	0x82c4c7b8	-2.8914245e-37
207	0x83a93ec5	-9.947338e-37
208	0xbd2fce4f	-0.04292136
209	0xbd803c40	-0.06261492
210	0xbcfcd44f	-0.030862955
211	0xbd3c6100	-0.045990944
212	0xbd44d456	-0.04805406
213	0xbcb3fe96	-0.021971982
214	0x807ca120	-1.1445402e-38
215	0xbcde4cfe	-0.027136322
216	0xbd0ba785	-0.034095306
217	0x8408028d	-1.5987894e-36
218	0x3d37c802	0.044868477
219	0x3cfd36d6	0.030909937
220	0x9242faa9	-6.152457e-28
221	0x849d1e6b	-3.6938457e-36
222	0x880c55cf	-4.2230585e-34
223	0xbdb5d2d7	-0.08878105
224	0x814715d0	-3.6566177e-38
225	0xbcd81324	-0.026376314
226	0x81ee48f4	-8.7532075e-38
227	0x81073410	-2.4832937e-38
228	0xbd3b1ee3	-0.045683753
229	0x3d8c8c0d	0.0686265
230	0x912a3c0e	-1.3429141e-28
231	0xbd04d57c	-0.032430157
232	0xbc641683	-0.013921383
233	0xbd733b55	-0.059382755
234	0x80304160	-4.431556e-39
235	0xbd9e1507	-0.077188544
236	0xbe105df4	-0.1409834
237	0xbd125f86	-0.03573563
238	0x81a8bf84	-6.1988265e-38
239	0x892c0966	-2.0708166e-33
240	0x80166f90	-2.060402e-39
241	0xbc0d24aa	-0.008614698
242	0x81f90a50	-9.148295e-38
243	0xbcb287bf	-0.021793244
244	0x84833574	-3.084704e-36
245	0x8c485cd5	-1.5435375e-31
246	0x808be238	-1.2846286e-38
247	0xbcbd8409	-0.023134248
248	0x8050e3e0	-7.428586e-39
249	0x3d3b276e	0.0456919
250	0xbb994cda	-0.004678351
251	0x87e4cf92	-3.4427626e-34
252	0x80adaaa0	-1.594875e-38
253	0x836b75a4	-6.919534e-37
254	0x813b0b40	-3.4354547e-38
255	0x823a1894	-1.3672175e-37

bn_layer.running_mean f4 [256]
0	0x3f1aa8a4	0.60413575
1	0x00f64d98	2.2619367e-38
2	0xbed019ae	-0.40644592
3	0x800729b7	-6.57813e-40
4	0x01b9077e	6.796902e-38
5	0xbe1e9c93	-0.15489416
6	0x3f88d31c	1.0689425
7	0x010eaac6	2.6203805e-38
8	0x01bd24b7	6.948032e-38
9	0x802dd939	-4.210522e-39
10	0x81561fcd	-3.9328408e-38
11	0x81f1c878	-8.8817077e-38
12	0x3e8568c8	0.26056504
13	0x02122df0	1.0739569e-37
14	0xbea268fe	-0.31720728
15	0x819abc91	-5.6841245e-38
16	0x81c67795	-7.2905305e-38
17	0x8108a1e1	-2.5095397e-38
18	0x80a7c47f	-1.5407017e-38
19	0x3f16d19e	0.589136
20	0x8051ed37	-7.523772e-39
21	0x3ee325c7	0.4436476
22	0x3e598e27	0.21245633
23	0x0181614c	4.752673e-38
24	0xbe8fc2e1	-0.28078368
25	0x3f2f9f2c	0.6860225
26	0x012f9e72	3.2256103e-38
27	0x3f77562d	0.9661587
28	0xbf4efc59	-0.808538
29	0x01f26776	8.904522e-38
30	0x0028be19	3.741614e-39
31	0xbe5e85d3	-0.21730737
32	0x002ecdd4	4.29827e-39
33	0x0210eb5b	1.0646993e-37
34	0x8033c0de	-4.752798e-39
35	0xbf67f4f8	-0.9060817
36	0xbdfc9f10	-0.12335026
37	0x00879afc	1.245339e-38
38	0x0239ed68	1.3659786e-37
39	0x001fb36e	2.911268e-39
40	0x3e197e46	0.14989576
41	0xbfdf2fe7	-1.7436494
42	0x01980d82	5.5855364e-38
43	0x01c4fc7e	7.236134e-38
44	0x01a90842	6.2092645e-38
45	0x81884f6c	-5.0072475e-38
46	0xbd454ce7	-0.048169043
47	0x814e324f	-3.787232e-38
48	0xbeeef289	-0.46669415
49	0x019babd5	5.7184574e-38
50	0x81ac9ab9	-6.340484e-38
51	0x01c32140	7.16794e-38
52	0xbe149743	-0.14510827
53	0x8002f080	-2.69946e-40
54	0x821aeb3a	-1.138164e-37
55	0x02110dfd	1.0656932e-37
56	0x3b0bb0f8	0.0021315198
57	0x802ff2ac	-4.403323e-39
58	0x3f771843	0.96521395
59	0x80087693	-7.7722e-40
60	0x3f8d7f08	1.1054392
61	0x01d8eefa	7.9688783e-38
62	0x0122fed8	2.9937542e-38
63	0xbacea38b	-0.0015765292
64	0xbfa2ad16	-1.2709072
65	0x3f93f28b	1.1558393
66	0x3fa93598	1.321948
67	0x01561c61	3.9325953e-38
68	0x8034608a	-4.810077e-39
69	0x3eb6d4c0	0.3570919
70	0x3f3206cd	0.6954163
71	0x3f22b50c	0.63557506
72	0x804161d3	-6.0044e-39
73	0xbf86c9a4	-1.0530286
74	0x3ea246a8	0.3169453
75	0xbda12f78	-0.07870382
76	0x3de3b68a	0.11118801
77	0x3f765052	0.9621631
78	0xbf1b4085	-0.60645324
79	0x82058bcc	-9.811417e-38
80	0x818b0605	-5.1069173e-38
81	0xbcdd0e18	-0.02698426
82	0x3eed0300	0.4629135
83	0x0197e05c	5.579058e-38
84	0x3f62c9d4	0.88589215
85	0xbf028d3c	-0.50996757
86	0x00ebad09	2.1643415e-38
87	0x3f80f2d6	1.0074108
88	0x3fa12c66	1.2591674
89	0x3ef8181a	0.48455888
90	0xbf2c872d	-0.6739376
91	0x813d00fa	-3.4714518e-38
92	0x0135dece	3.3404304e-38
93	0x3f1e78be	0.6190299
94	0x3e2130e5	0.15741308
95	0x3fd4cab4	1.662436
96	0x3f30fd24	0.6913626
97	0x3ea668d9	0.32501867
98	0xbed8ef47	-0.42370054
99	0x010e6ff5	2.6161606e-38
100	0x01bde2cd	6.975308e-38
101	0xbea36754	-0.3191477
102	0xc000c093	-2.0117538
103	0x000b0db2	1.015103e-39
104	0x820efb68	-1.0504662e-37
105	0x3e1638b1	0.14670064
106	0x01eb6abd	8.647853e-38
107	0xbe3c9638	-0.18416679
108	0xbf1257b3	-0.5716507
109	0x3f23fc15	0.6405652
110	0x3f12a739	0.5728641
111	0xbfa37a00	-1.2771606
112	0x81d0ab06	-7.665254e-38
113	0x823ac62e	-1.3721997e-37
114	0xbfe289bd	-1.7698284
115	0x00612f02	8.924906e-39
116	0x3f6a7019	0.915773
117	0xbf6e6367	-0.93120426
118	0x3f601a2b	0.8753993
119	0x3f1956a2	0.59897816
120	0x3f1ed4d7	0.6204352
121	0x3e170434	0.14747697
122	0x3e29e776	0.16592202
123	0x3f8df41d	1.1090122
124	0x3f9ba6f4	1.2160325
125	0xbe4089dd	-0.1880259
126	0x3f6b5ac0	0.9193535
127	0x8082cee2	-1.201283e-38
128	0x3f96b17f	1.1772918
129	0x018523a2	4.8907615e-38
130	0xbf02d10d	-0.51100236
131	0x3f36aa77	0.7135386
132	0x80fa8edc	-2.3010122e-38
133	0x3eb4ca27	0.3531048
134	0x81f71a9d	-9.077166e-38
135	0x3fce89e8	1.6135836
136	0xbf877c1c	-1.058475
137	0xbe889057	-0.26672623
138	0x802c3a4c	-4.061675e-39
139	0x3f41e729	0.7574335
140	0x3f637329	0.88847595
141	0xc00acb8f	-2.1686742
142	0x3eed0e06	0.46299762
143	0x8228e998	-1.2409729e-37
144	0x01dd36d0	8.126123e-38
145	0xbf100fc5	-0.5627406
146	0x015eaf16	4.0900578e-38
147	0x81d75c49	-7.911095e-38
148	0x8058f61b	-8.16981e-39
149	0x01adef0c	6.389318e-38
150	0x01e2b324	8.327634e-38
151	0x3f77dcee	0.96821487
152	0x3effe2aa	0.49977618
153	0x01cf5422	7.6160515e-38
154	0x81ee4f60	-8.754129e-38
155	0x3ff074b3	1.8785614
156	0x3f214801	0.63000494
157	0x80a67063	-1.5285009e-38
158	0xbdeaaebb	-0.114591084
159	0x014ba4ec	3.7403537e-38
160	0x815c4fe1	-4.046493e-38
161	0xbfcb2a11	-1.5872213
162	0x3fabf9a0	1.3435555
163	0x020145ba	9.497434e-38
164	0xc024394b	-2.565997
165	0x811d75a3	-2.8920746e-38
166	0xbfd9500a	-1.6977551
167	0xbeb815c9	-0.3595412
168	0x00410d18	5.974004e-39
169	0x3f93a645	1.1535116
170	0x81634a11	-4.1746455e-38
171	0x3efc1700	0.49236298
172	0x81d8eb9e	-7.968396e-38
173	0xbcddb954	-0.02706591
174	0x3e7e9d13	0.24864607
175	0x3f12afb3	0.57299346
176	0x3f9d3070	1.2280407
177	0xbf0ed685	-0.5579608
178	0x807bc2e8	-1.1365685e-38
179	0x00f7017f	2.2683904e-38
180	0x81a5fc8b	-6.097381e-38
181	0x3e5082fb	0.20362465
182	0x812678cb	-3.057605e-38
183	0xbe565bfa	-0.20933524
184	0xbe146140	-0.14490223
185	0x80849fd1	-1.2179617e-38
186	0x3fd627da	1.6730912
187	0x01ce84a1	7.586276e-38
188	0x3f69e39d	0.91362935
189	0x024b5ec3	1.494128e-37
190	0x821647e7	-1.1040894e-37
191	0x3f2bf1a1	0.6716557
192	0x3f01740b	0.5056769
193	0x3ea7d3a5	0.3277866
194	0xbf171eae	-0.5903119
195	0x82507f57	-1.5317971e-37
196	0x01b13f80	6.511065e-38
197	0x3f0cf55f	0.55061907
198	0xbde84b7a	-0.11342521
199	0x820b676b	-1.0241787e-37
200	0x3f981c24	1.1883588
201	0x81feffd7	-9.3671976e-38
202	0x014329ad	3.5845744e-38
203	0x80fa30cc	-2.2976379e-38
204	0x0131f5d4	3.268614e-38
205	0x3e183baa	0.1486651
206	0x8241152b	-1.4185476e-37
207	0x815c34c5	-4.0445479e-38
208	0xbeca11bc	-0.39466655
209	0x3f069f01	0.5258637
210	0xbfa5860d	-1.2931534
211	0xbe53ddef	-0.2069013
212	0x3f3cb06f	0.73706716
213	0x3fc310ef	1.5239543
214	0x820d1f9d	-1.0368117e-37
215	0x3f2cf808	0.67565966
216	0xbf7f8958	-0.99818945
217	0x0191fc6a	5.3626784e-38
218	0x3ea7ae2a	0.32750064
219	0x3f10045a	0.5625664
220	0x009729f9	1.3882217e-38
221	0x014376a1	3.5900956e-38
222	0x003403c5	4.776798e-39
223	0xbf494d8d	-0.7863396
224	0x8137bb0a	-3.3745986e-38
225	0x3f87acda	1.0599625
226	0x8191d4eb	-5.357011e-38
227	0x0174e65d	4.4981e-38
228	0x3fc40c5d	1.5316273
229	0xbce36af6	-0.027760964
230	0x01af537c	6.440464e-38
231	0x3f90fb79	1.1326743
232	0x3fe78412	1.808718
233	0x3f6ae5ae	0.91756713
234	0x02169f44	1.1065967e-37
235	0x3f213d3b	0.62984055
236	0x3e549aa3	0.20762114
237	0x3f6121e4	0.8794234
238	0x019521ad	5.478228e-38
239	0x80ef36a9	-2.1968292e-38
240	0x80054061	-4.82272e-40
241	0x3fb42ca9	1.4076129
242	0x00e00a81	2.0574919e-38
243	0xbeaf65c6	-0.34257334
244	0x822d66e2	-1.2739559e-37
245	0x01c46987	7.2150453e-38
246	0x0065c4fc	9.34605e-39
247	0x3d83fd58	0.06444806
248	0x0053dea8	7.70222e-39
249	0x3f00035d	0.5000513
250	0xbe7e267a	-0.24819365
251	0x0089686b	1.2618921e-38
252	0x81a4be52	-6.051718e-38
253	0x00daca88	2.0092793e-38
254	0x8125b001	-3.043199e-38
255	0x81f14b73	-8.863768e-38

bn_layer.running_var f4 [256]
0	0x3f2c6238	0.6733737
1	0x00000004	6e-45
2	0x3f085938	0.53261137
3	0x00000004	6e-45
4	0x00000004	6e-45
5	0x3f471a3c	0.77774405
6	0x3fe6b2a1	1.8023263
7	0x00000004	6e-45
8	0x00000004	6e-45
9	0x00000004	6e-45
10	0x00000004	6e-45
11	0x00000004	6e-45
12	0x3e4b2aad	0.19840498
13	0x00000004	6e-45
14	0x3efa34f2	0.4886852
15	0x00000004	6e-45
16	0x00000004	6e-45
17	0x00000004	6e-45
18	0x00000004	6e-45
19	0x3e517417	0.20454441
20	0x00000004	6e-45
21	0x3f287c40	0.6581459
22	0x3e1cb26e	0.1530244
23	0x00000004	6e-45
24	0x3fe47604	1.7848516
25	0x3f28dd97	0.6596312
26	0x00000004	6e-45
27	0x3f6e9896	0.9320158
28	0x3f4a88a6	0.7911476
29	0x00000004	6e-45
30	0x00000004	6e-45
31	0x3ed534bb	0.41641793
32	0x00000004	6e-45
33	0x00000004	6e-45
34	0x00000004	6e-45
35	0x400ec621	2.2308428
36	0x3d97c2df	0.074102156
37	0x00000004	6e-45
38	0x00000004	6e-45
39	0x00000004	6e-45
40	0x3f350f90	0.7072687
41	0x3f026daf	0.50948614
42	0x00000004	6e-45
43	0x00000004	6e-45
44	0x00000004	6e-45
45	0x00000004	6e-45
46	0x3e563307	0.20917903
47	0x00000004	6e-45
48	0x3f3097c9	0.68981606
49	0x00000004	6e-45
50	0x00000004	6e-45
51	0x00000004	6e-45
52	0x3e6d09ab	0.2314822
53	0x00000004	6e-45
54	0x00000004	6e-45
55	0x00000004	6e-45
56	0x3b9d9650	0.0048091784
57	0x00000004	6e-45
58	0x4037d557	2.8723962
59	0x00000004	6e-45
60	0x40646910	3.5689125
61	0x00000004	6e-45
62	0x00000004	6e-45
63	0x3f693152	0.9109088
64	0x3f27b1bb	0.6550557
65	0x3fa304b5	1.2735811
66	0x3e429ba7	0.19004689
67	0x00000004	6e-45
68	0x00000004	6e-45
69	0x3e955d85	0.29172912
70	0x3f33eca3	0.70282954
71	0x3fdde742	1.7336199
72	0x00000004	6e-45
73	0x3ef663a2	0.4812289
74	0x3ec45bf7	0.38351414
75	0x3d69c972	0.05707688
76	0x3f7f1fe4	0.99658036
77	0x3f29023a	0.6601902
78	0x3f1621a9	0.5864511
79	0x00000004	6e-45
80	0x00000004	6e-45
81	0x40321e8d	2.7831147
82	0x3f263f49	0.64940315
83	0x00000004	6e-45
84	0x3e33f7f7	0.1757506
85	0x4014ce7e	2.3251033
86	0x00000004	6e-45
87	0x3ec4d92e	0.38446945
88	0x3ef40162	0.47657305
89	0x410d1776	8.818228
90	0x3f1c2d09	0.6100622
91	0x00000004	6e-45
92	0x00000004	6e-45
93	0x3f98fa6f	1.1951426
94	0x3f15e712	0.5855571
95	0x3f97a3ec	1.18469
96	0x3e88e451	0.26736692
97	0x3e8f607a	0.28003293
98	0x3f3e57ad	0.7435253
99	0x00000004	6e-45
100	0x00000004	6e-45
101	0x3f99ced6	1.2016246
102	0x3f1339c0	0.57509995
103	0x00000004	6e-45
104	0x00000004	6e-45
105	0x403f8ce3	2.992974
106	0x00000004	6e-45
107	0x400d75a3	2.210305
108	0x3f1dc73f	0.6163215
109	0x40a01d09	5.0035443
110	0x3de67a0f	0.112537496
111	0x3ef5b54a	0.47989875
112	0x00000004	6e-45
113	0x00000004	6e-45
114	0x3f7d2762	0.9888822
115	0x00000004	6e-45
116	0x3f0dd08a	0.5539633
117	0x3f59f335	0.8513673
118	0x3f10b1de	0.56521404
119	0x3fb6bf87	1.42772
120	0x3eb16266	0.34645385
121	0x3e5d3a0c	0.21604174
122	0x3f96641f	1.1749305
123	0x3f177c59	0.59174114
124	0x3ec96210	0.39332628
125	0x3ea85775	0.32879224
126	0x3f88e32c	1.0694327
127	0x00000004	6e-45
128	0x40065963	2.0992057
129	0x00000004	6e-45
130	0x3f11d225	0.5696128
131	0x3e36d3b3	0.17854194
132	0x00000004	6e-45
133	0x3d5b5c49	0.053554807
134	0x00000004	6e-45
135	0x3f07ffbf	0.5312461
136	0x3f5cb716	0.86216867
137	0x3d7bfbdc	0.06151949
138	0x00000004	6e-45
139	0x3e4a4ee7	0.19756661
140	0x3e8dfc7b	0.2773169
141	0x3f6c838b	0.9238822
142	0x3f26d031	0.65161425
143	0x00000004	6e-45
144	0x00000004	6e-45
145	0x3f86a56e	1.0519235
146	0x00000004	6e-45
147	0x00000004	6e-45
148	0x00000004	6e-45
149	0x00000004	6e-45
150	0x00000004	6e-45
151	0x3f0a2aa2	0.539713
152	0x3f947869	1.1599246
153	0x00000004	6e-45
154	0x00000004	6e-45
155	0x3efcc792	0.4937101
156	0x40d2fb99	6.5932126
157	0x00000004	6e-45
158	0x3f865fd9	1.0498
159	0x00000004	6e-45
160	0x00000004	6e-45
161	0x3ee48d8d	0.44639245
162	0x3e828e6d	0.25499287
163	0x00000004	6e-45
164	0x3f1febe9	0.62469345
165	0x00000004	6e-45
166	0x3f03daa3	0.5150549
167	0x3f2177b8	0.630733
168	0x00000004	6e-45
169	0x3e48f22a	0.19623628
170	0x00000004	6e-45
171	0x3e88f038	0.26745772
172	0x00000004	6e-45
173	0x3ec05ce3	0.37570867
174	0x3dcf6c3b	0.10128065
175	0x4010f510	2.2649574
176	0x3f8a53d7	1.0806836
177	0x3fdcca9e	1.7249334
178	0x00000004	6e-45
179	0x00000004	6e-45
180	0x00000004	6e-45
181	0x3fa95783	1.3229831
182	0x00000004	6e-45
183	0x3dfba11d	0.12286589
184	0x3e852e45	0.26011863
185	0x00000004	6e-45
186	0x3e9fd5eb	0.31217894
187	0x00000004	6e-45
188	0x3e6146ec	0.21999711
189	0x00000004	6e-45
190	0x00000004	6e-45
191	0x40f48128	7.640766
192	0x403ea053	2.9785354
193	0x3eb5770c	0.35442388
194	0x3f773121	0.9655934
195	0x00000004	6e-45
196	0x00000004	6e-45
197	0x3f4874fc	0.78303504
198	0x407a3cf9	3.9099715
199	0x00000004	6e-45
200	0x3f4fbf76	0.8115152
201	0x00000004	6e-45
202	0x00000004	6e-45
203	0x00000004	6e-45
204	0x00000004	6e-45
205	0x3e0db4cb	0.13838498
206	0x00000004	6e-45
207	0x00000004	6e-45
208	0x3fce985e	1.6140249
209	0x3f0b8fc2	0.5451623
210	0x3f64afdb	0.89330834
211	0x3fba28db	1.4543718
212	0x3ed6a03d	0.41919127
213	0x3e64418f	0.22290634
214	0x00000004	6e-45
215	0x3e55871f	0.20852326
216	0x3e991ab7	0.29903194
217	0x00000004	6e-45
218	0x3e0c634a	0.13709751
219	0x40dc6e3c	6.8884563
220	0x00000004	6e-45
221	0x00000004	6e-45
222	0x00000004	6e-45
223	0x3f92fc4a	1.1483243
224	0x00000004	6e-45
225	0x3f0ccb34	0.54997563
226	0x00000004	6e-45
227	0x00000004	6e-45
228	0x3e8b4c25	0.2720653
229	0x3e3ccae0	0.18436766
230	0x00000004	6e-45
231	0x3f7822fb	0.96928376
232	0x3eecb02f	0.46228167
233	0x3efa00a3	0.4882861
234	0x00000004	6e-45
235	0x3fb8b4e8	1.4430208
236	0x3f215731	0.6302367
237	0x3f0b7ad2	0.54484284
238	0x00000004	6e-45
239	0x00000004	6e-45
240	0x00000004	6e-45
241	0x3eb78e22	0.35850626
242	0x00000004	6e-45
243	0x3fde697e	1.7375944
244	0x00000004	6e-45
245	0x00000004	6e-45
246	0x00000004	6e-45
247	0x3de14a10	0.110004544
248	0x00000004	6e-45
249	0x3f8dfc83	1.1092685
250	0x3edb2a52	0.42805725
251	0x00000004	6e-45
252	0x00000004	6e-45
253	0x00000004	6e-45
254	0x00000004	6e-45
255	0x00000004	6e-45

fc2.weight f4 [256, 258]
0	0x3c7563ad	0.014977378
1	0x0004b180	4.31017e-40
2	0xbbed7a93	-0.007247278
3	0x0026cd80	3.563468e-39
4	0x8032bf60	-4.660427e-39
5	0x3c1b59ee	0.00948189
6	0xbbc99f6e	-0.0061530387
7	0x81649e48	-4.1990547e-38
8	0x81c10fac	-7.091949e-38
9	0x0023bdf0	3.282379e-39
10	0x00417a50	6.013185e-39
11	0x89b42486	-4.336777e-33
12	0xbc01d8dd	-0.007925239
13	0x003757a0	5.082386e-39
14	0xbb073992	-0.002063368
15	0x800589d0	-5.08615e-40
16	0x0638e617	3.4775597e-35
17	0x804053a0	-5.907471e-39
18	0x8015b0d0	-1.991974e-39
19	0x3c8a795c	0.016903572
20	0x803a2f70	-5.343476e-39
21	0x3d01fef1	0.03173727
22	0xbd3e60b9	-0.04647896
23	0x80389890	-5.197517e-39
24	0xbd062a50	-0.032755196
25	0xbb9c6f8c	-0.0047740396
26	0x803aad40	-5.388609e-39
27	0x3ab4c00d	0.0013790146
28	0xbbee3af9	-0.0072702137
29	0x8023aeb0	-3.276908e-39
30	0x85bf9b88	-1.8018687e-35
31	0x3d3ef8f6	0.046624146
32	0x81d1e24c	-7.7099195e-38
33	0x001fdb40	2.925552e-39
34	0x802baf80	-4.011884e-39
35	0x3c803644	0.015650876
36	0xbd4e7747	-0.05040672
37	0x80126690	-1.689831e-39
38	0x002feb90	4.400772e-39
39	0x0029cdc0	3.839065e-39
40	0x3d21412c	0.039368793
41	0xbc1bac9a	-0.009501601
42	0x85d23667	-1.976829e-35
43	0x802680e0	-3.53598e-39
44	0x80383870	-5.163034e-39
45	0x00200920	2.94201e-39
46	0x3c8e2ca0	0.017355263
47	0x029e9121	2.3299313e-37
48	0xbcf79076	-0.030220252
49	0x009135c0	1.3335429e-38
50	0x802ad120	-3.932111e-39
51	0x001193f0	1.614273e-39
52	0x3cf674d9	0.030085014
53	0x8427af08	-1.9711126e-36
54	0x800f19b0	-1.386747e-39
55	0x83a16208	-9.485236e-37
56	0xb8db40f0	-0.00010454829
57	0x80d8b310	-1.9900703e-38
58	0xbc31330a	-0.010815391
59	0x0007d3c0	7.1881e-40
60	0xb99229e0	-0.0002787849
61	0x800f5590	-1.408226e-39
62	0x04164fea	1.766911e-36
63	0xbc42a405	-0.011879926
64	0xbc5b6197	-0.013389966
65	0xbcea6e42	-0.028617028
66	0x3c9e1707	0.01929809
67	0x8004a0c0	-4.25008e-40
68	0x035c0ad2	6.466461e-37
69	0xbd2251ad	-0.039628673
70	0xbcab7b10	-0.020932704
71	0x3c906e42	0.0176307
72	0x01e77f50	8.5038683e-38
73	0xbb6bd4b3	-0.0035984933
74	0x3a67aced	0.00088377186
75	0xbd59cc89	-0.053173576
76	0xbd02909e	-0.0318762
77	0x3d1c8282	0.0382104
78	0x3a73d789	0.00093018316
79	0x92ec2b1f	-1.4904324e-27
80	0x0101cc58	2.3840167e-38
81	0x3c3b1e08	0.011420734
82	0x3cf7b166	0.030235957
83	0x05c491dd	1.8485333e-35
84	0xbd56072d	-0.052252937
85	0x3c19317b	0.009350176
86	0x00125900	1.684966e-39
87	0xbbc33c37	-0.005958106
88	0xbc5500b5	-0.013000657
89	0x3c8df910	0.017330676
90	0xbd2aa21e	-0.041658513
91	0x8032fe50	-4.683005e-39
92	0x8cb8ad29	-2.8453906e-31
93	0x3d1a2246	0.037630342
94	0xbdca3c7f	-0.0987482
95	0x3d563f49	0.052306447
96	0xbe0c4169	-0.13696827
97	0xbc0d7968	-0.008634903
98	0xbd8c865e	-0.06861566
99	0x002ba0b0	4.00657e-39
100	0x00097a90	8.70487e-40
101	0x3c7a2426	0.0152674075
102	0xbc2e6232	-0.010643529
103	0x8129fa90	-3.1220167e-38
104	0x0922b825	1.9586625e-33
105	0xbb29af4b	-0.0025891836
106	0x80173650	-2.1317e-39
107	0x3c746070	0.014915571
108	0x3aa5724f	0.0012622568
109	0x3be1f477	0.0068955976
110	0x3d3d4a72	0.046213575
111	0x3ca796e6	0.020457696
112	0x807e1a70	-1.1580757e-38
113	0x00574c70	8.017109e-39
114	0xbce0b6db	-0.027430942
115	0x00597960	8.2169e-39
116	0xbc8c9c8e	-0.017164495
117	0x387ea431	6.0711234e-05
118	0x3c18c896	0.009325167
119	0xbcbc0595	-0.02295188
120	0x3c47d992	0.012197869
121	0x3ced95c6	0.029002082
122	0xbc109ffb	-0.008827205
123	0x3af8fcfd	0.0018996295
124	0x3d085477	0.033283677
125	0x3b5bc882	0.003353626
126	0xbd1a337e	-0.037646763
127	0x81b5de30	-6.680772e-38
128	0x3c1a299b	0.009409334
129	0x00453920	6.357142e-39
130	0x3b2e71ea	0.002661819
131	0x3dc694f9	0.09696383
132	0x800c5c20	-1.135074e-39
133	0x3c3592b2	0.011082338
134	0x846da2b4	-2.7933926e-36
135	0xbd5c7b73	-0.053828668
136	0xbc971081	-0.018440487
137	0x3d37ef10	0.044905722
138	0x0019a330	2.354428e-39
139	0xbd2a7e18	-0.04162416
140	0xbbaf4c8f	-0.0053497027
141	0x3d132839	0.03592703
142	0xbb273f7d	-0.002552002
143	0x801a2ad0	-2.403081e-39
144	0x861e82d5	-2.9812617e-35
145	0x3cc3b9f5	0.023892382
146	0x89c30a12	-4.6954012e-33
147	0x8037a5e0	-5.110457e-39
148	0x00014b40	1.1883e-40
149	0x001ad170	2.462855e-39
150	0x800300c0	-2.75776e-40
151	0xbe163f55	-0.14672597
152	0xbcb99e29	-0.022658424
153	0x8031d620	-4.576753e-39
154	0x00412c70	5.985248e-39
155	0x3d5939c9	0.053033624
156	0x3c4519dd	0.012030092
157	0x11a202d8	2.5560846e-28
158	0x3ca8a082	0.020584349
159	0x005b1d20	8.367478e-39
160	0x0015b5b0	1.993723e-39
161	0xbb859d53	-0.0040775924
162	0xbdbd2543	-0.09235623
163	0x801b23e0	-2.492428e-39
164	0xbc673f5c	-0.014114227
165	0x10a21631	6.3931925e-29
166	0xbcc6581b	-0.024211934
167	0xbd36fe88	-0.044676334
168	0x97ebb108	-1.5231208e-24
169	0x3d01ed23	0.03172029
170	0x054e6a30	9.705577e-36
171	0xb9868c8d	-0.0002566319
172	0x8043db70	-6.231698e-39
173	0x3d8ca75b	0.06867858
174	0xbc3b6de8	-0.011439778
175	0xbc1a1eef	-0.009406789
176	0xba810a39	-0.0009844966
177	0x3c1f27a0	0.009714037
178	0x84eb9e98	-5.539388e-36
179	0x8760e2ca	-1.6918534e-34
180	0x0005f5bc	5.4733e-40
181	0xbb2d8354	-0.0026475983
182	0x03d9bd1f	1.2797534e-36
183	0xbbfda0b7	-0.007740106
184	0xbd0ddead	-0.03463619
185	0x02569b32	1.5766776e-37
186	0xbd42b21e	-0.047533147
187	0x829e42ec	-2.3254425e-37
188	0xbbffc86b	-0.007805874
189	0x8241c0e6	-1.423476e-37
190	0x003c17c0	5.51865e-39
191	0x3bed4e9c	0.007242037
192	0xbc61ea2a	-0.013788739
193	0x3c8d600b	0.01725771
194	0xbb0de16e	-0.002164926
195	0x80104dd0	-1.497282e-39
196	0x090ed61a	1.7193298e-33
197	0x3c9c6751	0.019092234
198	0x3c0fdb83	0.008780363
199	0x00429420	6.11428e-39
200	0x3bbc462c	0.00574567
201	0x80067c30	-5.95563e-40
202	0x01aa2fdc	6.251681e-38
203	0x001ca800	2.631661e-39
204	0x001fd450	2.923064e-39
205	0xbd93227e	-0.07184313
206	0x01c851a0	7.3585523e-38
207	0x00331fe0	4.695045e-39
208	0x3bebf581	0.007200897
209	0xbd4c092c	-0.049813434
210	0xbc2c99bc	-0.0105347
211	0xbbef85e9	-0.0073096645
212	0xbc0ce994	-0.008600611
213	0x3ce67cab	0.028135618
214	0x0014c750	1.90821e-39
215	0xbe002ef2	-0.12517908
216	0x3d08b139	0.033372138
217	0x81aad780	-6.2757365e-38
218	0x3d2ddceb	0.042447012
219	0x3b646335	0.003484917
220	0x910be243	-1.1034889e-28
221	0x82e5f01a	-3.3786337e-37
222	0x8712a799	-1.1033072e-34
223	0x3cf87285	0.030328045
224	0x00185490	2.234387e-39
225	0xbcd318cc	-0.02576866
226	0x80b0ed70	-1.6248224e-38
227	0x001418b0	1.845566e-39
228	0xbd3d7c1e	-0.046260945
229	0xbd3c4ef0	-0.04597372
230	0x8ff44327	-2.4086124e-29
231	0xbcb1f380	-0.021722555
232	0x3cc27a92	0.023740087
233	0xbb7c754b	-0.003852206
234	0x0035d000	4.941898e-39
235	0xbc926be3	-0.01787371
236	0x3ccda308	0.025102153
237	0x383968ab	4.4204917e-05
238	0x80337780	-4.726479e-39
239	0x089b0364	9.32952e-34
240	0x00346a00	4.813471e-39
241	0x3d636275	0.055513818
242	0x80c3f730	-1.7996596e-38
243	0x3b731aad	0.0037094757
244	0x03fdaa72	1.4909136e-36
245	0x0a491195	9.681105e-33
246	0x8045ea80	-6.420772e-39
247	0x3c29c0ff	0.010360955
248	0x8018c950	-2.276269e-39
249	0x3a9ee82f	0.001212364
250	0x3d330f39	0.04371569
251	0x05e5a016	2.1593863e-35
252	0x00312b00	4.515365e-39
253	0x81fc22c0	-9.2620044e-38
254	0x00348500	4.823157e-39
255	0x002a2c20	3.87292e-39
