checkpoint_actor_1.pth (torch_old, 163772 bytes, 10 tensors)

fc1.weight f4 [256, 24]
0	0xbcb3f773	-0.021968579
1	0xbdc8bc9b	-0.09801599
2	0xbd25aca6	-0.040447854
3	0x3d1fbb1d	0.038996805
4	0x3cd24154	0.025665917
5	0xbe13f895	-0.14450295
6	0x3d22379b	0.03960381
7	0x3c9cf6ef	0.019160716
8	0xbc0589e1	-0.008150549
9	0xbd9c5ff9	-0.07635493
10	0x3c281f70	0.0102614015
11	0x3d984a2e	0.07436024
12	0xbdb31696	-0.08744542
13	0xbe05da77	-0.13071619
14	0xbbf84c31	-0.007577442
15	0x3da5c60b	0.08094414
16	0xbcb402b1	-0.02197394
17	0xbd601c5a	-0.05471454
18	0x3cc365aa	0.023852188
19	0x3d86f3f2	0.065894976
20	0x3d1c5ea5	0.038176198
21	0xbde272db	-0.11057063
22	0xbc9be974	-0.019032218
23	0x3d9ac698	0.0755741
24	0xbc31da13	-0.010855216
25	0x3db2fae8	0.08739263
26	0xbd14f86f	-0.036369737
27	0x3c81c0f2	0.015839074
28	0x3dfe02c8	0.12402874
29	0x3da9d013	0.0829164
30	0x3d49a648	0.049230844
31	0xbc95c26f	-0.01828119
32	0x3c1beead	0.009517354
33	0x3dde6161	0.10858417
34	0x3c5a15ea	0.013310889
35	0xbd749db7	-0.05972072
36	0x3d2cb96a	0.042169012
37	0x3ce19956	0.027538937
38	0xbc65d472	-0.014027702
39	0xbcc88704	-0.024478443
40	0xbcb83c90	-0.022489816
41	0x3dde4da7	0.10854655
42	0x3c9f7f34	0.019469835
43	0xbcea914c	-0.028633736
44	0xbdbae217	-0.091251545
45	0x3e494820	0.1965642
46	0xbc59ee0f	-0.0133013865
47	0xbdce3934	-0.100695044
48	0x3b80941e	0.003923907
49	0xbe07c877	-0.13260065
50	0x3d50bd26	0.050961636
51	0x3c726f38	0.014797024
52	0xbd4a5bde	-0.049404018
53	0x3dc20bbc	0.094748944
54	0xbd3d0cd2	-0.046154805
55	0x3cefdaa2	0.029279057
56	0x3d71b496	0.05901011
57	0xbdb2a8f4	-0.087236315
58	0xbb4a6f10	-0.0030888952
59	0x3d336b3f	0.04380345
60	0xbd373cae	-0.044735603
61	0x3e27d283	0.16388898
62	0x3c497bc9	0.012297579
63	0xbd5307e9	-0.051521216
64	0x3d99f2ef	0.07517039
65	0xbc9d2040	-0.019180417
66	0x3c8e9d4c	0.01740899
67	0x3d182347	0.037143018
68	0xbcb13e01	-0.021636011
69	0x3e75192b	0.23935382
70	0xbc697432	-0.0142488945
71	0xbd5d9667	-0.054098513
72	0x3c12fcd8	0.008971415
73	0xbcb81dbc	-0.022475116
74	0xbc9249c0	-0.017857432
75	0xbd404a3e	-0.046945803
76	0x3cc47840	0.02398312
77	0xbd459645	-0.04823901
78	0x3b9f9dca	0.004871105
79	0xbe0cfe39	-0.13768853
80	0xbc03a3cf	-0.0080346605
81	0xbd0a2829	-0.033729706
82	0xbb936f9a	-0.004499388
83	0xbdc7417f	-0.09729289
84	0xbce6ceff	-0.028174875
85	0xbdab2532	-0.08356704
86	0xbcbabc4e	-0.022794869
87	0xbe0aeea9	-0.13567604
88	0xbcfac9f6	-0.03061388
89	0xbdcb82cf	-0.09937059
90	0xbd0fce3a	-0.035108782
91	0x3c530b87	0.012881166
92	0x3a922b83	0.0011151884
93	0x3d933a7e	0.07188891
94	0xbd187186	-0.03721764
95	0xbb0fa8da	-0.0021920712
96	0xbd08f934	-0.033440784
97	0xbe099f43	-0.1343966
98	0x3d54812e	0.051881008
99	0x3cc88d0a	0.024481315
100	0xbb4727cb	-0.0030388709
101	0xbe19e6fa	-0.15029517
102	0x3d7a6060	0.061127067
103	0x3d994907	0.07484632
104	0x3cc1828e	0.023621824
105	0xbd98ffc8	-0.074706614
106	0xbd0a305f	-0.033737537
107	0x3c095101	0.008381129
108	0x3d96998f	0.07353508
109	0xbe07a9d4	-0.13248378
110	0x3d253247	0.04033115
111	0x3dc8bb5a	0.098013595
112	0x3d8cd8f5	0.06877319
113	0xbd3754cf	-0.044758614
114	0xbd081f18	-0.03323278
115	0x3dcd3a72	0.10020913
116	0x3ce9a654	0.028521694
117	0xbd9f9e1d	-0.077938296
118	0x3c88cf19	0.016700314
119	0x3d4799e8	0.04873076
120	0xbe2501ff	-0.16114043
121	0x3cbcf0c1	0.02306402
122	0xbbc35a12	-0.005961665
123	0xbcf3de2f	-0.029769031
124	0x3aced0e9	0.0015778813
125	0xbc9efb41	-0.019406917
126	0xbd2555f4	-0.040365174
127	0xbd328439	-0.04358313
128	0xbe17c6b0	-0.14821887
129	0x3da009fe	0.07814406
130	0xbd5ab0d7	-0.053391304
131	0xbd351548	-0.04420975
132	0xbc999097	-0.018745704
133	0xbd8ab5a3	-0.06772926
134	0xbba03195	-0.004888723
135	0xbc907062	-0.017631713
136	0xbdd63091	-0.10458482
137	0x3bb86c12	0.0056281174
138	0xbba424a2	-0.00500925
139	0x3cc99d46	0.024611127
140	0xbd1888d2	-0.037239857
141	0xbd4bbc04	-0.049739853
142	0xbd1056a3	-0.035238873
143	0xb95d8ed8	-0.00021129416
144	0xbd57b065	-0.052658457
145	0x3cc0a419	0.023515748
146	0xbd23a89d	-0.039955724
147	0xbbf56a46	-0.0074894754
148	0x3d872559	0.065989204
149	0xbd73761e	-0.059438817
150	0x3d6fac47	0.058513906
151	0xbcad26dc	-0.021136694
152	0x3bfe8959	0.007767838
153	0x3c4dfe81	0.0125728855
154	0xbcffa4b9	-0.031206476
155	0xbd06f775	-0.032950837
156	0x3da9c620	0.082897425
157	0xbe014eea	-0.1262776
158	0x3c9d6ffa	0.019218434
159	0xbdbb4211	-0.091434605
160	0xbce838e0	-0.028347433
161	0xbd98b29d	-0.07455943
162	0xbd2fbcae	-0.04290455
163	0xbc90b7b4	-0.017665721
164	0xbdadb2e3	-0.084813856
165	0xbdc20ac9	-0.09474713
166	0x3ce9cd99	0.02854042
167	0xbcc6f7c8	-0.024288073
168	0x3d32f056	0.043686233
169	0xbd765931	-0.060143653
170	0xbd5ea1cd	-0.054353524
171	0x3bbd520b	0.0057776025
172	0xbdc0dfaf	-0.09417664
173	0xbdfd2ec6	-0.12362437
174	0x3d474008	0.04864505
175	0x3c3d01b5	0.0115360515
176	0xbd0ef360	-0.03490007
177	0x3d6198c2	0.05507732
178	0x3cc875e4	0.024470277
179	0x3b6db20f	0.0036269461
180	0xbd506990	-0.050881922
181	0xbd34daf6	-0.04415413
182	0x3d83a7c4	0.06428483
183	0xbc0d4735	-0.008622934
184	0x3d9e23a0	0.07721639
185	0xbd117938	-0.035515994
186	0xbc1ac56c	-0.009446483
187	0x3bce5ce2	0.0062976936
188	0xbd5885e8	-0.052862078
189	0xbd572c18	-0.052532285
190	0x3d20ce49	0.03925923
191	0xbcb1c35e	-0.021699604
192	0xba98740a	-0.0011631262
193	0x3cc2b45c	0.023767643
194	0x3cbf9439	0.023386108
195	0xbd83874d	-0.06422291
196	0x3d39dfe4	0.045379534
197	0x3e1889bf	0.14896296
198	0xbc8d1b17	-0.017224832
199	0xbca8c3fe	-0.020601269
200	0xbcee513c	-0.02909147
201	0xbbdaf601	-0.006682158
202	0xbc971072	-0.018440459
203	0xbdf22d72	-0.11825074
204	0x3d7c7526	0.06163516
205	0x3de0b933	0.10972824
206	0x3d5d7c7a	0.05407379
207	0xbd4d71c3	-0.05015732
208	0x3d8f68e6	0.0700243
209	0xbdc99997	-0.09843748
210	0xbd1adf14	-0.0378104
211	0xbcde143f	-0.027109263
212	0x3d3584ea	0.04431621
213	0x3d6e2bc9	0.058147226
214	0x3d447cdd	0.04797064
215	0x3d1508ef	0.036385473
216	0x3c7aac0b	0.015299807
217	0xbd900e17	-0.070339374
218	0xbceef848	-0.029171124
219	0xbd358f08	-0.04432586
220	0x3ca266ad	0.01982435
221	0x3d098832	0.03357715
222	0x3c7a9d84	0.015296344
223	0xbcde6456	-0.027147453
224	0x3c6f2287	0.014595634
225	0xbdc36822	-0.09541346
226	0xbd57fdcf	-0.052732285
227	0xbc28f35a	-0.010311926
228	0x3dfe6a13	0.12422576
229	0x3e12e724	0.14345986
230	0x3c43a0d9	0.011940205
231	0xbddb6b8c	-0.10713872
232	0x3dbc0b13	0.091818
233	0xbcd40d84	-0.025885351
234	0xbba3320d	-0.0049803318
235	0xbc36eef5	-0.01116537
236	0x3d0e4f83	0.034743797
237	0x3d86fdf3	0.06591406
238	0x3d07649f	0.033054944
239	0x3d9cb605	0.07651905
240	0x3d36197d	0.0444579
241	0x3d097e3a	0.033567645
242	0x3c0c8b26	0.008578097
243	0xbbe22145	-0.0069009387
244	0x3de8bc35	0.11364023
245	0xbd00675d	-0.031348575
246	0xbc1d08c2	-0.009584608
247	0xbca4a4a7	-0.020098044
248	0xbb9ddaf0	-0.004817359
249	0xbdb657e1	-0.0890348
250	0xbcf1f74f	-0.029536871
251	0xbcb60c35	-0.022222618
252	0x3d855e1d	0.06512091
253	0x3d8a6ff4	0.067596346
254	0x3c3cd662	0.011525722
255	0xbc80b89d	-0.01571303

fc1.bias f4 [256]
0	0xbe259b12	-0.16172436
1	0x3d1c8f72	0.038222738
2	0xbd261793	-0.040549826
3	0x3e1e1eba	0.15441409
4	0xbe4fbc01	-0.20286562
5	0x3be03ef8	0.006843444
6	0x3db848be	0.089982495
7	0x3cd912cd	0.026498223
8	0xbd63b22f	-0.05558985
9	0x3e440105	0.19141014
10	0xbe223d71	-0.1584375
11	0x3e42a84d	0.19009514
12	0x3d639385	0.055560607
13	0x3dc70fc8	0.09719807
14	0x3e135e06	0.14391336
15	0x3ca604e4	0.020266004
16	0x3cb14f8b	0.021644374
17	0xbd29a4d2	-0.04141695
18	0xbe3d9e5b	-0.18517439
19	0x3db0183b	0.085983716
20	0x3e1c56ce	0.15267488
21	0x3daecba8	0.08534938
22	0xbd027737	-0.031851973
23	0xbe3b1652	-0.18270233
24	0xbb5cbee8	-0.0033683125
25	0x3d5936b0	0.05303067
26	0xbe239c14	-0.15977508
27	0x3e31c1bc	0.1735906
28	0xbbb01109	-0.0053731245
29	0x3d6401ba	0.05566571
30	0x3e386daa	0.18010584
31	0x3db57ae4	0.0886133
32	0xbde28725	-0.11060933
33	0x3d9a2c09	0.0752793
34	0x3df5d415	0.12003342
35	0x3dd08cba	0.101830915
36	0xbdc4667b	-0.09589859
37	0x3ca9e85a	0.020740677
38	0xbe162fd5	-0.14666684
39	0xbcbbdb22	-0.02293164
40	0xbe110b11	-0.14164378
41	0x3def0413	0.11670699
42	0x3e4c80f3	0.19971065
43	0xbe4a6dd1	-0.19768454
44	0xbdc3523b	-0.095371686
45	0xbdb0d2c1	-0.08633948
46	0xbe125ca4	-0.14293152
47	0x3e3e335f	0.18574284
48	0xbe217534	-0.15767366
49	0xbdda8eae	-0.10671745
50	0xbe2da62c	-0.16957921
51	0xba345d1a	-0.00068803283
52	0xbe1ab2c0	-0.1510725
53	0xbe0ccfc3	-0.1375113
54	0x3e4fd338	0.20295417
55	0x3dbacff4	0.09121695
56	0x3db15bb0	0.08660066
57	0x3e143ccb	0.14476316
58	0x3d109e49	0.035307202
59	0x3d0793da	0.033099987
60	0xbe1cfe70	-0.15331435
61	0x3d6ae633	0.05734844
62	0xbe234d24	-0.15947396
63	0xba6438bb	-0.0008705963
64	0xbde1991b	-0.11015531
65	0xbdecf612	-0.11570372
66	0xbdf4c514	-0.11951652
67	0xbdca5ef4	-0.09881392
68	0xbdf8adf8	-0.12142557
69	0xbde49e7e	-0.111630425
70	0xbd984cfa	-0.07436557
71	0xbe3ef7e8	-0.18649256
72	0x3e274f6b	0.1633889
73	0x3d8c8a0c	0.06862268
74	0xbe4fe876	-0.2030352
75	0xbe50e825	-0.20401056
76	0xbdd2890b	-0.10280045
77	0x3da173e0	0.078834295
78	0x3e3f553c	0.18684858
79	0xbd026fa7	-0.03184476
80	0x3df8be12	0.12145628
81	0xbde17958	-0.110094726
82	0xbd2d7a04	-0.04235269
83	0xbd0190b2	-0.031632133
84	0xbe4b8351	-0.19874312
85	0x3a8cdecf	0.0010747554
86	0x3d5d46f1	0.054022733
87	0x3dfecc97	0.12441366
88	0xbe21b273	-0.15790729
89	0xbd7bc0ba	-0.061463095
90	0x3bfc0364	0.007690834
91	0x3cb15b06	0.021649849
92	0x3d0cf617	0.034414377
93	0xbe1b4506	-0.15163049
94	0x3e223eda	0.15844288
95	0xbe3ce1d7	-0.18445526
96	0xbd912fa2	-0.07089163
97	0x3dd052e8	0.10172063
98	0xbd50809b	-0.050903898
99	0xbdc96e28	-0.09835464
100	0xbe4e3632	-0.20137861
101	0x3e0ff6ae	0.14058945
102	0xbb965015	-0.0045871832
103	0x3dc9ed92	0.09859766
104	0x3d05678b	0.03256945
105	0xbe1b7207	-0.15180217
106	0xbd93c156	-0.0721461
107	0x3e1510f1	0.14557244
108	0xbdccb875	-0.0999612
109	0xbdc0a00b	-0.09405526
110	0x3de53c91	0.11193193
111	0xbdb52cdf	-0.08846449
112	0x3d087def	0.033323225
113	0xbdcb3e9e	-0.09924053
114	0x3d80b053	0.06283631
115	0x3caa1ae3	0.020764774
116	0xbe25ea12	-0.16202572
117	0xbe1e8a08	-0.15482342
118	0x3d99bb14	0.075063854
119	0xbd88ee68	-0.066860974
120	0x3de4fcda	0.1118104
121	0x3c2e320d	0.01063205
122	0xbd8ef2c7	-0.069799
123	0xbd117945	-0.035516042
124	0xbdbe7e64	-0.09301451
125	0x3dce504a	0.10073908
126	0x3e25c9ce	0.16190264
127	0xbbcf63d2	-0.006329038
128	0xbe06be4c	-0.1315853
129	0x3e164276	0.1467379
130	0x3e2a10d3	0.1660798
131	0x3e0e7da6	0.13915119
132	0xbb74ab3e	-0.0037333514
133	0x3d4d8c0a	0.05018238
134	0x3c2a1773	0.010381567
135	0xbd9eaea0	-0.07748151
136	0xbe4ef5ea	-0.20210996
137	0xbccc5de1	-0.024947109
138	0x3db4cc1f	0.088279955
139	0x3df3d8d4	0.11906591
140	0x3d46dec5	0.048552293
141	0x3dbea175	0.09308139
142	0x3e02d58a	0.12776771
143	0xbd21ab73	-0.039470147
144	0x3e087a71	0.13327958
145	0xbb8c9453	-0.0042901426
146	0xbd940888	-0.0722819
147	0xbda21757	-0.07914608
148	0xbdf3af9b	-0.118987285
149	0xbe20fcf5	-0.15721495
150	0x3d3f8944	0.046761766
151	0x3e4127f2	0.18862894
152	0x3cedd590	0.029032499
153	0x3ce200a8	0.027588204
154	0xbd9cdb2f	-0.076589935
155	0xbda4d9b7	-0.08049338
156	0xbd830562	-0.06397511
157	0x3d90b287	0.070653014
158	0x3d102558	0.035191864
159	0xbd99970d	-0.07499514
160	0x3d23d9ea	0.04000274
161	0xbd121437	-0.03566381
162	0xbc63fcb1	-0.013915227
163	0x3e1437c1	0.14474393
164	0xbdae3270	-0.08505714
165	0x3e4307dc	0.19045967
166	0xbde4a5f2	-0.11164464
167	0x3e41a6e4	0.1891132
168	0x3d9cf46b	0.076638065
169	0x3da7f902	0.08201791
170	0xbd3f4b47	-0.04670265
171	0xbd63d829	-0.05562607
172	0xbe18eb11	-0.1493342
173	0xbe4871df	-0.19574688
174	0x3e12598d	0.14291973
175	0x3e4ac282	0.19800761
176	0x3d6fb945	0.058526296
177	0xbda39e33	-0.079891585
178	0x3d37a7ee	0.044837885
179	0xbbfa99d3	-0.007647732
180	0xbe34b2b9	-0.17646302
181	0xbe2758c4	-0.16342455
182	0x3d9126d0	0.07087481
183	0xbd7416f6	-0.05959221
184	0xbd46e001	-0.04855347
185	0xbdfc10f6	-0.123079225
186	0x3db86670	0.090039134
187	0xbdd2f76d	-0.10301099
188	0xbd8581b6	-0.06518881
189	0x3ddfa09b	0.10919305
190	0x3e48f0a5	0.19623049
191	0x3e3a578a	0.18197456
192	0x3da49198	0.08035582
193	0x3bed90f9	0.007249948
194	0x3e1d1652	0.15340546
195	0x3e38ce7b	0.18047516
196	0x3dbbae15	0.09164063
197	0x3d75c1e3	0.059999358
198	0x3d499035	0.049209792
199	0x3caa2565	0.020769784
200	0x3e09f6b8	0.13473022
201	0x3d6c8171	0.057740632
202	0xbe304067	-0.17212068
203	0xbdf6f2fa	-0.12058063
204	0xbe3dd1c5	-0.18537052
205	0xbd7b562b	-0.061361473
206	0x3c2ad4e2	0.010426732
207	0xbdb13ff8	-0.08654779
208	0xbe4036c0	-0.18770885
209	0xbe07e454	-0.13270694
210	0x3db1eab3	0.086873434
211	0xbc6b8f33	-0.014377403
212	0xbd0c3416	-0.03422936
213	0x3d076749	0.033057485
214	0xbd30a5c1	-0.043126825
215	0xbde3d4f2	-0.111246005
216	0xbdbff639	-0.09373135
217	0xbdaaacd3	-0.08333745
218	0xbe43a5aa	-0.19106165
219	0xbe40bc90	-0.18821931
220	0xbd9e6850	-0.0773474
221	0x3d9ce1a6	0.076602265
222	0x3e4c6ad4	0.19962627
223	0xbbb54223	-0.0055315658
224	0x3e0ebe6a	0.13939825
225	0x3d8a3a86	0.06749444
226	0xbe2659cc	-0.16245192
227	0xbdd121da	-0.10211535
228	0xbd656eb9	-0.056013796
229	0xbe2c478a	-0.16824165
230	0x3cea7007	0.028617872
231	0x3d46e211	0.048555437
232	0xbe22f445	-0.15913494
233	0xbd2ff410	-0.042957366
234	0xbe386255	-0.1800626
235	0x3e50261d	0.20327039
236	0x3df7409a	0.12072869
237	0xbd9dbac6	-0.0770164
238	0x3e33b166	0.17548141
239	0xbe02d599	-0.12776794
240	0x3e2fd93e	0.17172715
241	0xbda0e3d4	-0.07855955
242	0x3d7445fe	0.059637062
243	0x3e115c98	0.14195478
244	0x3dc2a198	0.09503478
245	0x3d4a9fb8	0.049468726
246	0xbcc0de71	-0.023543568
247	0x3ac4ee13	0.0015024565
248	0x3e327d97	0.17430721
249	0xbd889e98	-0.06670874
250	0xbd87a342	-0.06622936
251	0x3cd5ae60	0.026084125
252	0xbdcadb57	-0.09905117
253	0xbd9e0d26	-0.077173516
254	0x3c82bec5	0.015960107
255	0x3e1d470e	0.15359136

fc2.weight f4 [128, 256]
0	0xbd8bc716	-0.06825082
1	0xbe5cc994	-0.21561271
2	0xbbf953d9	-0.0076088724
3	0xbd271793	-0.040793967
4	0xbd53899a	-0.0516449
5	0xbdb21849	-0.08696038
6	0x3e05565f	0.13021229
7	0xbde7db1b	-0.11321088
8	0x3e07d663	0.13265376
9	0x3e8b3ed3	0.2719637
10	0x3e20495b	0.15652983
11	0xbe250a14	-0.16117126
12	0xbd010530	-0.031499088
13	0x3e156959	0.14590968
14	0xbcbb2e4e	-0.022849228
15	0xbe2a0182	-0.16602138
16	0x3e065919	0.13119926
17	0x3e1ef502	0.1552315
18	0xbd0f48d6	-0.03498157
19	0x3dc43ef1	0.095823176
20	0x3e06f5eb	0.13179748
21	0x3d6e0318	0.05810842
22	0xba8c6f33	-0.0010714292
23	0xbe22e446	-0.15907392
24	0x3ec37eb2	0.38182598
25	0xbdbb7709	-0.091535635
26	0xbae4473b	-0.0017416248
27	0x3d92fd7a	0.07177253
28	0x3da716cb	0.08158644
29	0xbe23dc62	-0.16002038
30	0x3e94993a	0.29023153
31	0xbc943cb7	-0.018095357
32	0xbd75a206	-0.05996897
33	0x3e38cb28	0.18046248
34	0x3e3ddc0b	0.18540971
35	0x3cb33f16	0.021880668
36	0x3d7cbebf	0.061705347
37	0x3e68d002	0.22735599
38	0xbd743dc9	-0.059629235
39	0xbd784c66	-0.060619734
40	0xbd1cf3a9	-0.03831831
41	0x3c730570	0.014832839
42	0x3cd7da9f	0.026349364
43	0xbe2b93e5	-0.16755636
44	0xbcfd3c78	-0.030912623
45	0x3bc72ebf	0.0060785706
46	0x3e5cb969	0.21555103
47	0xbd934538	-0.07190937
48	0xbd9252ac	-0.07144675
49	0x3c255579	0.010091179
50	0xbe2221c1	-0.15833189
51	0xbdae5002	-0.08511354
52	0xbdde1f77	-0.10845845
53	0x3e46e29f	0.19422387
54	0xbca1cf4e	-0.01975217
55	0x3e4a89e2	0.1977916
56	0xbccbdf62	-0.02488679
57	0x3d950983	0.07277205
58	0x3e0247bc	0.12722677
59	0xbe554ca9	-0.20830025
60	0xbb353787	-0.0027651505
61	0xbc93f866	-0.018062782
62	0x3d48e06d	0.049042154
63	0x3dc677b9	0.09690804
64	0xbd74c2e3	-0.05975617
65	0xbde423b1	-0.1113962
66	0x3dd2cd1c	0.10293028
67	0x3d4b9b44	0.04970862
68	0x3d8c2be0	0.06844306
69	0x3d81b805	0.06333927
70	0x3c376d74	0.011195529
71	0x3e533a12	0.20627621
72	0xbd099264	-0.033586875
73	0xbcf51126	-0.029915404
74	0x3d4b5f53	0.049651455
75	0x3cc7eb7e	0.024404284
76	0x3bd4bfc8	0.0064925887
77	0xbe31d36a	-0.17365804
78	0x3e145807	0.14486705
79	0x3cc0fe23	0.023558682
80	0xbdf2f3d8	-0.11862916
81	0xbd79bff8	-0.06097409
82	0xbd8c4667	-0.06849366
83	0xbd6c75e1	-0.057729606
84	0x3d0f6683	0.035009872
85	0xbe36798d	-0.17819805
86	0x3e18f88e	0.14938566
87	0xbd1ec705	-0.03876402
88	0x3d8ecd98	0.06972808
89	0x3d2b8a83	0.041880142
90	0x3e29267e	0.1651859
91	0x3d5ae0b9	0.05343697
92	0x3db78473	0.089608096
93	0x3da901a0	0.08252263
94	0xbddc5e57	-0.107601814
95	0xbda4ec53	-0.08052888
96	0x3dee0e1f	0.11623787
97	0x3da79822	0.08183314
98	0x3c040d66	0.008059835
99	0x3de74227	0.112919144
100	0x3debbac0	0.11510229
101	0xbabf85c1	-0.0014612005
102	0xbda74130	-0.081667304
103	0x3ce20e39	0.027594673
104	0x3e470f51	0.19439436
105	0x3d37d152	0.044877358
106	0xbc52e05b	-0.012870873
107	0x3dd229f8	0.10261911
108	0x3d01f8f7	0.031731572
109	0x3d7e3c10	0.062069
110	0x3e6e9c22	0.23301747
111	0xbd2994f5	-0.041401822
112	0xbe0da2cf	-0.13831638
113	0x3de1c953	0.11024728
114	0xbe01d68a	-0.12679496
115	0x3d361662	0.04445494
116	0xbe147b29	-0.14500107
117	0x3daa811a	0.083254054
118	0xba0a6c50	-0.0005280422
119	0x3e5094cc	0.20369262
120	0xbb9e2891	-0.0048266132
121	0xbd0849e0	-0.033273578
122	0x3e45dd39	0.19322671
123	0x3de401f3	0.11133184
124	0x3dd2541f	0.10269951
125	0xbd8ec50e	-0.06971179
126	0x3cf386a0	0.02972728
127	0xbc08bb32	-0.008345412
128	0x3dd542ca	0.1041313
129	0x3d03204a	0.032013215
130	0x3c298eba	0.01034897
131	0x3e10eb91	0.14152361
132	0x3e007287	0.12543689
133	0x3ddb78af	0.10716378
134	0xbe444348	-0.19166291
135	0xbcfa788e	-0.030575063
136	0xbd9095a6	-0.07059793
137	0xbd797b4b	-0.060908597
138	0xbc5e6c46	-0.013575619
139	0x3d94fd25	0.07274846
140	0xbc900470	-0.017580241
141	0xbe3a3338	-0.18183601
142	0x3d316c56	0.043316208
143	0x3e39ef6c	0.18157738
144	0xbe155907	-0.14584742
145	0x3e3c8c12	0.18412808
146	0xbb5add18	-0.0033395942
147	0xbe55aaeb	-0.20865981
148	0x3e0ae7ac	0.13564938
149	0x3e08cfbd	0.13360496
150	0x3e515f3e	0.20446488
151	0x3e0def85	0.138609
152	0xbe134dc4	-0.14385134
153	0x3d8ba4bf	0.06818532
154	0x3e831905	0.25605026
155	0x3c2e2e60	0.010631174
156	0x3e133f4f	0.14379619
157	0x3dce248b	0.10065564
158	0x3d338b4b	0.043834012
159	0x3d8ea0ba	0.0696425
160	0x3c0ca195	0.008583446
161	0x3c600815	0.013673802
162	0xbdab2888	-0.0835734
163	0xbd8347d9	-0.06410188
164	0xbd1530f7	-0.03642365
165	0x3d562532	0.052281566
166	0x3db40897	0.08790701
167	0xbd31d71e	-0.043418042
168	0x3d04950c	0.032368705
169	0xbdfbbdd9	-0.1229207
170	0x3e198586	0.14992341
171	0x3d8689bd	0.0656924
172	0xbdce9f3c	-0.10088965
173	0xbdb68023	-0.08911159
174	0x3de32775	0.1109151
175	0x3dddf137	0.10837024
176	0x3dc86463	0.09784772
177	0x3e44dce8	0.19224894
178	0x3dae0f74	0.08499041
179	0xbd7971bb	-0.060899477
180	0x3dd89a75	0.10576335
181	0xbd9f90d5	-0.077912964
182	0xbc0921d1	-0.008369879
183	0x3df2ed50	0.1186167
184	0xbc42a8e9	-0.011881092
185	0x3e7a519a	0.24445191
186	0xbd55f313	-0.052233767
187	0x3dfdddb4	0.12395802
188	0xbdcc796e	-0.099840984
189	0xbd3316f0	-0.043723047
190	0xbd46df8f	-0.048553046
191	0xbe08918c	-0.13336772
192	0x3d3efc5e	0.046627395
193	0xbd1c3715	-0.038138468
194	0x3e092521	0.1339307
195	0x3de9fe3f	0.11425447
196	0x3d1b38a1	0.037895802
197	0x3e0e3b4e	0.1388981
198	0xbcf85aba	-0.0303167
199	0x3e13833c	0.1440553
200	0x3e0a156e	0.13484737
201	0x3d551650	0.052023232
202	0x3e5a51b4	0.2132023
203	0xbdca59e3	-0.09880426
204	0x3c440d77	0.011966101
205	0x3d01d1af	0.03169411
206	0x3e37fd4d	0.1796772
207	0xbce44bf0	-0.027868241
208	0xbe34ff5d	-0.17675538
209	0x3e153726	0.14571819
210	0x3e004f45	0.12530239
211	0xbe33f9fd	-0.17575832
212	0x3e03357c	0.12813371
213	0x3ddfd778	0.10929769
214	0x3e1f31b3	0.15546302
215	0x3e1cd112	0.15314129
216	0xbd9d1598	-0.07670134
217	0xbe174bda	-0.14775029
218	0x3d77ca6e	0.060495786
219	0x3dc245da	0.094859794
220	0xbc5af41f	-0.013363867
221	0xbe06f3f1	-0.13178994
222	0xbd636019	-0.055511568
223	0xbd9d182b	-0.07670625
224	0xbb1a51f9	-0.0023547395
225	0xbd151e3f	-0.036405798
226	0xbe3d90b3	-0.1851223
227	0x3d3e773c	0.04650043
228	0x3d458988	0.048226863
229	0xbce20389	-0.027589576
230	0x3d4eabe1	0.050456885
231	0xbe309e59	-0.17247905
232	0xbdc9b0c2	-0.09848167
233	0xbcc17321	-0.023614468
234	0x3dc15a00	0.09440994
235	0xbdf21fa8	-0.11822444
236	0xbdcc8ebd	-0.09988163
237	0x3e0f1173	0.139715
238	0x3d7d2a5a	0.061807968
239	0x3db1a3a3	0.08673789
240	0xbcabadaf	-0.020956842
241	0x3d0e98f4	0.034813836
242	0x3d1de25b	0.038545948
243	0xbce80346	-0.028321873
244	0xbb9e7b25	-0.0048364573
245	0xbd7b3143	-0.061326277
246	0xbde7a2c5	-0.11310343
247	0x3c45e958	0.012079559
248	0xbe0c67d6	-0.13711485
249	0x3cf281d9	0.029602932
250	0x3d175f6c	0.036956236
251	0x3ce3ee74	0.027823664
252	0xbd7b826f	-0.061403688
253	0xbbaad9b0	-0.0052139387
254	0xbc4999c0	-0.012304723
255	0xbd45712c	-0.048203632

fc2.bias f4 [128]
0	0x3d0aefc4	0.033920065
1	0xbc04b7cc	-0.008100461
2	0xbd70fd7f	-0.058835503
3	0xbd0300e2	-0.031983264
4	0x3d3e5bd2	0.046474285
5	0x3c8061d2	0.015671644
6	0x3d8a5ca4	0.06755951
7	0x3db4fae4	0.08836916
8	0x3d53caff	0.051707264
9	0xbc86171c	-0.016368441
10	0x3da11e86	0.0786715
11	0xbd367b35	-0.044551093
12	0x3db7503f	0.089508526
13	0x3d4b6bb3	0.049663257
14	0x3db48349	0.08814103
15	0x3c92236d	0.017839158
16	0xbdb73971	-0.08946503
17	0x3ded2b66	0.11580543
18	0x3d21188a	0.039330043
19	0x3d9183b1	0.07105196
20	0x3df3c18d	0.11902151
21	0x3cf0e460	0.029405773
22	0xbc96b218	-0.018395469
23	0x3d3339a1	0.04375613
24	0x3abd3ecf	0.0014438274
25	0x3db160be	0.0866103
26	0x3c0a2c71	0.008433447
27	0x3e085037	0.1331185
28	0x3db445d2	0.0880238
29	0x3d8e6d84	0.06954482
30	0x3d043d9b	0.032285314
31	0x3d6c9fe2	0.057769664
32	0x3cfb2653	0.030657923
33	0x3d6ce95e	0.057839744
34	0x3dccedea	0.10006316
35	0x3d3f26d4	0.04666789
36	0x3db01efe	0.08599661
37	0x3d86a352	0.0657412
38	0xbd500770	-0.050788343
39	0x3cd89f5c	0.026443176
40	0x3de1150e	0.10990344
41	0xbd2d1415	-0.04225548
42	0x3d577b87	0.05260804
43	0x3d19033e	0.037356608
44	0xbc474978	-0.012163512
45	0x3b4f54b4	0.003163618
46	0x3ce1b62a	0.027552683
47	0x3df1d8f7	0.11808961
48	0x3c59acd2	0.0132858325
49	0x3d6e6262	0.058199294
50	0xbcd31917	-0.0257688
51	0x3c945254	0.018105663
52	0x3d2fcc33	0.04291935
53	0x3d16dd62	0.03683222
54	0x3c2144a7	0.009843028
55	0x3c312edc	0.010814395
56	0x3db24de0	0.0870626
57	0x3ca1c799	0.019748496
58	0x3df54261	0.119755514
59	0x3c6ca976	0.0144446995
60	0x3df64fc5	0.120269336
61	0x3b291c60	0.0025804266
62	0x3ddce481	0.10785771
63	0xbd0aeef1	-0.03391928
64	0xbceea940	-0.029133439
65	0xbc831c42	-0.016004685
66	0x3d6b8214	0.0574971
67	0xba0d91fa	-0.00054004753
68	0xbd404b5b	-0.046946865
69	0x3d7b5921	0.061364297
70	0x3b86b950	0.0041114464
71	0x3d9b1226	0.07571821
72	0x3c204b75	0.009783615
73	0x3d259955	0.040429432
74	0xbc14f125	-0.009090696
75	0x3e0931dc	0.13397926
76	0x3db516f4	0.088422686
77	0x3d051cf6	0.032498322
78	0xbccfe106	-0.025375854
79	0xbba18822	-0.0049295584
80	0x3dcdad95	0.10042874
81	0x3bd1b0a8	0.006399233
82	0x3d1a8dee	0.03773301
83	0xbc4e96fa	-0.012609238
84	0xbbf02f36	-0.0073298467
85	0xbdabc3bd	-0.083869435
86	0x3d189bd5	0.037257988
87	0x3d7b45fc	0.06134604
88	0x3cac229d	0.021012599
89	0x3da4a866	0.08039932
90	0xbd28edd4	-0.041242436
91	0x3d0517ec	0.032493517
92	0x3d2839ed	0.041070867
93	0x3d2d17ec	0.04225914
94	0x3cc10a3c	0.02356445
95	0x3d969819	0.07353229
96	0x3d19d8cd	0.037560273
97	0x3d74c56b	0.059758585
98	0x3d8bd067	0.06826859
99	0x3d6a639b	0.057223897
100	0xbd34a304	-0.044100776
101	0x3de31105	0.110872306
102	0x3dac386a	0.08409198
103	0x3a7533c3	0.00093537214
104	0xbadd0472	-0.0016862287
105	0x3d2b6905	0.0418482
106	0x3d9380cb	0.072023
107	0xbb9308d6	-0.0044871373
108	0x3d72ad46	0.059247278
109	0x3d7910d9	0.060807083
110	0xbd61a035	-0.055084426
111	0xbd1e7034	-0.038681224
112	0x3d204120	0.039124608
113	0xbcfca9f0	-0.030842751
114	0x3cd6d716	0.026225608
115	0x3d742a79	0.059610818
116	0x3d30bebd	0.043150652
117	0x3d77acac	0.060467407
118	0x3d962691	0.07331575
119	0xbc77499b	-0.0150932325
120	0xbd04bed8	-0.032408565
121	0x3d8b8039	0.06811566
122	0x3d108ee8	0.035292536
123	0x3ccdaa54	0.025105633
124	0x3d10e40d	0.035373736
125	0x3b5a56a9	0.0033315814
126	0x3d8618bd	0.06547687
127	0x3d363d1a	0.044491865

fc3.weight f4 [2, 128]
0	0xbe508e5f	-0.2036681
1	0x3deb0e8d	0.11477385
2	0xbe87fdf9	-0.26560953
3	0xbedd962c	-0.43278635
4	0xbed98c1d	-0.4248971
5	0xbc1c0cbd	-0.009524521
6	0x3cc65650	0.024211079
7	0x3d905228	0.0704692
8	0xbd87414c	-0.06604251
9	0xbbef4eee	-0.0073031103
10	0xbf06b2cf	-0.5261659
11	0xbe6b7fbb	-0.22997944
12	0xbe8e0e66	-0.2774536
13	0xbeb4d8a5	-0.35321537
14	0x3d70e184	0.05880882
15	0xbf0c5175	-0.54811794
16	0xbe5d2b3f	-0.21598528
17	0xbe64b20d	-0.22333546
18	0x3e0b9fd2	0.13635185
19	0xbed48ee8	-0.4151528
20	0xbd000469	-0.031254206
21	0x3c452c48	0.012034483
22	0xbf13414a	-0.575215
23	0xbee05419	-0.4381416
24	0xbea0e5d7	-0.31425354
25	0xbe738c46	-0.23783979
26	0xbf050757	-0.51964325
27	0x3e2793b0	0.16364932
28	0x3e2a6458	0.1663984
29	0xbf093371	-0.5359412
30	0x3e3af879	0.18258847
31	0xbee72850	-0.45147943
32	0xbe4f876a	-0.202665
33	0x3c93f179	0.01805948
34	0x3e61570d	0.22005863
35	0xbed168ad	-0.40900174
36	0x3db168a8	0.0866254
37	0x3dbae338	0.0912537
38	0xbe53a896	-0.20669779
39	0xbecb9406	-0.3976137
40	0x3dd31f3b	0.10308691
41	0xbe983f2d	-0.297357
42	0x3d6e1f13	0.058135103
43	0x3e0df5f4	0.13863355
44	0xbe7fd8ad	-0.24984999
45	0xbf0025ea	-0.5005785
46	0xbe2d81cf	-0.1694405
47	0xbe956f56	-0.29186505
48	0xbeff4a0e	-0.49861187
49	0x3ea1a04e	0.31567615
50	0xbedb3a66	-0.42817992
51	0xbeff1a6e	-0.49824852
52	0x3d637edb	0.0555409
53	0xbd499239	-0.049211714
54	0x3d28ec38	0.0412409
55	0xbe574a88	-0.21024525
56	0x3e38d461	0.18049766
57	0xbefd821b	-0.49513325
58	0xbe8bdc0c	-0.2731632
59	0x3db715a9	0.08939678
60	0xbe9498d1	-0.2902284
61	0xbec3d6d9	-0.38249853
62	0x3e3de4a1	0.18544246
63	0xbcb86a53	-0.022511637
64	0x3db4a118	0.08819789
65	0xbefec43e	-0.49759096
66	0x3da99573	0.08280458
67	0xbf1e9736	-0.6194948
68	0xbf0e9bd6	-0.55706537
69	0x3e5b0d4b	0.2139179
70	0xbf098029	-0.5371118
71	0xbe942310	-0.28933
72	0xbd80769d	-0.06272624
73	0xbe7bfe9c	-0.24608845
74	0xbf14aee4	-0.5807936
75	0x39eda904	0.0004533009
76	0xbebd19b2	-0.36933666
77	0x3e0ce633	0.13759689
78	0xbeff468c	-0.4985851
79	0xbee406c7	-0.4453642
80	0x3e05fabb	0.13083927
81	0x3db06ec4	0.08614877
82	0xbdfbca16	-0.12294404
83	0x3d62772b	0.05528943
84	0xbee860a0	-0.4538622
85	0xbe83405b	-0.25635037
86	0x3e0512d2	0.1299546
87	0x3de36d27	0.111048035
88	0xbf0f95cb	-0.5608794
89	0x3db38d9e	0.08767246
90	0xbebe0cba	-0.37119085
91	0x3dc89612	0.09794249
92	0xbe3cb841	-0.18429662
93	0xbf081231	-0.5315276
94	0xbee700fd	-0.45117941
95	0x3ddb8e0e	0.10720454
96	0x3e88be51	0.267077
97	0xbed28726	-0.41118735
98	0x3d35ea5c	0.044412956
99	0x3e09a653	0.13442354
100	0x3c9b3a7c	0.018948786
101	0x3e2f8cca	0.1714355
102	0xbe4a4c3f	-0.19755648
103	0xbeee1766	-0.46502227
104	0xbeb5ed2e	-0.35532516
105	0xbf0cb738	-0.5496707
106	0xbf004426	-0.50103986
107	0xbf0900ec	-0.5351703
108	0xbe8460a5	-0.25854984
109	0xbf0b89f0	-0.5450735
110	0xbe0f6df6	-0.1400679
111	0x3d3bf1c9	0.04588488
112	0x3d17291d	0.036904443
113	0x3db1d823	0.08683803
114	0x3e06db80	0.1316967
115	0xbed6baa3	-0.41939268
116	0xbe90c37f	-0.28274152
117	0xbde133e9	-0.10996229
118	0xbe448646	-0.19191846
119	0x3e18d411	0.14924647
120	0xbe22e8b4	-0.15909082
121	0x3de32f6a	0.11093028
122	0x3de68a7a	0.11256881
123	0xbee1b41c	-0.44082725
124	0xbee0fb3f	-0.43941686
125	0xbf216b4a	-0.63054335
126	0xbda5acc2	-0.080895916
127	0xbf061ad4	-0.52384686
128	0x3e8edcf0	0.27902937
129	0x3eaca273	0.3371769
130	0xbe8fb87f	-0.28070447
131	0xbdf7ef90	-0.1210624
132	0x3e11398b	0.14182107
133	0x3ebc2883	0.36749658
134	0x3ec3b5b3	0.38224563
135	0x3ec7c8f2	0.39020497
136	0x3e94a846	0.29034632
137	0xbe93fc36	-0.2890336
138	0xbd70e253	-0.05880959
139	0xbe670bd5	-0.22563107
140	0x3ea316be	0.31853288
141	0x3e5a5936	0.21323094
142	0x3ecdcd70	0.401958
143	0xbe1750e6	-0.14776954
144	0xbeab485c	-0.33453643
145	0x3f01dd9e	0.50728786
146	0x3e684365	0.22681959
147	0x3e26c827	0.1628729
148	0x3ea936e6	0.33049697
149	0xbea2e950	-0.31818628
150	0x3cdf61a2	0.027268235
151	0xbd89e9ff	-0.06734084
152	0xbe7fa36e	-0.24964687
153	0x3e1ab93d	0.15109725
154	0x3d9bcb36	0.07607119
155	0x3e4b9026	0.19879207
156	0xbe355f2c	-0.17712086
157	0xbd34912a	-0.04408375
158	0xbdf55025	-0.11978177
159	0xbdb1bf1f	-0.086790316
160	0x3e496d15	0.19670518
161	0x3eb03b08	0.34420037
162	0xbd9bee72	-0.07613839
163	0x3da626f2	0.08112897
164	0x3e58af96	0.2116073
165	0xbe71dc66	-0.23619232
166	0xbeb43b77	-0.35201618
167	0xbdc1818b	-0.094485365
168	0x3eaae487	0.33377478
169	0xbe2ca1de	-0.16858622
170	0xbe99295b	-0.29914364
171	0x3e342067	0.17590486
172	0xbe67071a	-0.22561303
173	0xbe3bf33e	-0.18354508
174	0xbe7ab209	-0.24481978
175	0x3e51ff7f	0.2050762
176	0xbde8a502	-0.11359598
177	0xbd6a4573	-0.05719514
178	0xbe305fa7	-0.17223988
179	0xbe086a98	-0.13321912
180	0x3ea2a4dd	0.31766406
181	0xbe9b3984	-0.30317318
182	0x3eab3c0f	0.3344426
183	0xbe84a99e	-0.25910658
184	0x3e55079b	0.20803683
185	0xbdec3c07	-0.11534887
186	0x3e6dbee1	0.23217346
187	0xbe5f1bfa	-0.21788016
188	0x3ea258f0	0.3170848
189	0x3c9cc311	0.019135984
190	0x3e86c32e	0.26320785
191	0xbec125b7	-0.37724087
192	0xbe88123a	-0.26576406
193	0xbdaa8fd4	-0.08328214
194	0xbe657403	-0.22407536
195	0xbde12c04	-0.109947234
196	0xbda7db0a	-0.08196075
197	0x3e3982b1	0.18116261
198	0xbc87a776	-0.016559344
199	0x3e5dab73	0.21647434
200	0xbe9ead07	-0.30991384
201	0xbe84ba56	-0.25923413
202	0xbdd638ad	-0.10460029
203	0x3eaa65eb	0.33280882
204	0x3e1e632f	0.15467523
205	0xbe1efded	-0.15526552
206	0xbe3cb74c	-0.18429297
207	0x3ddabd1a	0.106805995
208	0x3e79ab6c	0.24381799
209	0xbe6410af	-0.2227199
210	0x3ee00a39	0.437578
211	0xbea0efb0	-0.31432867
212	0x3e044204	0.12915808
213	0xbe6d159f	-0.23152779
214	0xbe3daa13	-0.1852191
215	0xbe41e037	-0.18933187
216	0xbe3c624f	-0.18396877
217	0x3e68a947	0.22720824
218	0xbe290d56	-0.16508994
219	0xbe4f09b5	-0.20218547
220	0x3e93c493	0.28860912
221	0xbdc38d8d	-0.09548483
222	0xbe80db4f	-0.2516732
223	0x3ed99f42	0.42504317
224	0x3c9b6a91	0.018971713
225	0xbe500c86	-0.20317277
226	0xbe94358f	-0.28947112
227	0xbe3e030f	-0.18555854
228	0xbea6c091	-0.32568792
229	0x3e992862	0.29913622
230	0x3e79a376	0.24378762
231	0xbcb45362	-0.022012416
232	0xbe756296	-0.23963389
233	0xbd6e3fc7	-0.05816629
234	0xbe006c1b	-0.12541239
235	0x3defbc1e	0.117058024
236	0xbeb475b8	-0.35246062
237	0xbe32e7ec	-0.17471284
238	0xbebab14c	-0.36463392
239	0xbea2b5c6	-0.31779307
240	0x3ea13062	0.31482226
241	0xbe6f6168	-0.23377001
242	0xbe3c2369	-0.18372883
243	0x3e20cdb8	0.15703475
244	0xbe538dd7	-0.20659576
245	0x3ee139f3	0.43989524
246	0x3e8c39cb	0.27387843
247	0xbe38c009	-0.18042006
248	0xbeb66ef2	-0.3563152
249	0x3ec10a08	0.37702966
250	0xbe45bbed	-0.19309969
251	0xbe608eee	-0.21929523
252	0xbe24b8cc	-0.1608612
253	0x3d2e1279	0.042498086
254	0x3ea4b111	0.3216634
255	0x3d802a8a	0.06258114

fc3.bias f4 [2]
0	0x3d2c6cc2	0.042095907
1	0x3dc1fc99	0.09472007

bn_layer.weight f4 [256]
0	0x3f8201db	1.0156816
1	0x3f661b18	0.8988509
2	0x3ecc2a75	0.39876142
3	0x3f5b4706	0.8565525
4	0x3f023ccb	0.5087401
5	0x3f4393a1	0.7639714
6	0x3f7c3c18	0.98529196
7	0x3e3876d9	0.18014087
8	0x3e2f52dc	0.17121452
9	0x3f4b9c12	0.7953502
10	0x3f481152	0.7815143
11	0x3f755349	0.9583021
12	0x3f1c6ee2	0.61106694
13	0x3f389859	0.72107464
14	0x3f1cf014	0.6130383
15	0x3f87183b	1.055427
16	0x3e7fe64f	0.249902
17	0x3f84a905	1.0364081
18	0x3ecabc58	0.3959682
19	0x3f7480b9	0.95508915
20	0x3f2819e6	0.6566452
21	0x3e574d69	0.21025623
22	0x3f542d4c	0.8288162
23	0x3f04fbfb	0.5194699
24	0x3f7ad417	0.97979873
25	0x3f425132	0.75905144
26	0x3f4651f0	0.77468777
27	0x3f83706a	1.0268681
28	0x3f65f198	0.8982177
29	0x3fbe9e10	1.4891987
30	0x3f13b16c	0.576926
31	0x3eefc33d	0.46828642
32	0x3f0ee39a	0.5581604
33	0x3f835636	1.0260684
34	0x3f2a47d2	0.6651584
35	0x3f8cb310	1.0992146
36	0x3f8b2d85	1.0873266
37	0x3f8b1e4e	1.0868623
38	0x3f690909	0.9102941
39	0x3f1c1786	0.60973394
40	0x3f7e844f	0.99420637
41	0x3f0bf3be	0.54668796
42	0x3f56cfa9	0.83910614
43	0x3eace751	0.3377023
44	0x3f4de87a	0.80432856
45	0x3e325c03	0.17417912
46	0x3efa01d5	0.48829523
47	0x3eb5091b	0.3535851
48	0x3ee065da	0.43827707
49	0x3ea854e6	0.32877272
50	0x3f40f2ff	0.7537078
51	0x3f764a50	0.9620714
52	0x3f847441	1.0347978
53	0x3f9719d9	1.1804763
54	0x3f122dc0	0.5710106
55	0x3f5efa42	0.87100613
56	0x3f065ee4	0.5248854
57	0x3f41d04e	0.7570847
58	0x3f18760f	0.59555143
59	0x3f113a63	0.56729716
60	0x3f365943	0.7122995
61	0x3e977f72	0.2958942
62	0x3f4af757	0.7928366
63	0x3f4ea00b	0.80712956
64	0x3f7820b7	0.9692492
65	0x3ec0b574	0.37638438
66	0x3e75d531	0.24007107
67	0x3e45daf9	0.19321813
68	0x3f8ae6a0	1.0851631
69	0x3eb93e50	0.36180353
70	0x3f4a1e0c	0.789521
71	0x3f994500	1.1974182
72	0x3f811ce6	1.0086944
73	0x3f714863	0.9425108
74	0x3f1e0f20	0.6174183
75	0x3ec1f754	0.3788401
76	0x3b859afa	0.0040773125
77	0x3f14a714	0.5806744
78	0x3f4407a4	0.7657416
79	0x3f67318b	0.9030997
80	0x3e9a5f02	0.3015061
81	0x3e943af7	0.28951237
82	0x3f85ccc8	1.0453119
83	0x3f3c485f	0.7354793
84	0x3eb4b760	0.35296154
85	0x3f97a6a9	1.1847736
86	0x3f4ac9a1	0.7921391
87	0x3eb7aaab	0.35872397
88	0x3f448207	0.76760906
89	0x3e89ea49	0.26936558
90	0x3eba2e3c	0.363634
91	0x3f8c0bb0	1.0941067
92	0x3f58b5d8	0.8465247
93	0x3ea43fc5	0.32079902
94	0x3f57736c	0.84160495
95	0x3ebc62e9	0.36794212
96	0x3ecbe382	0.39822012
97	0x3e31e742	0.17373374
98	0x3f8383cf	1.02746
99	0x3f911c8f	1.133684
100	0x3ea629e4	0.32453835
101	0x3e793a8a	0.24338737
102	0x3f52c152	0.82326233
103	0x3e8f70bb	0.28015694
104	0x3f767bb0	0.9628248
105	0x3e7bb46a	0.24580541
106	0x3f3f3e96	0.74704874
107	0x3f59c195	0.8506101
108	0x3efb2a7f	0.4905586
109	0x3f268ee3	0.6506178
110	0x3f129336	0.57255876
111	0x3ee694be	0.45035356
112	0x3f58b12e	0.84645355
113	0x3f15a72c	0.5845821
114	0x3f41946d	0.75617105
115	0x3f547a29	0.829989
116	0x3e8275ed	0.25480595
117	0x3f0f1560	0.5589199
118	0x3f6bb705	0.9207614
119	0x3f2f73d2	0.685361
120	0x3ed825f1	0.42216447
121	0x3eb0a0c9	0.3449767
122	0x3f7fae77	0.9987559
123	0x3e5a5a3d	0.21323486
124	0x3f1a38d8	0.60242987
125	0x3eb84eeb	0.3599771
126	0x3f92b998	1.1462889
127	0x3f455d09	0.77095085
128	0x3f2ea702	0.68223584
129	0x3ed35a67	0.4127991
130	0x3ee82349	0.4533942
131	0x3ea2b28d	0.31776848
132	0x3f85f0a2	1.046406
133	0x3f680646	0.9063457
134	0x3f6d76b8	0.92759275
135	0x3f3e47f1	0.74328524
136	0x3eec4cbd	0.46152297
137	0x3f7736c3	0.96567935
138	0x3ee88faf	0.45422122
139	0x3f3fe45a	0.7495781
140	0x3e9200fc	0.28516376
141	0x3f84929c	1.0357242
142	0x3f30218c	0.6880119
143	0x3f0dcca6	0.55390394
144	0x3f111484	0.5667193
145	0x3f28897c	0.65834785
146	0x3f0ba4a9	0.54548126
147	0x3f04ce34	0.5187714
148	0x3f4eb1f1	0.8074027
149	0x3f806fb8	1.0034094
150	0x3f38dab7	0.7220873
151	0x3f49699f	0.7867679
152	0x3f47e734	0.7808716
153	0x3a948501	0.0011331142
154	0x3f993a21	1.1970865
155	0x3f45691c	0.7711351
156	0x3f624ce0	0.8839855
157	0x3f0d9024	0.55298066
158	0x3e36a664	0.1783691
159	0x3ecb6a8e	0.39729732
160	0x3f432513	0.76228446
161	0x3e8965b7	0.26835415
162	0x3f28e02f	0.65967077
163	0x3f19b875	0.60047084
164	0x3ee060a7	0.4382374
165	0x3e670b24	0.22562844
166	0x3f5ecdbd	0.8703268
167	0x3f369805	0.71325713
168	0x3f936a03	1.1516727
169	0x3f849015	1.035647
170	0x3f50b6d3	0.8152897
171	0x3eaf66d6	0.34258145
172	0x3f3e2706	0.74278295
173	0x3f1051cc	0.5637481
174	0x3e86593a	0.2623995
175	0x3f49ed6e	0.78877914
176	0x3edc627f	0.43043897
177	0x3fa9bfa2	1.3261607
178	0x3f12ae99	0.57297665
179	0x3f0c187d	0.54724866
180	0x3f6f60bf	0.93507
181	0x3f52f74d	0.824086
182	0x3f0234fa	0.50862086
183	0x3f013967	0.50478214
184	0x3f6b78e2	0.9198133
185	0x3f0d596e	0.55214584
186	0x3f3930a9	0.72339875
187	0x3f564539	0.83699375
188	0x3e31bae0	0.17356443
189	0x3eaf2571	0.34208253
190	0x3ebd158e	0.36930507
191	0x3e8b5904	0.2721635
192	0x3e6c352d	0.2306716
193	0x3f868d1b	1.0511812
194	0x3f5acbb5	0.8546708
195	0x3e5456e9	0.20736279
196	0x3eb5af1a	0.35485154
197	0x3f679c54	0.9047291
198	0x3f36dbf4	0.7142937
199	0x3f8903fa	1.0704339
200	0x3f6e762a	0.93149054
201	0x3ef36489	0.4753764
202	0x3f1b8e78	0.60764265
203	0x3e97d693	0.29655895
204	0x3e8bae9b	0.2728165
205	0x3f63e452	0.89020264
206	0x3f004529	0.5010553
207	0x3f219285	0.63114196
208	0x3f975255	1.1822001
209	0x3f01f1a6	0.5075935
210	0x3e78caf1	0.24296166
211	0x3f219769	0.6312166
212	0x3ed4f435	0.41592565
213	0x3f87d448	1.0611658
214	0x3f2f5f5f	0.685049
215	0x3ee0b596	0.4388854
216	0x3f5a8455	0.8535817
217	0x3f42df8a	0.76122344
218	0x3f2065cd	0.62655336
219	0x3f9b1a99	1.2117492
220	0x3f17330b	0.5906226
221	0x3e9c7fda	0.30566293
222	0x3f1a17cc	0.6019256
223	0x3f5e6fb3	0.8688919
224	0x3f6c1547	0.92219967
225	0x3e92bc0c	0.28659093
226	0x3f93703b	1.1518625
227	0x3e96f594	0.29484236
228	0x3f8db0f7	1.106963
229	0x3e74ef5c	0.23919433
230	0x3f585842	0.8450967
231	0x3f9ee847	1.2414635
232	0x3f0607a2	0.52355397
233	0x3f107359	0.56426007
234	0x3f40b731	0.7527953
235	0x3f5115a4	0.81673646
236	0x3f41db3a	0.7572514
237	0x3f53fb26	0.828051
238	0x3ec631f5	0.3870999
239	0x3f8c0726	1.0939682
240	0x3f857e4c	1.0429168
241	0x3f8131d5	1.0093333
242	0x3f84591b	1.0339693
243	0x3f60717b	0.8767316
244	0x3d4ce5f4	0.050023988
245	0x3ec615b9	0.38688448
246	0x3f448e0b	0.7677924
247	0x3f178a10	0.5919504
248	0x3f115b6d	0.5678013
249	0x3e907e88	0.28221536
250	0x3f00e014	0.50341916
251	0x3ea6d1f9	0.3258207
252	0x3f8b8738	1.090064
253	0x3f601d66	0.8754486
254	0x3f1963ae	0.59917724
255	0x3f5d9a2b	0.86563367

bn_layer.bias f4 [256]
0	0x3d2c78bb	0.042107325
1	0x3d4ebf7a	0.050475575
2	0x3cbf13be	0.023324843
3	0x3de217db	0.11039706
4	0x3ceea6b4	0.029132225
5	0x3d790015	0.060791094
6	0x3b032e6a	0.0020016679
7	0x3d63c345	0.055606145
8	0x3cd172e0	0.025567472
9	0x3dcc95c2	0.099895015
10	0x3c999042	0.018745545
11	0x3dc809f4	0.097675234
12	0x3d1603f5	0.036624867
13	0x3d33862d	0.043829132
14	0x3bc8ef19	0.0061320183
15	0x3b282adb	0.002566031
16	0x3d30be3d	0.043150175
17	0x3de0df82	0.10980131
18	0x3d6a2095	0.05715998
19	0xbc1d9b5c	-0.00961956
20	0xbc49b499	-0.012311124
21	0x3ce0c8e2	0.027439538
22	0x3c44659d	0.011987117
23	0x3d15f911	0.03661448
24	0xbd051619	-0.032491777
25	0x3d662e24	0.056196347
26	0x3d487975	0.048943955
27	0xbd900761	-0.070326574
28	0x3cfa1d62	0.030531589
29	0x3d10aee0	0.035323024
30	0xbd8f7d4f	-0.070063226
31	0x3c7ecff1	0.015552507
32	0xbd4b645d	-0.04965626
33	0xbaf6a9e1	-0.0018818938
34	0x3cb58b6f	0.022161214
35	0x3d838c6d	0.064232685
36	0xbd28b3ac	-0.041186973
37	0x3be481d8	0.0069734864
38	0x3b4e705b	0.0031500075
39	0x39af177d	0.000333961
40	0x3d703494	0.058643892
41	0xbd388e11	-0.04505736
42	0x3d852ccb	0.06502684
43	0xbda8dd44	-0.08245328
44	0x3c96dbaa	0.01841529
45	0x3d28e5e6	0.041234873
46	0x3d99af09	0.075040884
47	0x3cddf2e7	0.027093364
48	0x3cacbbd2	0.021085653
49	0x3ce15e62	0.027510826
50	0xbcd93c49	-0.026518004
51	0x3d9de8d5	0.07710425
52	0x3d976dda	0.073939994
53	0x3dfb68be	0.12275837
54	0x3d72fabe	0.059321158
55	0xbd288a4d	-0.04114752
56	0xbd0e7d16	-0.03478726
57	0x3dab0d84	0.08352187
58	0x3c3aecdd	0.011409012
59	0x39ce9e63	0.0003940939
60	0x3c775c3d	0.015097675
61	0x3de49341	0.11160899
62	0xbad22acc	-0.0016034483
63	0xbc74c709	-0.014940032
64	0x3d40422e	0.046938114
65	0x3c62fa97	0.013853691
66	0x3d5c4b95	0.05378302
67	0x3db44a00	0.08803177
68	0x3df93324	0.121679574
69	0x3def7389	0.116919585
70	0x3c385f38	0.011253171
71	0xbc80d7b5	-0.015727857
72	0xbddbf440	-0.10739946
73	0x3d2206da	0.039557315
74	0x3d20db41	0.039271597
75	0x3db0963a	0.086224034
76	0xbc82883e	-0.015934106
77	0x3d3ada82	0.04561854
78	0xbd931f4b	-0.07183703
79	0xbc58de21	-0.013236553
80	0x3d0c2e33	0.034223747
81	0xbcb07026	-0.021537852
82	0x3d862d18	0.0655157
83	0x3d5f0eea	0.054457583
84	0xbd5cf180	-0.05394125
85	0xbd7ea298	-0.06216678
86	0x3bfb320b	0.0076658777
87	0x3da6b814	0.08140579
88	0x3d9ef223	0.07761028
89	0x3d851eff	0.06500053
90	0x3d1ca5eb	0.03824417
91	0xbcb03f07	-0.021514429
92	0x3d89dd0e	0.06731616
93	0x3ca5322c	0.020165525
94	0x3da90315	0.08252541
95	0xbd469081	-0.048477653
96	0xbd88e8af	-0.06685006
97	0x3d625e6f	0.05526584
98	0xbd963525	-0.07334355
99	0xbd75363c	-0.059866175
100	0x3da99912	0.08281149
101	0x3d0d4f58	0.034499496
102	0xbae0dda1	-0.0017155894
103	0xbd2702ab	-0.04077403
104	0xbc06ff86	-0.0082396325
105	0x3d9740e3	0.07385423
106	0xbd03ecf3	-0.032208394
107	0x3e19110a	0.14947906
108	0x3a4cd4a0	0.0007813666
109	0x3c4e71aa	0.012600342
110	0x3dac0280	0.08398914
111	0x3e03b946	0.12863645
112	0x3d8ae057	0.06781071
113	0xbdcef62d	-0.10105548
114	0xbc8b8db8	-0.01703535
115	0x3db95a7c	0.09050462
116	0x3d0ed790	0.034873545
117	0x3b6f112f	0.0036478748
118	0x3d145500	0.036213875
119	0xbd72fce9	-0.059323225
120	0x3d6bae0d	0.057539035
121	0x3cefa180	0.029251814
122	0x3c1ce01c	0.009574916
123	0x3e0dc528	0.1384474
124	0xbd5fbb57	-0.05462202
125	0xbd340b83	-0.04395629
126	0xbc1201aa	-0.00891153
127	0x3d1280eb	0.035767477
128	0xbc121a81	-0.008917452
129	0xbdb136a1	-0.08652998
130	0x3d75c465	0.06000175
131	0x3cd42ded	0.025900805
132	0x3dbb3693	0.091412686
133	0xbd587fd3	-0.052856278
134	0x3e1c11eb	0.1524121
135	0xbd18dbd1	-0.03731901
136	0xbd6942e6	-0.056948565
137	0xbbaa8ee3	-0.0052050217
138	0x3d0f5ea0	0.03500235
139	0xbd0ed49c	-0.03487073
140	0x3d060de7	0.032728102
141	0xbcb21d97	-0.021742625
142	0xbd506d73	-0.05088563
143	0xbc4da2f7	-0.012551061
144	0x3debe6bd	0.11518619
145	0x3d0f9dde	0.035062663
146	0x3cae0184	0.021240957
147	0xbb81e07c	-0.003963528
148	0x3d60634c	0.054782197
149	0x3c92d4b5	0.017923692
150	0xbd789ecc	-0.060698316
151	0x3d732580	0.059361935
152	0xbdd99da0	-0.10625768
153	0xbc037b66	-0.008025026
154	0x3acfefb5	0.0015864285
155	0x3c170c80	0.009219289
156	0x3d70af63	0.05876101
157	0x3c1ae35c	0.009453621
158	0xbcb9304f	-0.022606043
159	0x3b511288	0.0031901915
160	0x3e046166	0.1292778
161	0xbc68438d	-0.014176262
162	0x3d18beab	0.03729121
163	0xbbd84d00	-0.006600976
164	0x3d66e9c8	0.056375295
165	0xbcfe40ac	-0.031036697
166	0x3deae316	0.114690945
167	0x3d342294	0.04397829
168	0x3cefd696	0.029277127
169	0x3d1487e6	0.036262415
170	0x3d7012b4	0.058611587
171	0xbd613c54	-0.054989174
172	0x3d899fcf	0.06719934
173	0xbc6d2e14	-0.014476318
174	0x3d2e576b	0.042563837
175	0xbc9ed315	-0.019387761
176	0x3db32453	0.08747163
177	0x3c106bf3	0.0088148
178	0x3c54c9cd	0.012987566
179	0x3d13eddd	0.036115516
180	0x3cdba100	0.02681017
181	0x3d110272	0.035402723
182	0x3d84b7b1	0.06480349
183	0x3dd6611f	0.10467743
184	0xbcd5a573	-0.026079869
185	0x3c6d5281	0.0144850025
186	0x3c8153eb	0.015787086
187	0x3d4d8384	0.05017425
188	0xbbf8a11b	-0.0075875646
189	0xbc10bc48	-0.008833952
190	0x3d1aacaf	0.03776234
191	0x3d2c5b16	0.042079054
192	0x3d0d629c	0.03451787
193	0xbd0f40f0	-0.03497404
194	0x3d9782df	0.073980086
195	0x3d508513	0.05090816
196	0x3c3d47a2	0.011552723
197	0x3da652bb	0.08121248
198	0xbd1d9541	-0.038472418
199	0x3d22491d	0.039620508
200	0xbd2d09d4	-0.0422457
201	0x3d8e8a28	0.06959945
202	0x3d8cb607	0.068706565
203	0x3c492ff4	0.012279499
204	0x3d1940d5	0.037415344
205	0x3d23dde4	0.040006533
206	0x3c7fad1d	0.015605238
207	0x3c97f6c3	0.018550282
208	0x3c8e1e08	0.017348304
209	0x3e1b1042	0.1514292
210	0x3d31bad7	0.043391075
211	0x3d6c404a	0.0576785
212	0x3dfe8139	0.12426991
213	0x3c6db925	0.014509474
214	0x3d3c68c0	0.045998335
215	0xbd9abb26	-0.07555227
216	0x3af6eb7c	0.001883849
217	0xbcb14177	-0.021637661
218	0xbd233b4c	-0.03985147
219	0xbd24cf96	-0.040237032
220	0x3c020374	0.007935394
221	0x3c2af9e0	0.010435551
222	0x3cda5ace	0.026654627
223	0xbbdb3d72	-0.0066906745
224	0xbd06720c	-0.032823607
225	0xbd741bfa	-0.059596993
226	0x3d8915cb	0.0669361
227	0x3c2196c5	0.009862606
228	0x3c55ff62	0.013061376
229	0x3bed3afe	0.0072396984
230	0xbbfc963f	-0.0077083404
231	0x3dcd139b	0.10013505
232	0xbc285163	-0.01027331
233	0xbd04de5f	-0.032438632
234	0x3e22f4e6	0.15913734
235	0x3d1536df	0.036429282
236	0x3d671a11	0.056421343
237	0x3d156a60	0.0364784
238	0x3d498ca5	0.049206395
239	0x3d5208fa	0.051278092
240	0xbd323c3a	-0.043514468
241	0x3aa2a576	0.001240893
242	0x3d872d85	0.06600479
243	0x3d7f3381	0.062304977
244	0x3a91493a	0.0011084445
245	0xbd8d06ae	-0.0688604
246	0x3d997963	0.07493856
247	0xbd1d35a5	-0.038381238
248	0xbc70237c	-0.014656898
249	0x3d91dee6	0.07122593
250	0xbd8822ff	-0.066473
251	0x3c0a8a77	0.008455864
252	0x3d810891	0.06300462
253	0x3bb6262f	0.005558751
254	0x3a3a8c97	0.00071162864
255	0xbd47eee5	-0.048811812
