checkpoint_critic_2.pth (torch_old, 298459 bytes, 10 tensors)

fc1.weight f4 [256, 24]
0	0x3ad0dae1	0.0015934372
1	0x3c341d5c	0.010993328
2	0x3c34b412	0.01102926
3	0x3aaddaec	0.0013264096
4	0x3a29aed8	0.0006472892
5	0x3d135d4b	0.035977643
6	0xbce08617	-0.027407689
7	0x3ab1b772	0.0013558699
8	0xbd0a4dd1	-0.033765618
9	0xbb16a6aa	-0.0022987523
10	0xbc610ce9	-0.013735988
11	0xbc94f6f6	-0.018184166
12	0x3c064bdb	0.008196796
13	0x3d0d7db6	0.034543715
14	0xbcdbbd06	-0.026823532
15	0xbc94f996	-0.018185418
16	0xbca3361b	-0.01992326
17	0xbc690f6e	-0.01422487
18	0x3d00fe69	0.031492624
19	0x3bb90646	0.0056465
20	0x3b609dc1	0.0034273716
21	0x3c87d84c	0.01658263
22	0x3ce3b337	0.027795417
23	0x3bb85d4b	0.0056263558
24	0x0021ce70	3.104627e-39
25	0x802e3e4c	-4.246781e-39
26	0x800ac935	-9.90534e-40
27	0x0015e4c6	2.010614e-39
28	0x001946e8	2.321324e-39
29	0x001e4fab	2.783644e-39
30	0x002d8d27	4.183233e-39
31	0x00187a86	2.248005e-39
32	0x003f0910	5.788887e-39
33	0x802fac5d	-4.3781e-39
34	0x800b9c53	-1.066269e-39
35	0x002b992c	4.003874e-39
36	0x803abded	-5.394591e-39
37	0x802dda70	-4.210958e-39
38	0x0032f2a4	4.678818e-39
39	0x00351916	4.87628e-39
40	0x8013b67e	-1.81034e-39
41	0x0039fa2e	5.324371e-39
42	0x0001e871	1.7522e-40
43	0x800ea895	-1.346173e-39
44	0x802a5a19	-3.889412e-39
45	0x002abf40	3.925698e-39
46	0x0030292b	4.422872e-39
47	0x800c06d0	-1.10447e-39
48	0xbd27125e	-0.040789
49	0xbb692498	-0.003557479
50	0xbb79cb88	-0.00381157
51	0xbb7f74ee	-0.0038979608
52	0xbcb040c0	-0.02151525
53	0x3e128d3e	0.14311692
54	0x3a16b3a6	0.00057488156
55	0xbb569f69	-0.0032748824
56	0xbc7ef1af	-0.015560552
57	0x3bf98551	0.0076147695
58	0xbb99859e	-0.004685118
59	0x3b3f4679	0.0029186292
60	0x3cc3beed	0.023894751
61	0x3da57f97	0.080809765
62	0x3d01fbba	0.031734206
63	0x3b779424	0.0037777508
64	0xbb195fbd	-0.0023403012
65	0xbb88a250	-0.00416974
66	0x3c2164f4	0.009850729
67	0x3cac5824	0.021038122
68	0x3ca6ae0f	0.02034667
69	0x3dbf1d69	0.093317814
70	0x3a7c8598	0.0009632944
71	0x3cd30c0f	0.025762586
72	0xbb0beaa5	-0.0021349576
73	0xbc519c31	-0.012793587
74	0xbb5aa48d	-0.003336224
75	0xbb96abc6	-0.0045981137
76	0x3d2375cf	0.039907273
77	0x3cf7f919	0.030270146
78	0x3b84fc0d	0.004058367
79	0xbb969a78	-0.004596051
80	0x3c6ceaf9	0.014460319
81	0xbc6546aa	-0.013993898
82	0xba8975c3	-0.0010487366
83	0xbaa9eb62	-0.0012963826
84	0x3d626e2a	0.055280842
85	0x3d4a1d98	0.04934463
86	0xbb88368d	-0.0041568936
87	0xbaa9e757	-0.0012962621
88	0x3d6b8668	0.057501227
89	0xbc9e9b14	-0.019361056
90	0x3aa7fe4c	0.0012816875
91	0xbd729d42	-0.059232004
92	0x3d1b5c46	0.037929796
93	0x3cf9bcc7	0.030485524
94	0xbb609adc	-0.003427199
95	0xbd729eb5	-0.059233386
96	0x801b80cd	-2.525763e-39
97	0x8022931d	-3.175181e-39
98	0x001cddb1	2.650922e-39
99	0x000403e8	3.68743e-40
100	0x801a6f37	-2.427619e-39
101	0x003a8b82	5.376505e-39
102	0x0025acdf	3.459928e-39
103	0x000403e8	3.68743e-40
104	0x8005e0b1	-5.39782e-40
105	0x001a5b85	2.420554e-39
106	0x801f5b9e	-2.879766e-39
107	0x802c0809	-4.043644e-39
108	0x00207645	2.981163e-39
109	0x0023c024	3.28317e-39
110	0x802a8781	-3.9057e-39
111	0x802c0809	-4.043644e-39
112	0x0043783b	6.196109e-39
113	0x00117e77	1.60657e-39
114	0x000d1b9d	1.203767e-39
115	0x801f81af	-2.893422e-39
116	0x00270eeb	3.586936e-39
117	0x002cce7d	4.114836e-39
118	0x00184f98	2.232605e-39
119	0x801f81af	-2.893422e-39
120	0xbbc440d6	-0.0059891744
121	0x3d5f7df5	0.05456348
122	0xbc5ae829	-0.013361015
123	0x3a7f62d5	0.0009742205
124	0xbba1800b	-0.004928594
125	0x3d064fa9	0.032790814
126	0x3c79e548	0.015252419
127	0x3c7778e7	0.015104509
128	0x3bd4989f	0.0064879204
129	0x3d5415fd	0.051778782
130	0xbc0dec93	-0.008662361
131	0x3bcbbc65	0.0062175267
132	0x39fe13c0	0.0004846137
133	0x3d6b2514	0.057408407
134	0x3c890aac	0.016728722
135	0xbbe038e4	-0.0068427194
136	0xbcaa12d0	-0.020760924
137	0x3d148c78	0.036266774
138	0x3c9e2f56	0.01930968
139	0x3c0414a4	0.008061562
140	0x3eb4efac	0.35339105
141	0xbcd8bdba	-0.026457656
142	0xbc86cafd	-0.016454214
143	0x3b4ddf07	0.0031413452
144	0xbd427648	-0.047476083
145	0x3d4c63e3	0.049899947
146	0x3ccd4f53	0.025062239
147	0xbcb2ba31	-0.021817299
148	0xbcbb25a1	-0.022845091
149	0x3db5f653	0.08884873
150	0x3af51997	0.0018699643
151	0xbc675002	-0.014118196
152	0xbd2ef974	-0.042718366
153	0x3d21241e	0.039341085
154	0xbc6c0e5a	-0.014407719
155	0xbd7e8bec	-0.06214516
156	0xbc03b802	-0.008039476
157	0x3c836158	0.016037628
158	0xbc0823bf	-0.008309304
159	0xbd8230ea	-0.06356986
160	0xbd804b60	-0.06264377
161	0x3c0e3cf3	0.008681524
162	0xbd02223c	-0.03177093
163	0xbce97653	-0.028498804
164	0xbc3173cf	-0.010830834
165	0xbca8427c	-0.020539515
166	0x3ca7c00b	0.020477315
167	0xbccb1b35	-0.024793247
168	0x80184bc6	-2.231234e-39
169	0x8002d6c6	-2.60717e-40
170	0x801ca979	-2.632189e-39
171	0x002041f6	2.962398e-39
172	0x802f1112	-4.322392e-39
173	0x001e77e2	2.798071e-39
174	0x00178f8c	2.163711e-39
175	0x002041f6	2.962398e-39
176	0x801b6fed	-2.51971e-39
177	0x00336346	4.719223e-39
178	0x0003ddd9	3.5509e-40
179	0x00186210	2.23923e-39
180	0x8038c9b6	-5.215148e-39
181	0x80173bd0	-2.133673e-39
182	0x000940f5	8.49822e-40
183	0x001d1089	2.669161e-39
184	0x80177571	-2.154346e-39
185	0x000156de	1.22998e-40
186	0x8011a2da	-1.619624e-39
187	0x00462d99	6.444842e-39
188	0x8043588e	-6.184746e-39
189	0x800d7b3f	-1.238074e-39
190	0x800bf854	-1.099274e-39
191	0x0036effe	5.04521e-39
192	0x80189795	-2.258429e-39
193	0x002bbfd4	4.017741e-39
194	0x00060fe7	5.56718e-40
195	0x802a48c5	-3.883196e-39
196	0x80048ef9	-4.18631e-40
197	0x8016901d	-2.072079e-39
198	0x8000fb6a	-9.019e-41
199	0x8027ad34	-3.643718e-39
200	0x003194d1	4.553325e-39
201	0x801c1ca7	-2.581672e-39
202	0x0040951f	5.930966e-39
203	0x8004923f	-4.19805e-40
204	0x8020c7c3	-3.010397e-39
205	0x00266d41	3.528942e-39
206	0x004535fe	6.356018e-39
207	0x000d40db	1.217127e-39
208	0x80187d39	-2.248973e-39
209	0x80443fe3	-6.267732e-39
210	0x8040cc9a	-5.950869e-39
211	0x00379600	5.104762e-39
212	0x8038eecc	-5.228452e-39
213	0x8019adb5	-2.358202e-39
214	0x80433f10	-6.175601e-39
215	0x0031a5ec	4.559461e-39
216	0x001a588a	2.419485e-39
217	0x800f2f77	-1.39456e-39
218	0x803ecc6e	-5.767136e-39
219	0x00021653	1.9168e-40
220	0x00300005	4.408111e-39
221	0x00433578	6.172159e-39
222	0x8006e33b	-6.32528e-40
223	0x8003d17a	-3.50653e-40
224	0x80347f16	-4.821036e-39
225	0x0002b6da	2.49266e-40
226	0x804447b7	-6.27054e-39
227	0x0003cf65	3.49906e-40
228	0x802cf031	-4.126926e-39
229	0x00047a59	4.11232e-40
230	0x0021cdd7	3.104413e-39
231	0x0001ac0b	1.53553e-40
232	0x00221a0d	3.131752e-39
233	0x0031b06e	4.56323e-39
234	0x002db401	4.19717e-39
235	0x80095d87	-8.60071e-40
236	0x80114c68	-1.588613e-39
237	0x00308936	4.457326e-39
238	0x0020301c	2.955994e-39
239	0x8026c7dd	-3.561446e-39
240	0x80356d0a	-4.906397e-39
241	0x001f807a	2.892989e-39
242	0x80205983	-2.970847e-39
243	0x0021cc05	3.10376e-39
244	0x801f8e61	-2.897976e-39
245	0x0045a179	6.394575e-39
246	0x80167e49	-2.065683e-39
247	0x00275359	3.611484e-39
248	0x8038dc9f	-5.221932e-39
249	0x80295851	-3.796937e-39
250	0x802cb63e	-4.106138e-39
251	0x00159005	1.98021e-39
252	0x8005bd5d	-5.27108e-40
253	0x80409e02	-5.934154e-39
254	0x8035becb	-4.935725e-39
255	0x00152583	1.942002e-39

fc1.bias f4 [256]
0	0xb2ad8bb9	-2.020339e-08
1	0x000f7569	1.419651e-39
2	0xb4c8cfca	-3.740409e-07
3	0xb37fd68a	-5.9566936e-08
4	0x00444550	6.269678e-39
5	0x33489512	4.6701707e-08
6	0xb2b003e0	-2.0490859e-08
7	0x0026d016	3.564396e-39
8	0x000658ef	5.82916e-40
9	0x80096c64	-8.65403e-40
10	0x001a2fe9	2.40491e-39
11	0x804500ca	-6.336932e-39
12	0x3468aca8	2.1669496e-07
13	0x002e8cc1	4.274926e-39
14	0x80116215	-1.596389e-39
15	0x00286874	3.71089e-39
16	0x002f7a58	4.360157e-39
17	0x801dfeb5	-2.754601e-39
18	0x002108cf	3.033731e-39
19	0xb52149ef	-6.008476e-07
20	0x800c9d2b	-1.158407e-39
21	0xb2f275b2	-2.822603e-08
22	0x3300cfd9	2.999136e-08
23	0x8002ee62	-2.69187e-40
24	0xb138f61c	-2.691542e-09
25	0x801b5cd6	-2.512862e-39
26	0xb46563f2	-2.1363647e-07
27	0x35067bcb	5.009903e-07
28	0x32f8c64a	2.8961171e-08
29	0xb17442a1	-3.5544547e-09
30	0x00109776	1.523702e-39
31	0xb58e887a	-1.0619544e-06
32	0x8042e078	-6.141667e-39
33	0xb2963176	-1.748479e-08
34	0x800e07ac	-1.288449e-39
35	0xb30df3d9	-3.30509e-08
36	0xb61948b3	-2.2841093e-06
37	0x8005db6d	-5.37893e-40
38	0xb49d00c9	-2.92441e-07
39	0x803931e2	-5.252518e-39
40	0xb4d22526	-3.9142577e-07
41	0x3377d710	5.7704767e-08
42	0xb3c2bb32	-9.0678796e-08
43	0x003808bc	5.145921e-39
44	0x803effb9	-5.785537e-39
45	0x800cd932	-1.179941e-39
46	0x3500670a	4.783366e-07
47	0x000cb823	1.168082e-39
48	0x8034f4af	-4.863222e-39
49	0x8005e4f1	-5.41306e-40
50	0x803510b1	-4.873269e-39
51	0x8015f960	-2.018004e-39
52	0xb3fd738f	-1.18022506e-07
53	0x001fbe92	2.915264e-39
54	0x8043b5d4	-6.218206e-39
55	0x0041aa0f	6.030313e-39
56	0x3379da03	5.817311e-08
57	0x002dd1d4	4.20787e-39
58	0xb43a7be6	-1.7367674e-07
59	0x00262c96	3.505743e-39
60	0x32637333	1.3239332e-08
61	0x00036eba	3.15228e-40
62	0x0045bb66	6.403875e-39
63	0x8025fda0	-3.488897e-39
64	0xb5215104	-6.0095067e-07
65	0x319d9e4e	4.5872985e-09
66	0x3610edcd	2.159609e-06
67	0x002cdfff	4.121116e-39
68	0x802e0237	-4.225227e-39
69	0xb3ba1bba	-8.6663434e-08
70	0x80025500	-2.14163e-40
71	0x32c861ab	2.3327479e-08
72	0x80377eee	-5.096486e-39
73	0xb2dd0c42	-2.573336e-08
74	0x34bc6040	3.508776e-07
75	0x342bbed5	1.599504e-07
76	0xb4326405	-1.6613929e-07
77	0xb0c0baad	-1.4022895e-09
78	0x32b280ee	2.0780558e-08
79	0x0043d2c9	6.228594e-39
80	0x32b23937	2.0747946e-08
81	0xb29c43ef	-1.8191683e-08
82	0xb30ad40a	-3.2323477e-08
83	0x004608fc	6.431708e-39
84	0x347c9fab	2.3527416e-07
85	0xb1ac4860	-5.014087e-09
86	0x00458b95	6.386722e-39
87	0x8010726e	-1.510418e-39
88	0x35557c9e	7.9530025e-07
89	0xb39f0d69	-7.406454e-08
90	0xb34d624c	-4.7819682e-08
91	0x00121d51	1.663556e-39
92	0x003768ac	5.088501e-39
93	0xb271f630	-1.4084023e-08
94	0x34ae5a60	3.2475782e-07
95	0x3411df3c	1.358539e-07
96	0xb6977db6	-4.5147854e-06
97	0x0024a17c	3.364008e-39
98	0xb2bda9e2	-2.207975e-08
99	0x8015c986	-2.000838e-39
100	0x80172287	-2.124602e-39
101	0x33e5eb7a	1.07064764e-07
102	0x328aa187	1.6138769e-08
103	0x3249d429	1.17479795e-08
104	0x002d5356	4.162493e-39
105	0x2f89b1d1	2.50465e-10
106	0x0021759f	3.072766e-39
107	0x33a88e7c	7.8490274e-08
108	0x33e75deb	1.0773859e-07
109	0x3493c25f	2.7522307e-07
110	0x33252a51	3.8455543e-08
111	0x3540dc5b	7.1846233e-07
112	0x803ada6c	-5.404814e-39
113	0x800e6e77	-1.325324e-39
114	0xb25ac450	-1.2733906e-08
115	0x00194570	2.320797e-39
116	0x002d18e2	4.141524e-39
117	0x341eebc2	1.4800665e-07
118	0x35002e43	4.7751035e-07
119	0xb2af7dc9	-2.0429882e-08
120	0x33d94228	1.0116884e-07
121	0x35c4c0bf	1.4659234e-06
122	0x33ab7653	7.984331e-08
123	0xb301caa2	-3.0219447e-08
124	0x80245d1a	-3.339476e-39
125	0xb587c36c	-1.0115159e-06
126	0x800c1cc7	-1.11235e-39
127	0x003b14f0	5.425805e-39
128	0x3330a339	4.1126643e-08
129	0x8008c539	-8.05434e-40
130	0x32dedc8a	2.5944491e-08
131	0x35084a2c	5.077188e-07
132	0x002165f7	3.06715e-39
133	0xb30a63e6	-3.2221486e-08
134	0x000f1d10	1.387958e-39
135	0x341691b7	1.402285e-07
136	0xb3c87291	-9.334065e-08
137	0x36095982	2.0466691e-06
138	0x80158243	-1.975275e-39
139	0x35952378	1.1111688e-06
140	0x35f17c70	1.7992115e-06
141	0x35518de6	7.8065057e-07
142	0xb2d2d503	-2.4544084e-08
143	0x802b3e68	-3.971313e-39
144	0x00309f98	4.465355e-39
145	0xb34048b7	-4.4769617e-08
146	0x802b4ed6	-3.977207e-39
147	0xb5cc5359	-1.5223442e-06
148	0x80121c08	-1.663095e-39
149	0x8039cfa0	-5.309105e-39
150	0x804113c8	-5.976403e-39
151	0xb54006a6	-7.153525e-07
152	0xb2653741	-1.3342118e-08
153	0x003622bf	4.971581e-39
154	0x8024fac0	-3.39603e-39
155	0x3373181a	5.6599767e-08
156	0x32883f4f	1.5861273e-08
157	0x0007de41	7.22578e-40
158	0xb1594755	-3.1618204e-09
159	0x0001d540	1.68335e-40
160	0x00367d63	5.004097e-39
161	0x3418220c	1.416849e-07
162	0x33ad589c	8.072058e-08
163	0x0044a4bd	6.30391e-39
164	0xb3a23453	-7.5532306e-08
165	0x000269aa	2.21576e-40
166	0xb426f747	-1.5549914e-07
167	0xb4601d8e	-2.0872378e-07
168	0xb3af0906	-8.150714e-08
169	0xb4feb227	-4.744081e-07
170	0x00166170	2.055335e-39
171	0x3379b09c	5.8135456e-08
172	0x003d5f18	5.636078e-39
173	0x334e1c56	4.7988884e-08
174	0xb37b688c	-5.8535576e-08
175	0x3342dba6	4.5368914e-08
176	0xb5a3b521	-1.2197162e-06
177	0xb30d2e05	-3.2870975e-08
178	0x802d2957	-4.147427e-39
179	0x80429ba7	-6.11698e-39
180	0x801a970c	-2.441908e-39
181	0x355988c9	8.103785e-07
182	0x80323362	-4.610207e-39
183	0x333f11a0	4.4486683e-08
184	0xb2e7dc5e	-2.699215e-08
185	0x8003b82c	-3.41575e-40
186	0x341b7fe1	1.4482022e-07
187	0x801a3e7b	-2.410137e-39
188	0x35acf139	1.2885204e-06
189	0x801a2a7f	-2.402968e-39
190	0x000e191f	1.294709e-39
191	0xb448ce93	-1.8701603e-07
192	0x34aaac68	3.179041e-07
193	0x801f72b0	-2.888043e-39
194	0x33b4d079	8.419824e-08
195	0x000d078b	1.196567e-39
196	0x8032e416	-4.673597e-39
197	0xb458adf3	-2.017985e-07
198	0x31a98c4d	4.9344977e-09
199	0x0045b590	6.401782e-39
200	0xb5654a53	-8.5417304e-07
201	0x8005bfd2	-5.2799e-40
202	0x000958ea	8.58416e-40
203	0xb4fc283b	-4.696793e-07
204	0x8000abd4	-6.164e-41
205	0x33e29b56	1.05522005e-07
206	0x001aa75c	2.44776e-39
207	0x800307fa	-2.78368e-40
208	0x333afe90	4.3538023e-08
209	0x322f58cd	1.0206532e-08
210	0xb2e66c62	-2.682481e-08
211	0x80047600	-4.09672e-40
212	0xb41a871d	-1.4391522e-07
213	0x33c7d57b	9.3054915e-08
214	0x8042925d	-6.113648e-39
215	0xb61e9524	-2.3630646e-06
216	0x33bc7da2	8.777285e-08
217	0xb0f9afd6	-1.816711e-09
218	0x353b6b3f	6.981899e-07
219	0xb4c87fee	-3.7345984e-07
220	0x8045cd26	-6.410243e-39
221	0x000fe9fb	1.461469e-39
222	0x80332233	-4.695879e-39
223	0x31beb9d3	5.5508536e-09
224	0x800d8c19	-1.244119e-39
225	0x800d37e2	-1.213908e-39
226	0x00237560	3.256349e-39
227	0x801a6d4a	-2.426928e-39
228	0xb4ba24d2	-3.467199e-07
229	0xb39a1570	-7.175083e-08
230	0x80382a84	-5.15804e-39
231	0xb3b637d7	-8.4851926e-08
232	0x351bc8aa	5.8034004e-07
233	0x34ea4368	4.363494e-07
234	0x80460b6b	-6.432581e-39
235	0xb31c502b	-3.6394493e-08
236	0xb3f03792	-1.1185979e-07
237	0x34a94af3	3.1533236e-07
238	0x001959a5	2.328046e-39
239	0x80241fb2	-3.317448e-39
240	0x000415c3	3.75149e-40
241	0x3326fb83	3.8878635e-08
242	0x8015f12e	-2.015064e-39
243	0x339766c9	7.050182e-08
244	0x802e2005	-4.235919e-39
245	0x8034890f	-4.824613e-39
246	0x8018ce37	-2.278028e-39
247	0xb415d0bf	-1.3952648e-07
248	0x002f8e65	4.36735e-39
249	0xb3102949	-3.356516e-08
250	0x349df1af	2.9419377e-07
251	0x3371406f	5.6170787e-08
252	0x803ef17d	-5.78043e-39
253	0x8041ab72	-6.03081e-39
254	0x8022a610	-3.181979e-39
255	0x00442f5b	6.261802e-39

bn_layer.weight f4 [256]
0	0x3dacbbaf	0.08434235
1	0x0022cbf0	3.195566e-39
2	0x3e62cbcd	0.22148056
3	0x3e0c5823	0.13705496
4	0x003c8114	5.556434e-39
5	0x3ebc75a5	0.36808506
6	0x3e41658a	0.1888639
7	0x8032fa04	-4.681464e-39
8	0x803c3a40	-5.531026e-39
9	0x803fd83e	-5.86321e-39
10	0x800901f3	-8.27219e-40
11	0x80355f4b	-4.901466e-39
12	0x3e6e95a5	0.23299272
13	0x8032d6b3	-4.668794e-39
14	0x000c99b4	1.157164e-39
15	0x802440d0	-3.329328e-39
16	0x801579d0	-1.972244e-39
17	0x00432e51	6.169593e-39
18	0x001ae8fc	2.471302e-39
19	0x3e95de12	0.2927099
20	0x80435049	-6.181779e-39
21	0x3e1398e5	0.14413793
22	0x3e507e99	0.20360793
23	0x003c8f59	5.561553e-39
24	0x3defb524	0.11704472
25	0x00241851	3.314801e-39
26	0x3e0c6257	0.13709389
27	0x3e88eccf	0.2674317
28	0x3d98df35	0.07464448
29	0x3e59c32f	0.21265863
30	0x8036b5b1	-5.024295e-39
31	0x3eb6a3fe	0.3567199
32	0x8021d9df	-3.108729e-39
33	0x3d7541b3	0.05987711
34	0x003031fc	4.426035e-39
35	0x3e1e41d0	0.15454793
36	0x3f1acdb5	0.60470134
37	0x8009e134	-9.07307e-40
38	0x3e302df7	0.17205034
39	0x002a9294	3.909673e-39
40	0x3e43e163	0.19128947
41	0x3e4691c0	0.19391537
42	0x3df274d8	0.118386924
43	0x001e1690	2.763159e-39
44	0x003e55ee	5.724627e-39
45	0x000984d1	8.74165e-40
46	0x3e9631e6	0.29334944
47	0x000e6459	1.321695e-39
48	0x001d342c	2.681945e-39
49	0x0012c26f	1.722789e-39
50	0x8041e39c	-6.050958e-39
51	0x801666db	-2.057279e-39
52	0x3edc7cc2	0.43063933
53	0x0044a7d5	6.30502e-39
54	0x0045f378	6.42399e-39
55	0x000800cd	7.34971e-40
56	0x3dd63c08	0.10460669
57	0x80281699	-3.681526e-39
58	0x3e57a5f2	0.21059397
59	0x0016d1a0	2.09558e-39
60	0x3eb2ff8f	0.349606
61	0x80096b03	-8.64908e-40
62	0x0016517e	2.049615e-39
63	0x80092f9e	-8.43601e-40
64	0x3e55161a	0.20809212
65	0x3e0c67d7	0.13711487
66	0x3df0cadc	0.11757442
67	0x001623ce	2.033225e-39
68	0x0003c394	3.45667e-40
69	0x3e2f75e8	0.17134821
70	0x8045b284	-6.400689e-39
71	0x3d97f0e7	0.07418995
72	0x000d7dbe	1.238969e-39
73	0x3e96ebb9	0.29476717
74	0x3eb904c7	0.36136457
75	0x3ee4502a	0.4459241
76	0x3e68fb46	0.22752103
77	0x3d620626	0.055181645
78	0x3dafcf62	0.08584477
79	0x803433ce	-4.79403e-39
80	0x3e8b3605	0.2718965
81	0x3ebc0c55	0.3672816
82	0x3d8ad482	0.06778814
83	0x002d5f3c	4.166761e-39
84	0x3e755124	0.23956734
85	0x3e3ae388	0.18250859
86	0x00318b2c	4.549865e-39
87	0x002a10a8	3.863066e-39
88	0x3ea91abe	0.33028215
89	0x3f03d6c6	0.51499593
90	0x3d99dc9d	0.07512782
91	0x80124d2a	-1.68072e-39
92	0x00419aa5	6.024783e-39
93	0x3eb7010d	0.3574299
94	0x3dfc6888	0.12324625
95	0x3e14aa0f	0.14517997
96	0x3eda3c5d	0.4262418
97	0x001a6235	2.422953e-39
98	0x3db8a8bc	0.090165585
99	0x001144d1	1.58589e-39
100	0x00454686	6.361948e-39
101	0x3ea95d3d	0.33078948
102	0x3d3e8da3	0.046521794
103	0x3df3dc4e	0.11907254
104	0x001e5208	2.784492e-39
105	0x3db6ebec	0.08931717
106	0x00231c10	3.224309e-39
107	0x3e1b9264	0.15192562
108	0x3d98c17d	0.0745878
109	0x3e27379d	0.16329809
110	0x3e121bd4	0.14268428
111	0x3ed5b78c	0.41741598
112	0x000e815b	1.332101e-39
113	0x802bba04	-4.015656e-39
114	0x3e09644d	0.13417168
115	0x00393f56	5.257344e-39
116	0x80151fad	-1.939909e-39
117	0x3e75de9d	0.24010701
118	0x3e3afb91	0.18260027
119	0x3dbcbc49	0.092156
120	0x3dac9d1c	0.08428404
121	0x3e790aca	0.24320522
122	0x3e877fc5	0.26464668
123	0x3e6f3c32	0.23362806
124	0x8022d7c7	-3.199813e-39
125	0x3eedbeed	0.46434727
126	0x802655b7	-3.520498e-39
127	0x800051f0	-2.9394e-41
128	0x3e05b380	0.13056755
129	0x002c05ad	4.042798e-39
130	0x3e679806	0.22616586
131	0x3e149ec6	0.14513692
132	0x003601f3	4.959816e-39
133	0x3e161043	0.14654641
134	0x803c6546	-5.54646e-39
135	0x3e9ac035	0.30224767
136	0x3e28b365	0.16474684
137	0x3eeb8549	0.46000126
138	0x800f96a7	-1.431576e-39
139	0x3ec95e92	0.39329964
140	0x3eb057d3	0.34442005
141	0x3ebd3746	0.36956233
142	0x3d860384	0.06543639
143	0x80224387	-3.146631e-39
144	0x802ea54c	-4.28373e-39
145	0x3da97f07	0.08276182
146	0x00352d65	4.883566e-39
147	0x3e8bdb5e	0.273158
148	0x8004e828	-4.50624e-40
149	0x80117a27	-1.605023e-39
150	0x00460bc0	6.4327e-39
151	0x3ef1a98e	0.47199672
152	0x3e1a8b7c	0.15092272
153	0x001e4ec4	2.78332e-39
154	0x8025b38b	-3.462321e-39
155	0x3de527b9	0.11189217
156	0x3e7b2516	0.24525866
157	0x8016d808	-2.097878e-39
158	0x3e25bee2	0.16186097
159	0x0031efd7	4.585978e-39
160	0x8004f3b6	-4.54769e-40
161	0x3d461fa8	0.048370034
162	0x3ebb19d1	0.36543134
163	0x803f8a5f	-5.835274e-39
164	0x3e9888a8	0.2979176
165	0x002f598f	4.348396e-39
166	0x3e881086	0.26575106
167	0x3e6aae52	0.2291806
168	0x3e1b31b5	0.1515568
169	0x3da55fd3	0.08074918
170	0x802605e4	-3.491862e-39
171	0x3ecc7dfd	0.3993987
172	0x0031aae3	4.561242e-39
173	0x3e497311	0.196728
174	0x3e0d6dfa	0.13811484
175	0x3e1ca5e9	0.15297665
176	0x3e98fbc0	0.2987957
177	0x3e370f86	0.17877015
178	0x002d8b2c	4.182523e-39
179	0x001adde2	2.46732e-39
180	0x0013b8ba	1.811142e-39
181	0x3e4abc91	0.19798495
182	0x802a9b2f	-3.91276e-39
183	0x3db41d79	0.08794684
184	0x3e32419c	0.1740784
185	0x0036fbab	5.049398e-39
186	0x3df121e7	0.117740445
187	0x8027e729	-3.664509e-39
188	0x3ea7ef85	0.32799926
189	0x800db6c3	-1.259424e-39
190	0x0009f1c4	9.13249e-40
191	0x3ea28468	0.31741643
192	0x3efd3b6c	0.49459398
193	0x80191365	-2.302845e-39
194	0x3e77db4c	0.24204749
195	0x8017704d	-2.152502e-39
196	0x801b8f4a	-2.530961e-39
197	0x3dfe204f	0.12408506
198	0x3e39fc11	0.18162562
199	0x0009ef6b	9.12406e-40
200	0x3e8ac48e	0.27103084
201	0x0014b500	1.90164e-39
202	0x000bf26b	1.097154e-39
203	0x3e119b7d	0.1421947
204	0x00434009	6.17595e-39
205	0x3ebac7ef	0.36480662
206	0x001f707b	2.887251e-39
207	0x002ffc6b	4.406819e-39
208	0x3d7ea1ca	0.062166013
209	0x3e450da1	0.1924348
210	0x3e45957c	0.19295305
211	0x8036f97d	-5.048616e-39
212	0x3e84bf89	0.2592738
213	0x3e776150	0.24158216
214	0x801d431d	-2.687305e-39
215	0x3ecf0544	0.40433705
216	0x3d80a900	0.06282234
217	0x3d57f65f	0.052725192
218	0x3e09b7c3	0.13449006
219	0x3ea1a086	0.31567782
220	0x801af171	-2.474336e-39
221	0x802f62bb	-4.351686e-39
222	0x00191680	2.303959e-39
223	0x3e0a9661	0.13533928
224	0x8015f9f1	-2.018208e-39
225	0x800bda23	-1.088443e-39
226	0x00151e52	1.939422e-39
227	0x0021962d	3.084444e-39
228	0x3e50639a	0.20350495
229	0x3dfab92a	0.122423485
230	0x0033f1f7	4.770411e-39
231	0x3e62bbf8	0.22142017
232	0x3e6def76	0.23235878
233	0x3e43905c	0.19098037
234	0x00388689	5.19105e-39
235	0x3e5a94e1	0.21345855
236	0x3e35385f	0.17697285
237	0x3e77d168	0.24200976
238	0x003bce36	5.492269e-39
239	0x8023ee5a	-3.299747e-39
240	0x002b4648	3.974138e-39
241	0x3e507d48	0.20360291
242	0x80186dbe	-2.24342e-39
243	0x3d8e2967	0.069414906
244	0x80140656	-1.838983e-39
245	0x00365211	4.988557e-39
246	0x80049c0b	-4.2332e-40
247	0x3dfd701d	0.123748995
248	0x800a8ece	-9.69584e-40
249	0x3e9a818c	0.3017696
250	0x3e35d669	0.17757572
251	0x3dd661ec	0.10467896
252	0x8011c0b4	-1.630332e-39
253	0x8015fc6b	-2.019096e-39
254	0x801b5124	-2.508666e-39
255	0x0000b366	6.4356e-41

bn_layer.bias f4 [256]
0	0xbc7ce803	-0.015436175
1	0x81e8d844	-8.5533666e-38
2	0x3caedcca	0.021345515
3	0xbba46a05	-0.0050175213
4	0x831496fc	-4.3666613e-37
5	0xbc7d53c7	-0.015461869
6	0xbd1b4e9b	-0.03791676
7	0x8045d810	-6.414158e-39
8	0x826323f4	-1.6687644e-37
9	0x87d1dd20	-3.157679e-34
10	0x803f3360	-5.804066e-39
11	0x87f8f457	-3.7458503e-34
12	0x3bfa4b7d	0.0076383934
13	0x8147c548	-3.669207e-38
14	0x860e78d1	-2.6795994e-35
15	0x824a0ab0	-1.4843683e-37
16	0x81fe2b68	-9.336715e-38
17	0x82a3fc82	-2.409563e-37
18	0x87cf697c	-3.1207896e-34
19	0x3d8101ad	0.06299148
20	0x87e27faf	-3.4079746e-34
21	0xbd6c322f	-0.057665046
22	0x3d17ea29	0.037088547
23	0x802576e0	-3.440558e-39
24	0xbd9116af	-0.07084405
25	0x81110a97	-2.6639892e-38
26	0x3d8cd8a7	0.06877261
27	0x3cd3bbec	0.025846444
28	0xbd103a7c	-0.035212025
29	0x3ce8e337	0.028428657
30	0x824577f2	-1.4507697e-37
31	0x3c594ee3	0.013263437
32	0x80d56530	-1.959726e-38
33	0xbd2f15be	-0.042745344
34	0x820914d0	-1.0071143e-37
35	0xbd18a768	-0.037269026
36	0x3dd8cee7	0.105863385
37	0x81550128	-3.912275e-38
38	0xbd214517	-0.03937253
39	0x85172a37	-7.1077395e-36
40	0xbccaef90	-0.024772435
41	0x3d27509d	0.040848363
42	0xbcdfba53	-0.027310526
43	0x02518eb7	1.5395852e-37
44	0x8074bff0	-1.0721772e-38
45	0x815c9068	-4.0511225e-38
46	0xbbed1163	-0.0072347387
47	0x8365c304	-6.752092e-37
48	0x87c39458	-2.9427528e-34
49	0x83d80290	-1.2695927e-36
50	0x8a4a2a86	-9.733944e-33
51	0x8029f7b0	-3.854109e-39
52	0xbd253ef0	-0.040343225
53	0x8177be70	-4.5503367e-38
54	0x803783e0	-5.09826e-39
55	0x8089ba40	-1.2648277e-38
56	0xbcbbb5e7	-0.022913886
57	0x833aeaa6	-5.492985e-37
58	0xbd5133ae	-0.051074676
59	0x83791b9e	-7.3206226e-37
60	0xbd092357	-0.03348097
61	0x80446b70	-6.283355e-39
62	0x801b78c0	-2.522875e-39
63	0x81297c88	-3.1129744e-38
64	0x3c879a4f	0.016553072
65	0x391a1301	0.00014693664
66	0xbc9eae05	-0.019370088
67	0x846dbd2f	-2.7946085e-36
68	0x8b611510	-4.334927e-32
69	0xbd53b9fe	-0.051691048
70	0x842f9e7c	-2.0643924e-36
71	0xbd30b7d3	-0.04314406
72	0x8033b750	-4.74937e-39
73	0xbc6e8cf9	-0.014559978
74	0xbd2fe44e	-0.042942338
75	0x3d49f47b	0.04930542
76	0x3c7e57c8	0.015523858
77	0xbd2f1945	-0.04274871
78	0xbc9cbea5	-0.019133875
79	0x829dbf70	-2.3178956e-37
80	0x3cf82f33	0.030295944
81	0xbdae88f5	-0.08522216
82	0xbd8357e6	-0.0641325
83	0x80789690	-1.1074271e-38
84	0xbc84c536	-0.016207319
85	0xbd4f5e5f	-0.05062711
86	0x81e5c2e8	-8.440099e-38
87	0x815479b8	-3.902558e-38
88	0xbc5e261d	-0.013558892
89	0x3d2653a5	0.040607113
90	0xbd31800f	-0.043335017
91	0x8629118c	-3.179826e-35
92	0x80c1fd70	-1.7815167e-38
93	0x3beffadd	0.0073236064
94	0xbd31995f	-0.043359157
95	0xbd60435d	-0.054751743
96	0xbbf74758	-0.0075463466
97	0x800a3740	-9.38175e-40
98	0xbd2257d6	-0.039634548
99	0x82c2c9ae	-2.8621496e-37
100	0x8363c3ec	-6.693421e-37
101	0x3c2a2afa	0.010386223
102	0xbd3b8110	-0.04577738
103	0xbbbbca84	-0.005730929
104	0x8579b481	-1.1741077e-35
105	0xbd2b1d2c	-0.041775867
106	0x818e5c98	-5.229543e-38
107	0xbd526da0	-0.051374078
108	0xbd060c0b	-0.03272633
109	0xbd3c75e8	-0.04601088
110	0x3c7289cf	0.014803364
111	0x3c11d085	0.008899813
112	0x819d110c	-5.769715e-38
113	0x8624cbb0	-3.0994618e-35
114	0xbc7c270d	-0.01539017
115	0x814a1148	-3.711394e-38
116	0x84fb5e41	-5.9096375e-36
117	0xbc1b0545	-0.009461706
118	0xbcfe578a	-0.031047601
119	0xbd909116	-0.07058923
120	0xbc7c351d	-0.015393523
121	0x3d7efa96	0.062250696
122	0xbd026b55	-0.03184064
123	0x3ca7c426	0.020479273
124	0x811bc1a8	-2.8607945e-38
125	0x3d0f89fa	0.035043694
126	0x80a63110	-1.5262293e-38
127	0x8007f4e8	-7.30704e-40
128	0xbcd242ff	-0.025666712
129	0x82b7349a	-2.6919625e-37
130	0xbd427ba5	-0.047481198
131	0x3cdd6693	0.02702645
132	0x8265cc35	-1.6882867e-37
133	0x3c351150	0.011051491
134	0x973357c7	-5.794881e-25
135	0xbd5794e8	-0.052632242
136	0xbd52d0dc	-0.051468715
137	0xbcac2fd3	-0.021018898
138	0x83bd049f	-1.1109483e-36
139	0xbc6d2ef6	-0.014476528
140	0xbbfcd918	-0.0077163093
141	0xbdb2ed84	-0.08736709
142	0xbd5bdbe5	-0.053676505
143	0x800b9bd0	-1.066085e-39
144	0x8577d856	-1.1653619e-35
145	0xbd0be496	-0.034153543
146	0x8554bb71	-1.000262e-35
147	0xbdd13a71	-0.10216225
148	0x8362af1a	-6.6616438e-37
149	0x82864e6e	-1.9734547e-37
150	0x819735f0	-5.5546036e-38
151	0x3c268fe6	0.010166144
152	0xbd663637	-0.056204047
153	0x86407b2f	-3.6201687e-35
154	0x86d3af8b	-7.9627316e-35
155	0x3b50ae47	0.0031842159
156	0x3ced74e6	0.028986406
157	0x8526ea24	-7.848287e-36
158	0xbb04c97b	-0.0020261693
159	0x82c656a7	-2.9143221e-37
160	0x800bdd00	-1.08947e-39
161	0xbd405f9b	-0.046966176
162	0xbd0ca8a6	-0.034340523
163	0x87ab1f51	-2.5747626e-34
164	0x3c004404	0.007828716
165	0x83351ec5	-5.322644e-37
166	0xbc8e9fe9	-0.017410235
167	0x3cfc48cd	0.030796433
168	0xbcd02fe9	-0.02541347
169	0xbd4b91ba	-0.049699523
170	0x85ff2eae	-2.3997232e-35
171	0x3cad31f5	0.021141985
172	0x80f95af0	-2.2899661e-38
173	0xbd17705e	-0.036972396
174	0xbc96eebd	-0.018424386
175	0x3c330dc8	0.010928579
176	0x3c4abc3b	0.012373979
177	0xbd4aff79	-0.049560044
178	0x8181d2b0	-4.768944e-38
179	0x8207f00e	-9.987126e-38
180	0x82e08b2f	-3.299373e-37
181	0x3cc032e2	0.023461763
182	0x83ece21c	-1.39227455e-36
183	0xbd1cc95e	-0.038277976
184	0xbd17b7f8	-0.03704068
185	0x802ef3d0	-4.311896e-39
186	0xbc0e68b2	-0.0086919535
187	0x81c879c0	-7.36431e-38
188	0xbdb9a289	-0.09064204
189	0x81b0e668	-6.4982806e-38
190	0x80840930	-1.2125581e-38
191	0xbc5db12e	-0.013531012
192	0xbc95dd83	-0.018294102
193	0x800e9fc0	-1.343004e-39
194	0xbcee273e	-0.029071447
195	0x80e19240	-2.0715451e-38
196	0x827a2758	-1.837839e-37
197	0xbd21b994	-0.03948362
198	0xbd1d83ef	-0.0384559
199	0x8547ba5c	-9.391164e-36
200	0x3ce9622e	0.028489199
201	0x80570ae0	-7.99359e-39
202	0x80102a50	-1.484547e-39
203	0xbd4b97da	-0.049705364
204	0x822bdf72	-1.2627222e-37
205	0x3cd5dba0	0.026105702
206	0x8040f820	-5.966482e-39
207	0x81164e24	-2.7606712e-38
208	0xbd462d1e	-0.04838287
209	0x3bd4406f	0.0064774076
210	0xbd5810bb	-0.05275033
211	0x8346663d	-5.8304334e-37
212	0x3cc597c0	0.024120212
213	0xbd3cf00c	-0.046127364
214	0x816e8058	-4.3805778e-38
215	0xbd531acc	-0.051539227
216	0xbd730fdc	-0.059341297
217	0xbd12f320	-0.035876393
218	0xbd3cb551	-0.046071354
219	0x3bf54e2f	0.007486127
220	0x807257d0	-1.0500748e-38
221	0x80134e80	-1.773035e-39
222	0x81d12248	-7.6823666e-38
223	0xbdb5bf1b	-0.08874341
224	0x89711464	-2.9018907e-33
225	0x822d9b1e	-1.2754549e-37
226	0x8011d1f0	-1.636515e-39
227	0x80876510	-1.2434046e-38
228	0x3c4d17cc	0.012517881
229	0xbc9b7ddb	-0.018980911
230	0x853350b3	-8.431362e-36
231	0x3cdb53f6	0.026773434
232	0x3b9fcf1d	0.0048769847
233	0xbd28702f	-0.04112261
234	0x81b1c8d0	-6.5307683e-38
235	0xbd79d970	-0.06099838
236	0xbd918e9c	-0.07107279
237	0x3cc84c97	0.024450583
238	0x81ed300c	-8.7128994e-38
239	0x801876a0	-2.246607e-39
240	0x84b27a6d	-4.196003e-36
241	0x3bd956e0	0.0066326708
242	0x878d1f8c	-2.1233864e-34
243	0xbd30c76c	-0.043158934
244	0x80326670	-4.628522e-39
245	0x840a3658	-1.6246775e-36
246	0x8022b340	-3.18671e-39
247	0xbce4cd52	-0.027929936
248	0x812cb708	-3.172273e-38
249	0x3d2ff116	0.042954527
250	0x3c1cbc7a	0.009566421
251	0xbd5d9113	-0.05409343
252	0x8caccdfd	-2.662477e-31
253	0x82167434	-1.1053608e-37
254	0x810e0bd0	-2.6089756e-38
255	0x80b69180	-1.6766256e-38

bn_layer.running_mean f4 [256]
0	0x3f381a7d	0.7191542
1	0x805fc52b	-8.795103e-39
2	0x3feb4173	1.8379349
3	0xbe0ada2e	-0.13559791
4	0x016d9031	4.3633477e-38
5	0x3ecdfd77	0.4023244
6	0x3fb2a41d	1.3956333
7	0x018ab752	5.0956246e-38
8	0x000ad400	9.94406e-40
9	0x01378f1c	3.3714468e-38
10	0x0127b99e	3.080623e-38
11	0x018b01c3	5.1063064e-38
12	0x3eb08711	0.34478047
13	0x00d1d09d	1.9268455e-38
14	0x81ba554c	-6.8448004e-38
15	0x81ec0451	-8.66989e-38
16	0x01a064c2	5.89193e-38
17	0x01616925	4.140141e-38
18	0x81e4acb5	-8.4001795e-38
19	0x3e400350	0.18751264
20	0x81a7a3b5	-6.158102e-38
21	0x3ed00d66	0.40635222
22	0xbf2ec5a8	-0.6827035
23	0x010963c9	2.5234518e-38
24	0xbfa9d212	-1.3267233
25	0x01d4ecbe	7.821621e-38
26	0x3f2415ac	0.6409557
27	0xbf1757ff	-0.59118646
28	0x3e17cd70	0.14824462
29	0x3efb8cca	0.4913085
30	0x000e38a8	1.306021e-39
31	0xbf03d97c	-0.5150373
32	0x0109ca29	2.530797e-38
33	0xbd4246cc	-0.0474308
34	0x81c037ce	-7.0609737e-38
35	0x3e9307cf	0.28716895
36	0xbe6b9cb0	-0.2300899
37	0x819923ba	-5.625459e-38
38	0xbe1ef9df	-0.15525006
39	0x012918ef	3.1058287e-38
40	0xbfa966cf	-1.32345
41	0x3fd44781	1.6584321
42	0x3e976785	0.29571167
43	0x01e2aa66	8.32638e-38
44	0x8187177e	-4.962488e-38
45	0x013cd462	3.4682524e-38
46	0xbf281570	-0.6565771
47	0x0182c4ac	4.803667e-38
48	0x0020a403	2.997572e-39
49	0x805f31a6	-8.742183e-39
50	0x81565f47	-3.937395e-38
51	0x020f900f	1.0547324e-37
52	0x3e72da14	0.23716003
53	0x81fe4e9b	-9.341766e-38
54	0x801c5fa2	-2.6057e-39
55	0x819b2c4d	-5.7001576e-38
56	0x3f138240	0.5762062
57	0x000454ba	3.97736e-40
58	0x3fabd48f	1.3424243
59	0x824372b1	-1.4359252e-37
60	0x3f9cfc4d	1.2264496
61	0x800dcbd8	-1.266987e-39
62	0x00c313d2	1.7915032e-38
63	0x02493108	1.4781219e-37
64	0x3f2f21bd	0.68410856
65	0xbe1ce91d	-0.153233
66	0x3fca7429	1.5816699
67	0x81f61cf7	-9.040769e-38
68	0x01fabf96	9.211041e-38
69	0x3e9dd086	0.30823153
70	0x01b9d39e	6.8261923e-38
71	0x3ed20777	0.4102132
72	0x81333067	-3.2911835e-38
73	0x3f46426c	0.774451
74	0xbeaad2a8	-0.33363843
75	0xbe13c362	-0.14430001
76	0x3f0a9980	0.5414047
77	0xbdd75c64	-0.10515669
78	0xbd7e73fb	-0.062122326
79	0x813c9654	-3.4638002e-38
80	0x3f332df3	0.6999199
81	0xbc89f442	-0.016840104
82	0xbe8b57bc	-0.27215374
83	0x014b1553	3.730051e-38
84	0x3e81a0c5	0.2531797
85	0x3e97884c	0.29596174
86	0x81d13256	-7.6846703e-38
87	0x018bca57	5.135088e-38
88	0x3f74b9db	0.9559609
89	0x3efd0575	0.49418226
90	0x3f8b196f	1.0867137
91	0x00d7087a	1.9747672e-38
92	0x0239e86a	1.3658353e-37
93	0x3f006c80	0.5016556
94	0xbfc2d75e	-1.5221975
95	0x3e320582	0.17384914
96	0x3f8b85a0	1.0900154
97	0x028f56ce	2.1061785e-37
98	0xbf575506	-0.8411411
99	0x80afe17e	-1.6152103e-38
100	0x0195a52b	5.497096e-38
101	0x3f81c95e	1.0139577
102	0xbf1db03d	-0.61597043
103	0xbf21c857	-0.6319632
104	0x0111f1df	2.6805828e-38
105	0xbf59c014	-0.8505871
106	0x8194c909	-5.4655085e-38
107	0xbe7cc83f	-0.24685763
108	0x3f101f6a	0.56297934
109	0xbf32bb7c	-0.6981733
110	0xbeb5b27c	-0.35487735
111	0xbf36a92d	-0.7135189
112	0x80a9eb58	-1.5604624e-38
113	0x813e0ed3	-3.4908124e-38
114	0xbf92bc0c	-1.1463637
115	0x00be6faf	1.7488809e-38
116	0x81ba89a3	-6.852311e-38
117	0xbfaaea82	-1.3352816
118	0x3f35ca74	0.71012044
119	0x3f1a7db0	0.60348034
120	0x3f3bf53d	0.7342108
121	0x3e23cf70	0.159971
122	0x3ecfc80c	0.4058231
123	0x3fbb5dd8	1.4638014
124	0x81e2ebe1	-8.335776e-38
125	0x3ddb8ec8	0.10720593
126	0x81306a81	-3.2402507e-38
127	0x81c78d18	-7.3303515e-38
128	0x3f8148f3	1.0100387
129	0x019cbda1	5.7577454e-38
130	0x3f17e239	0.59329563
131	0x3f9a798f	1.2068347
132	0x8207e9ad	-9.985295e-38
133	0x3f931264	1.1489987
134	0x01b5da04	6.6801736e-38
135	0x3f8e4a7f	1.1116484
136	0xbdc598d4	-0.0964829
137	0x3e60563e	0.21907899
138	0x010aa791	2.546682e-38
139	0x3f51ec1d	0.82000905
140	0x3f542ff1	0.8288565
141	0xbfe477b2	-1.7849028
142	0xbed22f7a	-0.41051847
143	0x01aae222	6.277262e-38
144	0x8180f474	-4.7370547e-38
145	0xbf029b43	-0.5101816
146	0x8111a9dc	-2.6754162e-38
147	0xc00ebc05	-2.2302258
148	0x81889624	-5.017395e-38
149	0x816a3245	-4.301508e-38
150	0x81daa16d	-8.031219e-38
151	0x3fc1b63b	1.5133737
152	0x3f87dc4d	1.0614105
153	0x81808cc5	-4.722177e-38
154	0x811ae08b	-2.8446434e-38
155	0x3f343d10	0.70405674
156	0x3ee8ee65	0.4549438
157	0x018dade5	5.2044746e-38
158	0x3f1c2072	0.6098701
159	0x01841665	4.8521277e-38
160	0x001b03e7	2.480958e-39
161	0x3f17474a	0.59093153
162	0x3f7289d2	0.9474155
163	0x00a2ae2b	1.493983e-38
164	0x3ba2dfe3	0.004970537
165	0x01d68965	7.8808336e-38
166	0xbd32709e	-0.04356443
167	0x3fa8bbbc	1.3182292
168	0x3ee8be30	0.45457602
169	0x3f39c412	0.72564805
170	0x01a4e257	6.056887e-38
171	0x3e0451fc	0.129219
172	0x00700dce	1.0290528e-38
173	0x3dc15c55	0.09441439
174	0x3eae5283	0.34047326
175	0x3f97d3a0	1.1861458
176	0x3f3b637e	0.7319869
177	0xbf947c52	-1.160044
178	0x802f8c12	-4.366516e-39
179	0x010b278c	2.5558641e-38
180	0x81985d6d	-5.597004e-38
181	0x3f4535a2	0.7703496
182	0x014e860b	3.7932396e-38
183	0xbe95cff3	-0.29260215
184	0xbe234bf1	-0.15946938
185	0x822764b8	-1.2298127e-37
186	0x3eff69e2	0.4988547
187	0x011f0836	2.920958e-38
188	0xbf7f8940	-0.998188
189	0x0138bca6	3.393081e-38
190	0x815d7844	-4.0677576e-38
191	0x3d102868	0.035194784
192	0x3e561671	0.20906998
193	0x013d607a	3.4783036e-38
194	0x3d4478a4	0.047966614
195	0x815fc9b9	-4.110336e-38
196	0x820fbc8a	-1.0560089e-37
197	0x3f0b4bca	0.5441252
198	0xbd8a9a61	-0.06767727
199	0x0171ff1a	4.4447736e-38
200	0x3fdeeda3	1.7416271
201	0x01e5451f	8.42205e-38
202	0x816590ab	-4.2164451e-38
203	0x3face172	1.35063
204	0x00a5d640	1.5229715e-38
205	0x3de14ffb	0.11001583
206	0x81aea82e	-6.415883e-38
207	0x8116afc5	-2.7676757e-38
208	0x3eee79a8	0.4657719
209	0x3f3e34c1	0.74299246
210	0xbf5e8128	-0.86915827
211	0x81c65672	-7.2857756e-38
212	0x3f2df427	0.6795067
213	0x3ebaa26c	0.36452043
214	0x81a565b9	-6.075739e-38
215	0x3e579e68	0.21056521
216	0x3e3d1782	0.18465999
217	0x3d7070e6	0.05870142
218	0xbfae99d7	-1.3640698
219	0x3ecb1cef	0.39670512
220	0x010cfdf5	2.5896144e-38
221	0x81b5a0e7	-6.671978e-38
222	0x81c6f2c1	-7.308205e-38
223	0x3e017216	0.12641177
224	0x80e9ef08	-2.1483419e-38
225	0x807506de	-1.0747217e-38
226	0x82288c76	-1.2383001e-37
227	0x015d6727	4.0665297e-38
228	0x3fd0e0b1	1.631857
229	0x3f15efe4	0.5856917
230	0x80c029e1	-1.7647439e-38
231	0x3eef21cc	0.46705472
232	0x4013c9b6	2.3091865
233	0xbf57ca06	-0.8429264
234	0x01ff0d43	9.3691236e-38
235	0x3edb50a3	0.42834958
236	0xbfb6dedc	-1.4286761
237	0x3d2bcc56	0.041942917
238	0x81442814	-3.602827e-38
239	0x81cd29a1	-7.536484e-38
240	0x80ba0ffd	-1.7087138e-38
241	0xbdaf1a4e	-0.08549939
242	0x80c1cd63	-1.779793e-38
243	0x3f643e87	0.8915791
244	0x00946a46	1.3629777e-38
245	0x814257f1	-3.5695267e-38
246	0x01646e70	4.195622e-38
247	0xbe9ef6ca	-0.3104766
248	0x8106c273	-2.4751423e-38
249	0x3ec30a86	0.38093966
250	0x3f8d8547	1.1056298
251	0x3f0a04f9	0.5391384
252	0x81248839	-3.0219778e-38
253	0x8130cab3	-3.2471524e-38
254	0x013504a2	3.3247773e-38
255	0x02048b84	9.737867e-38

bn_layer.running_var f4 [256]
0	0x401133e8	2.268793
1	0x00000004	6e-45
2	0x3ef3ba2e	0.4760298
3	0x3f4d8cd6	0.80293024
4	0x00000004	6e-45
5	0x40827093	4.076242
6	0x3f9671fc	1.1753535
7	0x00000004	6e-45
8	0x00000004	6e-45
9	0x00000004	6e-45
10	0x00000004	6e-45
11	0x00000004	6e-45
12	0x3f8bef2b	1.0932363
13	0x00000004	6e-45
14	0x00000004	6e-45
15	0x00000004	6e-45
16	0x00000004	6e-45
17	0x00000004	6e-45
18	0x00000004	6e-45
19	0x3d36246d	0.044468332
20	0x00000004	6e-45
21	0x3fc284c5	1.5196768
22	0x3e8dcd59	0.2769573
23	0x00000004	6e-45
24	0x3f99c92e	1.201452
25	0x00000004	6e-45
26	0x3f001e50	0.50046253
27	0x3ea2bcb8	0.31784606
28	0x3fd16fdc	1.6362262
29	0x40a00b15	5.001353
30	0x00000004	6e-45
31	0x3e8a5e44	0.27025044
32	0x00000004	6e-45
33	0x3f67e30d	0.90580827
34	0x00000004	6e-45
35	0x3f9dcada	1.232753
36	0x3d828347	0.063726954
37	0x00000004	6e-45
38	0x3f19f93d	0.6014593
39	0x00000004	6e-45
40	0x3dda2e7c	0.106533974
41	0x3f532727	0.82481617
42	0x3f6de829	0.92932373
43	0x00000004	6e-45
44	0x00000004	6e-45
45	0x00000004	6e-45
46	0x3ed0cbcd	0.40780488
47	0x00000004	6e-45
48	0x00000004	6e-45
49	0x00000004	6e-45
50	0x00000004	6e-45
51	0x00000004	6e-45
52	0x3f235b91	0.63811594
53	0x00000004	6e-45
54	0x00000004	6e-45
55	0x00000004	6e-45
56	0x3f49281a	0.78576815
57	0x00000004	6e-45
58	0x3fb04a3d	1.3772656
59	0x00000004	6e-45
60	0x40440382	3.062714
61	0x00000004	6e-45
62	0x00000004	6e-45
63	0x00000004	6e-45
64	0x3e518767	0.20461808
65	0x400b93dd	2.1808999
66	0x3ee24558	0.4419353
67	0x00000004	6e-45
68	0x00000004	6e-45
69	0x3f4c7a2b	0.79873914
70	0x00000004	6e-45
71	0x3e8121e4	0.2522117
72	0x00000004	6e-45
73	0x3e21dc0b	0.15806596
74	0x3f0e93ae	0.5569409
75	0x3d6103de	0.05493533
76	0x3eb95d29	0.36203888
77	0x3f326fbf	0.6970176
78	0x3f37155c	0.71516967
79	0x00000004	6e-45
80	0x3e49e1f1	0.19715096
81	0x3fedbf0a	1.8573925
82	0x3f86a88e	1.0520189
83	0x00000004	6e-45
84	0x3e2b1a2e	0.16709206
85	0x40596aa0	3.3971329
86	0x00000004	6e-45
87	0x00000004	6e-45
88	0x3e16493e	0.14676377
89	0x411b173f	9.693175
90	0x3efbe65d	0.4919919
91	0x00000004	6e-45
92	0x00000004	6e-45
93	0x4056df93	3.357396
94	0x3eb05d66	0.34446257
95	0x3f1cbdc1	0.6122704
96	0x3e851960	0.25995922
97	0x00000004	6e-45
98	0x3fc97b7d	1.5740811
99	0x00000004	6e-45
100	0x00000004	6e-45
101	0x3e8dab1e	0.27669615
102	0x3ec388b6	0.3819024
103	0x3f07813b	0.52931565
104	0x00000004	6e-45
105	0x3ff78dc6	1.9340141
106	0x00000004	6e-45
107	0x3fc24710	1.5177937
108	0x3f6a59bf	0.9154319
109	0x3f2aa6fc	0.6666105
110	0x3f48aaf2	0.7838584
111	0x3f5a5060	0.8527889
112	0x00000004	6e-45
113	0x00000004	6e-45
114	0x3fc527d3	1.5402778
115	0x00000004	6e-45
116	0x00000004	6e-45
117	0x3fc16e3f	1.511177
118	0x3edd5f74	0.43236887
119	0x3fed9c15	1.8563257
120	0x3f0d264f	0.5513658
121	0x3d91cd3a	0.07119222
122	0x3f94b25c	1.1616931
123	0x3ea6744f	0.3251061
124	0x00000004	6e-45
125	0x3e12adb0	0.14324069
126	0x00000004	6e-45
127	0x00000004	6e-45
128	0x4024e829	2.57667
129	0x00000004	6e-45
130	0x3f0ec24e	0.55765235
131	0x3e2448b3	0.16043358
132	0x00000004	6e-45
133	0x3f786af1	0.9703818
134	0x00000004	6e-45
135	0x3eecfdae	0.46287292
136	0x3f026faf	0.50951666
137	0x3da3157c	0.07963082
138	0x00000004	6e-45
139	0x3e65415c	0.22388214
140	0x3ea50e5e	0.32237524
141	0x3f19913c	0.59987235
142	0x3f62034f	0.882863
143	0x00000004	6e-45
144	0x00000004	6e-45
145	0x3f59451c	0.8487108
146	0x00000004	6e-45
147	0x3f0cc7ac	0.54992175
148	0x00000004	6e-45
149	0x00000004	6e-45
150	0x00000004	6e-45
151	0x3f02d612	0.51107895
152	0x3f1b4947	0.6065869
153	0x00000004	6e-45
154	0x00000004	6e-45
155	0x3f29f93c	0.66395926
156	0x40be017b	5.9376807
157	0x00000004	6e-45
158	0x3f51d950	0.8197222
159	0x00000004	6e-45
160	0x00000004	6e-45
161	0x3f4cf9c0	0.8006859
162	0x3e88ba30	0.2670455
163	0x00000004	6e-45
164	0x3f5906f8	0.8477626
165	0x00000004	6e-45
166	0x3e1d72d6	0.15375838
167	0x3ee1d3ff	0.44107053
168	0x3ece765e	0.40324682
169	0x3f11482a	0.5675074
170	0x00000004	6e-45
171	0x3eb29f06	0.3488695
172	0x00000004	6e-45
173	0x4066441e	3.5979075
174	0x3fa8b91f	1.3181494
175	0x408ebad4	4.460306
176	0x3eb42539	0.3518465
177	0x401cb423	2.4484947
178	0x00000004	6e-45
179	0x00000004	6e-45
180	0x00000004	6e-45
181	0x3e34b96a	0.17648855
182	0x00000004	6e-45
183	0x3fdb8106	1.714875
184	0x3f0504db	0.51960534
185	0x00000004	6e-45
186	0x3ec97c9c	0.39352882
187	0x00000004	6e-45
188	0x3f34d27f	0.7063369
189	0x00000004	6e-45
190	0x00000004	6e-45
191	0x3fb622b1	1.4229337
192	0x403195ca	2.7747674
193	0x00000004	6e-45
194	0x400825dd	2.127311
195	0x00000004	6e-45
196	0x00000004	6e-45
197	0x3e878652	0.26469666
198	0x40022faf	2.0341604
199	0x00000004	6e-45
200	0x3f7a643e	0.9780921
201	0x00000004	6e-45
202	0x00000004	6e-45
203	0x3ed7c2a6	0.42140692
204	0x00000004	6e-45
205	0x3e209510	0.15681863
206	0x00000004	6e-45
207	0x00000004	6e-45
208	0x3f1be418	0.6089492
209	0x3f214a6c	0.63004184
210	0x3f5adaae	0.8548993
211	0x00000004	6e-45
212	0x40a86e4f	5.2634654
213	0x3e1bc481	0.15211679
214	0x00000004	6e-45
215	0x3e677bc2	0.22605804
216	0x3f6c29e4	0.9225142
217	0x3f954aee	1.1663492
218	0x3eaa9144	0.33313954
219	0x40a499ef	5.1437907
220	0x00000004	6e-45
221	0x00000004	6e-45
222	0x00000004	6e-45
223	0x3fbdc4fa	1.4825737
224	0x00000004	6e-45
225	0x00000004	6e-45
226	0x00000004	6e-45
227	0x00000004	6e-45
228	0x3ee22d4d	0.44175187
229	0x3fad0ba7	1.3519181
230	0x00000004	6e-45
231	0x3eff50d2	0.49866349
232	0x3f5464b7	0.8296618
233	0x3e5351c9	0.20636667
234	0x00000004	6e-45
235	0x3fb70bff	1.4300536
236	0x3ef77de9	0.4833825
237	0x3d6c5dbc	0.05770658
238	0x00000004	6e-45
239	0x00000004	6e-45
240	0x00000004	6e-45
241	0x3e9ec15d	0.310069
242	0x00000004	6e-45
243	0x3f05740a	0.52130187
244	0x00000004	6e-45
245	0x00000004	6e-45
246	0x00000004	6e-45
247	0x3f03ae3d	0.5143774
248	0x00000004	6e-45
249	0x40d5b675	6.6785226
250	0x3fbd367c	1.4782252
251	0x3e44188a	0.19149986
252	0x00000004	6e-45
253	0x00000004	6e-45
254	0x00000004	6e-45
255	0x00000004	6e-45

fc2.weight f4 [256, 258]
0	0x3c6edc37	0.0145788705
1	0x8038f8f8	-5.232101e-39
2	0x3c30a475	0.010781397
3	0xbcf6966c	-0.030101024
4	0x009f8fd8	1.4653445e-38
5	0xbd112fdb	-0.03544603
6	0x3c4b10d9	0.0123941535
7	0x003754b0	5.081332e-39
8	0x8178ed68	-4.5720737e-38
9	0x8795b4c6	-2.2525277e-34
10	0x804242d0	-6.08511e-39
11	0x070ea9d6	1.0732803e-34
12	0xbcafb324	-0.021447726
13	0x8045e8e0	-6.420189e-39
14	0x84ad4c6c	-4.0742287e-36
15	0x01d9b234	7.996892e-38
16	0x0059a670	8.233066e-39
17	0x0107b678	2.49265e-38
18	0x85e41ddf	-2.145199e-35
19	0xbd9d708b	-0.076874815
20	0x868f3210	-5.386418e-35
21	0xbc936514	-0.017992534
22	0xbc8af7b5	-0.016963819
23	0x800ccb00	-1.174849e-39
24	0x3a60510d	0.00085569994
25	0x805548a0	-7.83207e-39
26	0xbd7544eb	-0.05988018
27	0x3d035b56	0.032069527
28	0x3cb0ab34	0.021566011
29	0xbc3b7bb6	-0.011443069
30	0x81023418	-2.3914604e-38
31	0x3cdad2a1	0.026711764
32	0x8022dae0	-3.200924e-39
33	0xbccaedf4	-0.024771668
34	0x8029ce70	-3.839311e-39
35	0xbc4b7d4a	-0.012420008
36	0x3d0733b1	0.03300828
37	0x00176828	2.14958e-39
38	0xbb5ee9ac	-0.003401379
39	0x042d56d7	2.0375927e-36
40	0x3d4432e6	0.047900103
41	0xbd2332e8	-0.03984347
42	0x3d26d970	0.04073471
43	0x8013b4a0	-1.80967e-39
44	0x80452720	-6.350685e-39
45	0x802523b0	-3.410716e-39
46	0xbc9a52e8	-0.01883836
47	0x0156f208	3.947924e-38
48	0x85b377fc	-1.6877154e-35
49	0x028f24bc	2.1033046e-37
50	0x07a54e22	2.4872363e-34
51	0x80142250	-1.849019e-39
52	0x3cd2d471	0.025736066
53	0x00901ad0	1.323393e-38
54	0x0019b0e0	2.359338e-39
55	0x002453a0	3.336077e-39
56	0x3c4782d3	0.012177187
57	0x822393d4	-1.2017773e-37
58	0xbcdc0cff	-0.026861666
59	0x016c4548	4.339606e-38
60	0x3b386ebe	0.002814218
61	0x8000cb90	-7.3024e-41
62	0x001a0790	2.390436e-39
63	0x8022c710	-3.193817e-39
64	0xbbd72613	-0.006565818
65	0xbc942142	-0.018082265
66	0x3cdb24b7	0.026750905
67	0x03c1f7dc	1.1400426e-36
68	0x89f9b09c	-6.0110652e-33
69	0xbb5c0b25	-0.0033575979
70	0x01a6ce20	6.1274544e-38
71	0xbc5ca991	-0.013468162
72	0x0035f840	4.956337e-39
73	0xbcc1a4ed	-0.023638213
74	0x3cd183b5	0.025575498
75	0xbd6b344f	-0.057422932
76	0xbcafaa65	-0.021443555
77	0x3c663623	0.014050993
78	0x3d0124df	0.031529304
79	0x801bab00	-2.540902e-39
80	0xbdd8fc89	-0.10595042
81	0x3c3a07da	0.011354411
82	0xbbe193cc	-0.006884074
83	0x00171420	2.119436e-39
84	0xbda7575f	-0.081709616
85	0x3cbfb501	0.02340174
86	0x0009b150	8.90127e-40
87	0x0031e5a0	4.582313e-39
88	0xbd79724c	-0.060900018
89	0xbd38e29e	-0.045137994
90	0xba56c17c	-0.00081922836
91	0x046dbdaf	2.7946315e-36
92	0x804534c0	-6.355572e-39
93	0xbc07dcad	-0.008292359
94	0x3c13802a	0.009002725
95	0x3d2969de	0.04136073
96	0xbda6fed7	-0.081540756
97	0x00249d90	3.3626e-39
98	0xbb9d9277	-0.0048087197
99	0x00538b60	7.672345e-39
100	0x8194a9f8	-5.4610507e-38
101	0xbc6fe4f5	-0.01464199
102	0xbb5da1e3	-0.0033818416
103	0xbc689f32	-0.014198111
104	0x83d30082	-1.2401582e-36
105	0x3b0dfd39	0.0021665825
106	0x802f0030	-4.316336e-39
107	0xbc15d91d	-0.009146002
108	0xbc20fd25	-0.009825979
109	0xbd43d823	-0.047813546
110	0x3d319dcc	0.043363377
111	0x3d25a19c	0.040437326
112	0x0033e830	4.766903e-39
113	0x860ffd28	-2.70813e-35
114	0xbc1d3804	-0.009595875
115	0x00109580	1.522998e-39
116	0x8016d210	-2.095737e-39
117	0x3b9fb4ac	0.0048738327
118	0x3d1d25c9	0.038366113
119	0xbd1228e3	-0.035683524
120	0x3d057c1b	0.03258906
121	0x3b9fb34c	0.004873669
122	0x3cce5fed	0.025192225
123	0x3ce7f2c0	0.028313994
124	0x001d1590	2.670965e-39
125	0x3d3871d8	0.045030445
126	0x804083f0	-5.924802e-39
127	0x800af570	-1.006401e-39
128	0x3c2d9e8c	0.010596883
129	0x001599d0	1.983723e-39
130	0xbd137c6b	-0.036007326
131	0xbd07e572	-0.0331778
132	0x001bae30	2.542045e-39
133	0x3c68e0d1	0.014213757
134	0x143d66fd	9.562372e-27
135	0xbc95bf8c	-0.018279813
136	0xbc11341f	-0.008862524
137	0x3d29cdee	0.041456155
138	0x0045e260	6.417857e-39
139	0xbbd2da7c	-0.006434737
140	0xbe1cbf38	-0.15307319
141	0x3cb71823	0.022350376
142	0x3c6c3608	0.014417179
143	0x802962c0	-3.80068e-39
144	0x84bb50d8	-4.4037732e-36
145	0x3b2efd61	0.0026701319
146	0x02b0074d	2.5865066e-37
147	0xbc318832	-0.010835694
148	0x803a1a20	-5.33583e-39
149	0x0036fce0	5.049831e-39
150	0x800d5430	-1.224062e-39
151	0xbc87a851	-0.016559752
152	0xbc8528b8	-0.016254768
153	0x03b5f20d	1.0693796e-36
154	0x0582d0cb	1.230184e-35
155	0xbc36e4be	-0.011162935
156	0xbc79a93a	-0.015238101
157	0x03c26001	1.1424337e-36
158	0x3b918a5a	0.0044415416
159	0x8158f270	-3.9846875e-38
160	0x801ad860	-2.465344e-39
161	0xbcdaa8c1	-0.026691796
162	0xbcd226ca	-0.025653262
163	0x859d4101	-1.4788088e-35
164	0x3cc2327d	0.023705715
165	0x0020aae0	3.000034e-39
166	0x3d54c210	0.051942885
167	0x3c01817d	0.007904408
168	0x3d11cb28	0.035594136
169	0xbc7275ee	-0.014798624
170	0x84cf73cb	-4.8771805e-36
171	0xbd27bebb	-0.04095338
172	0x80361a34	-4.968517e-39
173	0x3cbce53b	0.023058524
174	0x3d0181ea	0.031618036
175	0x3bd3c4eb	0.0064626834
176	0xbd94c5e9	-0.07264311
177	0x3c5e0722	0.013551505
178	0x8037a080	-5.108529e-39
179	0x01107a20	2.6536243e-38
180	0x007f0860	1.1666112e-38
181	0x3d45b118	0.048264593
182	0x8305ade6	-3.9284813e-37
183	0xbcab8de2	-0.020941678
184	0xbd286e33	-0.04112072
185	0x802b3120	-3.966549e-39
186	0x3cde0a41	0.027104499
187	0x80188b00	-2.253916e-39
188	0xbd3b5e23	-0.045744073
189	0x803a7ae0	-5.370538e-39
190	0x001fdb50	2.925575e-39
191	0xbd831555	-0.06400553
192	0xbd6865c0	-0.05673766
193	0x80355d00	-4.900643e-39
194	0xbcb76655	-0.022387663
195	0x8011d740	-1.63842e-39
196	0x00366ca0	4.998084e-39
197	0x3c47d2d5	0.012196262
198	0x3c81038e	0.015748765
199	0x8335eee6	-5.346536e-37
200	0x3cfb2d5e	0.030661281
201	0x802d2bc0	-4.148292e-39
202	0x80083c40	-7.56298e-40
203	0xbd042a64	-0.03226699
204	0x0000fe10	9.114e-41
205	0x3a2b1681	0.00065264857
206	0x00124f00	1.681379e-39
207	0x00067780	5.93881e-40
208	0x3be75c39	0.0070605543
209	0xbd274d50	-0.040845215
210	0xb866a8cf	-5.499349e-05
211	0x00caf520	1.8638705e-38
212	0xbbbf8596	-0.005844782
213	0xbc004389	-0.007828602
214	0x000e8270	1.332489e-39
215	0xba977350	-0.0011554752
216	0xbcef0a7a	-0.0291798
217	0x3b1a3bf4	0.002353427
218	0x3be3fb16	0.006957422
219	0xbcd53196	-0.026024621
220	0x800ce4e0	-1.184131e-39
221	0x0038b1d0	5.206575e-39
222	0x00baed50	1.7166534e-38
223	0xbc930978	-0.017948851
224	0x072496dd	1.2382323e-34
225	0x003e94f0	5.74723e-39
226	0x000132a0	1.09996e-40
227	0x00308420	4.455501e-39
228	0x3d4dfbd7	0.050289
229	0xbcaec51d	-0.021334225
230	0x0449b697	2.3711278e-36
231	0x3c1709a5	0.009218608
232	0x3bfc9fe3	0.0077094897
233	0x3c06b913	0.008222836
234	0x80296fb0	-3.805321e-39
235	0x3c89482b	0.016758045
236	0xbb7efaeb	-0.0038906883
237	0x3c127ac1	0.0089404
238	0x004ca590	7.03889e-39
239	0x8045f7c0	-6.425525e-39
240	0x83913aab	-8.5358035e-37
241	0x3c15e6eb	0.009149293
242	0x862baf17	-3.229016e-35
243	0x3d2542ed	0.04034703
244	0x80215cf0	-3.063911e-39
245	0x82649dbe	-1.6796064e-37
246	0x00390690	5.236977e-39
247	0xbc22fff7	-0.009948722
248	0x00157800	1.971593e-39
249	0x3b6f9de0	0.0036562607
250	0x3ce6eb33	0.028188324
251	0x3c839698	0.01606302
252	0x8c0427ad	-1.018085e-31
253	0x800be6c0	-1.092968e-39
254	0x00075e50	6.76681e-40
255	0x80112ec0	-1.577974e-39
